finalPolicy.pth (torch, 336112 bytes, 8 tensors)

linear1.weight f4 [256, 43]
0	0xbf6ec5a5	-0.9327033
1	0xbe1e2cd9	-0.15446796
2	0xbf6e46ed	-0.93076974
3	0xbe9c8b38	-0.30574965
4	0x3e46c3ac	0.1941058
5	0xbd90d6a9	-0.07072193
6	0xbed0dc8e	-0.4079327
7	0x3af7209b	0.0018854322
8	0xbe9bf8da	-0.30463296
9	0xbea2f522	-0.31827646
10	0xbead5366	-0.3385269
11	0xbe1b2232	-0.15149763
12	0xbf6518a2	-0.8949071
13	0xbea2b00d	-0.3177494
14	0x3eb77296	0.3582961
15	0xbf55a698	-0.83457327
16	0x3fdcec09	1.7259532
17	0x3d55d407	0.05220416
18	0xbf5c8f35	-0.86156017
19	0xbd98668d	-0.07441435
20	0xbde316a6	-0.11088304
21	0x3e271261	0.16315605
22	0xbe90dfdb	-0.28295788
23	0xbd40598f	-0.04696041
24	0xbe4564f9	-0.192768
25	0xbec0e425	-0.3767406
26	0xbcefc1f2	-0.029267285
27	0xbdbc9f7d	-0.092101075
28	0xbe5e11c3	-0.21686463
29	0x3e7b96bc	0.2456922
30	0x3e12abaa	0.14323297
31	0x3e86992a	0.2628873
32	0x3e3b4a77	0.18290125
33	0x3d677dc0	0.05651641
34	0xbcc56f1a	-0.024100829
35	0x3e90614e	0.28199238
36	0xbef93acc	-0.4867767
37	0x3f0ab724	0.541857
38	0xbf583910	-0.8446207
39	0xbea0405c	-0.31299102
40	0x3fa9dc00	1.3270264
41	0x403df3b6	2.968
42	0xbef7a11b	-0.483651
43	0xbec8a054	-0.3918482
44	0x3e3d4133	0.18481903
45	0x3d44e617	0.048070993
46	0x3db13bd7	0.08653992
47	0xbe05100f	-0.12994407
48	0x3ea4b0a8	0.32166028
49	0x3e456b97	0.19279324
50	0x3e86ebf0	0.2635188
51	0x3eae899b	0.3408936
52	0x3da17502	0.078836456
53	0x3cac639c	0.021043591
54	0x3d5c000e	0.05371099
55	0x3e4a6992	0.19766834
56	0xbed9c088	-0.42529702
57	0x3f1c86e3	0.6114332
58	0x3f0c8e69	0.549048
59	0xbf60c17f	-0.8779525
60	0xbe6b564a	-0.22982135
61	0xbedb6e7e	-0.42857736
62	0x3e505176	0.20343575
63	0xbd04829d	-0.032351125
64	0xbde8d623	-0.11368968
65	0x3e503865	0.20334013
66	0xbd546705	-0.05185606
67	0xbeb92267	-0.3615906
68	0x3e5017ea	0.20321622
69	0xbe0f9101	-0.14020158
70	0x3e43ba6d	0.19114085
71	0x3da1a610	0.07893002
72	0x3eb02c43	0.3440877
73	0xba8a5db4	-0.001055649
74	0xbf268c5a	-0.6505791
75	0x3ed9aa27	0.42512628
76	0xbed50edb	-0.41612896
77	0x3d7367b2	0.059425063
78	0xbda7eab6	-0.081990644
79	0xbe28c7a1	-0.16482402
80	0x3f6c9d69	0.9242769
81	0x3ef7c259	0.48390463
82	0x3cc21b99	0.0236948
83	0x3f16c5ba	0.58895457
84	0xbd972969	-0.07380945
85	0xbf392c2b	-0.7233302
86	0x3eb0e2fc	0.34548175
87	0x3df57170	0.11984527
88	0x3f00a160	0.5024624
89	0x3e99d31d	0.3004388
90	0xbe885593	-0.26627788
91	0x3aeab122	0.0017905573
92	0x3eb94783	0.36187372
93	0x3eebc541	0.4604893
94	0xbed89e31	-0.4230819
95	0x3e05954a	0.1304523
96	0x3e764f82	0.24053767
97	0xbe9c09df	-0.3047628
98	0x3f62b39d	0.8855532
99	0xbd97eb0a	-0.07417877
100	0xbde59074	-0.11209193
101	0x3f75b442	0.95978177
102	0xbe6c4c8d	-0.23076077
103	0xbde6b821	-0.112655886
104	0x3d5c4086	0.05377247
105	0x3e096997	0.13419186
106	0xbe46f935	-0.19431002
107	0xbf490332	-0.785205
108	0x3ee5f3f7	0.44912693
109	0xbeb8896a	-0.3604234
110	0xbe81cec4	-0.25353062
111	0xbcf1f917	-0.02953772
112	0x3d0816e5	0.03322496
113	0x3dcffa4c	0.10155162
114	0x3ed40e71	0.41417268
115	0x3da8aea8	0.08236438
116	0xbe15c6cd	-0.14626618
117	0xbe0d5957	-0.13803612
118	0xbd3c1733	-0.045920562
119	0x3df14b94	0.117819935
120	0x3d9e5991	0.07731927
121	0x3cb6a1f0	0.022294015
122	0x3d9f0658	0.07764882
123	0xbf4741ee	-0.77834976
124	0x3f9ac98b	1.2092756
125	0x3e60d50d	0.21956272
126	0xc0267938	-2.6011486
127	0xbf8343c4	-1.0255055
128	0x3f8dfb73	1.1092361
129	0xbee21121	-0.44153693
130	0xbdaf10c0	-0.08548117
131	0x3f03de01	0.51510626
132	0xbd2bbc5c	-0.04192768
133	0x3d997f81	0.074950226
134	0x3e8c122e	0.2735762
135	0xbe18eebb	-0.14934818
136	0x3ea97c63	0.33102712
137	0x3ea240bf	0.31690022
138	0x3d26b390	0.040698588
139	0xbdab689f	-0.08369564
140	0xbdde6ef7	-0.108610086
141	0x3ce0b786	0.02743126
142	0x3ec445af	0.38334414
143	0xbdedd1ab	-0.116122566
144	0xbe306b33	-0.17228393
145	0xbee6db39	-0.4508913
146	0x3cfa7c91	0.030576976
147	0xbf153b4f	-0.5829362
148	0x3e99d32b	0.3004392
149	0x3e04c4ce	0.129657
150	0xbcb9c269	-0.02267571
151	0xbe4a57e0	-0.19760084
152	0x3e08c073	0.13354664
153	0x3e4b1bb7	0.19834791
154	0xbe506337	-0.20350347
155	0x3db2dafe	0.08733176
156	0xbe8856d5	-0.26628748
157	0xbe4594c8	-0.19295037
158	0xbc524061	-0.012832732
159	0x3ea2d9f6	0.31806916
160	0xbd23d76e	-0.04000037
161	0x3eb0b8a7	0.3451588
162	0x3e7e750c	0.24849337
163	0xbe98f9a6	-0.29877967
164	0xbe458cf4	-0.1929205
165	0x3f33a49d	0.70173055
166	0x3e15f99a	0.14645997
167	0xbee15ab2	-0.44014508
168	0x3e3df7a4	0.18551499
169	0x3fed83bc	1.8555827
170	0xbeedc9f9	-0.46443155
171	0xbf1e1b52	-0.6176044
172	0xbee7bc64	-0.45260918
173	0x3eb5e797	0.35528252
174	0xbe1a6bda	-0.15080205
175	0x3e6a0576	0.22853646
176	0x3d0dd93e	0.034631006
177	0xbd4be930	-0.04978293
178	0x3d829509	0.063760825
179	0x3d71d71e	0.059043042
180	0xbe55a5a1	-0.20863964
181	0x3eb5ce7d	0.355091
182	0x3d047136	0.03233453
183	0x3c463850	0.012098387
184	0xbda39d2a	-0.07988961
185	0x3e13e8e2	0.14444306
186	0xbee74b00	-0.45174408
187	0xc04cefcb	-3.2021358
188	0xc01eea94	-2.4830675
189	0xbd802b33	-0.062582396
190	0xbf9d6cce	-1.229883
191	0x3d8286d8	0.06373376
192	0x3e0624f4	0.13100034
193	0x3d97d99f	0.07414555
194	0x3d7ed3d5	0.062213738
195	0x3dece28d	0.11566649
196	0x3e7ecda1	0.24883129
197	0xbdee2e05	-0.11629871
198	0xbe60068f	-0.21877502
199	0x3db727c1	0.08943129
200	0x3dd031c7	0.10165744
201	0x3d96e81c	0.0736849
202	0xbddb04c2	-0.10694267
203	0x3ec4aea9	0.38414505
204	0xbe1dc56f	-0.15407346
205	0x3ee0ba5b	0.43892178
206	0xbde38664	-0.11109617
207	0xbe1d8fb3	-0.15386848
208	0xbe2cc8f0	-0.16873527
209	0xbebfc410	-0.3745427
210	0x3de28efc	0.11062428
211	0x3eeb9670	0.46013212
212	0x3fe08d97	1.754321
213	0xbfe80ca9	-1.8128864
214	0xbf3c5c28	-0.7357812
215	0x3ee0b71d	0.43889704
216	0xbe9fad7c	-0.31187046
217	0x3ea6a587	0.32548162
218	0xbd688edd	-0.05677687
219	0xbcb16b6a	-0.021657664
220	0xbeb773e8	-0.35830617
221	0x3d3f692d	0.046731163
222	0x3e096d20	0.13420534
223	0xbde98036	-0.114014074
224	0xbca72717	-0.020404382
225	0xbe14f0fa	-0.1454505
226	0xbedd0caa	-0.43173724
227	0x3e36b533	0.1784256
228	0x3f4e327f	0.805458
229	0x3ee0b821	0.4389048
230	0x3ed9193b	0.42402062
231	0x3fb4c4a0	1.4122505
232	0x3e821ac8	0.25411057
233	0x3f8335e8	1.0250826
234	0xbf36e8e3	-0.71449107
235	0x3e5306a3	0.20608
236	0xbe45ed49	-0.19328798
237	0x3e68a6da	0.22719899
238	0x3e671aa9	0.22568764
239	0x3eab2337	0.33425304
240	0xbd374373	-0.04474206
241	0x3e700fb4	0.2344349
242	0x3ca32d44	0.019919045
243	0xbdabff4d	-0.08398304
244	0x3ef1957e	0.47184366
245	0xbe2e8ea1	-0.17046596
246	0xbe94eb31	-0.29085687
247	0x3eb5a885	0.35480133
248	0xbe663318	-0.22480428
249	0x3e742806	0.23843393
250	0x3e1584ea	0.14601484
251	0xbf52f71c	-0.8240831
252	0xbf907fea	-1.1289036
253	0xbff2065d	-1.8908192
254	0xbef7d80d	-0.4840702
255	0xbf92cc86	-1.1468666

linear1.bias f4 [256]
0	0xbe54d7c1	-0.20785429
1	0x3e1b84fc	0.15187448
2	0x3e884e15	0.26622072
3	0xbc85b66a	-0.016322333
4	0x3e84955b	0.258952
5	0x3d215b6a	0.03939382
6	0x3e36ca52	0.17850617
7	0x3e19cdf2	0.15019968
8	0xbe844a6a	-0.25838023
9	0xbe9dd401	-0.3082581
10	0xbd03b63d	-0.032156218
11	0x3e8b038d	0.27151147
12	0xbe273be0	-0.16331434
13	0xbe38732d	-0.18012686
14	0xb9a96d17	-0.0003231547
15	0xbe8a54df	-0.27017877
16	0x3cb003e8	0.021486238
17	0x3edbd84e	0.42938465
18	0x3d455b22	0.048182614
19	0xbd80666d	-0.06269536
20	0x3e87f518	0.2655418
21	0x3d58923d	0.05287384
22	0x3d645769	0.055747423
23	0xbc8d8203	-0.017273908
24	0x3cd2b9ed	0.025723422
25	0xbdd8dda1	-0.10589147
26	0x3d56af00	0.052412987
27	0x3d879ca7	0.06621676
28	0xbe5321fe	-0.20618436
29	0xbe4d355b	-0.20039885
30	0x3de08cfe	0.10964392
31	0x3df3af3e	0.11898659
32	0xbd6965d9	-0.056981895
33	0x3a4f8fca	0.00079178496
34	0x3d6d6d1f	0.057965394
35	0x3da7fc67	0.08202439
36	0x3d85518a	0.06509693
37	0x3de87569	0.11350519
38	0x3e5ee00e	0.21765158
39	0xbd91bd2b	-0.07116159
40	0xbd82e20a	-0.0639077
41	0xbca45a6e	-0.020062651
42	0xbd105a60	-0.03524244
43	0xbe955e82	-0.29173666
44	0xbe984b5f	-0.29745004
45	0x3d3ee555	0.046605427
46	0xbe854ceb	-0.26035246
47	0xbbf2aff9	-0.0074062315
48	0xbe6a6396	-0.22889552
49	0xbe2d319b	-0.16913454
50	0xbd93eef2	-0.072233096
51	0xbe821571	-0.25406983
52	0xbe6d8346	-0.23194608
53	0xbeaae1e4	-0.33375466
54	0xbdedd62c	-0.11613116
55	0xbe1b5a1b	-0.15171091
56	0xbe09df2f	-0.13464044
57	0xbe3476de	-0.17623469
58	0x3c8eddfd	0.017439837
59	0xbd28bd29	-0.041196022
60	0xbc858f81	-0.01630378
61	0xbe27babe	-0.1637983
62	0xbe568e5f	-0.20952748
63	0xbd969b22	-0.07353808
64	0xbe16542c	-0.14680547
65	0xbe404d7a	-0.18779555
66	0xbded021c	-0.11572668
67	0x3e6ab612	0.22921017
68	0xbe160c73	-0.14653187
69	0x3e349a2e	0.1763694
70	0xbd1eacbd	-0.038738955
71	0xbe6f2ea5	-0.23357637
72	0x3e655ea6	0.22399387
73	0x3b52ff5d	0.0032195665
74	0xbca7043c	-0.020387761
75	0xbdffe171	-0.124941714
76	0xbe1a4144	-0.1506396
77	0xbd8f0451	-0.06983245
78	0x3e6724f2	0.22572687
79	0xbc9d1b37	-0.019178016
80	0x3e3dbe92	0.18529728
81	0xbe8c0d32	-0.27353817
82	0xbd81b3e0	-0.063331366
83	0x3e29f6b3	0.16598015
84	0xbe123767	-0.14278947
85	0xbe3044fb	-0.17213814
86	0xbe45a3cc	-0.19300765
87	0xbd220592	-0.039556094
88	0xbcdb2729	-0.026752071
89	0x3e11d3b2	0.14240912
90	0x3e798b20	0.24369478
91	0x3dc62831	0.09675635
92	0xbe66caf3	-0.22538356
93	0xbd443158	-0.04789862
94	0x3de0abfa	0.10970302
95	0xbec0086d	-0.37506428
96	0xbe9adc57	-0.3024623
97	0x3cfc226b	0.03077813
98	0x3c124506	0.008927589
99	0xbc9d453b	-0.01919805
100	0x3dec9972	0.11552705
101	0xbd9189f9	-0.07106394
102	0xbd68bdcb	-0.056821626
103	0x3c1fd6cb	0.0097558005
104	0x3d1cfc67	0.038326647
105	0x3e32a21e	0.17444655
106	0x3d20cf25	0.03926005
107	0xbd0eeef6	-0.03489586
108	0x3e02a964	0.1275993
109	0x3def16e1	0.11674286
110	0x3cfcecd9	0.030874657
111	0x3e93a5c0	0.28837395
112	0x3dca5b80	0.098807335
113	0xbeaf5d24	-0.34250748
114	0xbe0cee01	-0.13762666
115	0xbea53511	-0.3226705
116	0xbe23f318	-0.16010702
117	0x3cf20850	0.02954498
118	0x3e33b623	0.17549948
119	0xbd869413	-0.06571212
120	0x3e3f5ff9	0.18688954
121	0xbd12e3c2	-0.035861738
122	0x3d0a7006	0.03379824
123	0xbe32b6e3	-0.17452578
124	0x3d3fb457	0.046802845
125	0xbe3dbd58	-0.1852926
126	0xbd84476f	-0.064589374
127	0x3aedaf29	0.0018133867
128	0x3e30b16b	0.1725518
129	0x3de3ec31	0.11129034
130	0x3e0667d7	0.1312555
131	0xbdafd21f	-0.08584999
132	0xbb89a48c	-0.0042005237
133	0xbe28b12d	-0.16473837
134	0x3dcd60b7	0.100282125
135	0xbdc9f531	-0.0986122
136	0xbdb3f932	-0.087877646
137	0xbe05cc3a	-0.13066188
138	0x3bd52826	0.00650503
139	0x3e07a009	0.13244642
140	0x3e9ff169	0.3123887
141	0xbe22dcd4	-0.15904552
142	0xbdb4df79	-0.088316865
143	0xbd6c30d8	-0.05766377
144	0xbe286030	-0.16442943
145	0xbb9726ad	-0.004612765
146	0xbe4e034d	-0.20118447
147	0xbdd0e178	-0.10199255
148	0xbdff7151	-0.12472785
149	0x3dec0e9b	0.11526223
150	0x3e2985ce	0.16554949
151	0x3e421bcd	0.18955918
152	0xbe66e441	-0.2254801
153	0xbe18f9e6	-0.14939079
154	0xbe9c6ede	-0.30553335
155	0xbe5596b0	-0.20858264
156	0x3e171f19	0.14757957
157	0xbe0e19b8	-0.13876998
158	0x3d04c60b	0.03241543
159	0xbe01e575	-0.12685187
160	0xbe4b990c	-0.19882601
161	0x3dd95e92	0.10613741
162	0xbe41a39c	-0.18910068
163	0xbe390469	-0.18068089
164	0x3d1406fd	0.036139477
165	0x3e6f952e	0.23396751
166	0xbe57cd84	-0.21074492
167	0xbe44222d	-0.19153662
168	0x3d56407c	0.05230759
169	0x3e0585a1	0.13039257
170	0xbe0e2840	-0.13882542
171	0xbd9bd808	-0.07609564
172	0x3dbd9856	0.092575714
173	0xbd602068	-0.054718405
174	0x3e83a1bb	0.25709328
175	0xbd1f73ee	-0.03892892
176	0x3d532419	0.051548097
177	0x3e496cf8	0.19670475
178	0x3b863414	0.0040955637
179	0x3dd2954d	0.10282383
180	0x3e07ea61	0.13273002
181	0x3dbf9a82	0.09355642
182	0x3e025295	0.12726815
183	0xbe90eabf	-0.28304097
184	0xbd9cbe99	-0.07653541
185	0xbe6766d1	-0.22597815
186	0x3d573fdf	0.052551147
187	0xbbacb5e5	-0.005270707
188	0xbd81fa0a	-0.06346519
189	0xbe4fcac6	-0.20292196
190	0xbdb882c4	-0.090093166
191	0x3d4b34bc	0.04961084
192	0xbd984fec	-0.07437119
193	0x3d562b37	0.052287307
194	0xbd2ad59a	-0.041707613
195	0x3d8ba1bf	0.0681796
196	0x3d8934c3	0.066995166
197	0x3e503c87	0.2033559
198	0x3c3c2ac4	0.0114848055
199	0x3973738f	0.00023217335
200	0xbc978fbb	-0.018501153
201	0xbd1734f7	-0.036915746
202	0xbc12826c	-0.008942228
203	0x3c882c51	0.016622694
204	0xbe801a3d	-0.25020018
205	0xbd6f3a09	-0.058404956
206	0x3be3a0fb	0.0069466806
207	0x3e1fbc84	0.15599257
208	0x3e50f696	0.20406565
209	0xbdbfdfcd	-0.093688585
210	0xbe8deddc	-0.27720535
211	0xbe5b98cf	-0.2144501
212	0xbe00e7d5	-0.12588437
213	0xbc7fc533	-0.015610981
214	0xbdc2dc6c	-0.095146984
215	0xbdd0b4df	-0.101907484
216	0x3e3e2445	0.18568523
217	0x3e1a4bf9	0.15068044
218	0xbdbf3c56	-0.0933768
219	0xbe2d3380	-0.16914177
220	0x3d95e5d1	0.073192246
221	0xbddb6dcf	-0.10714304
222	0xbdb4b326	-0.08823232
223	0xbd29243c	-0.04129432
224	0x3d1a06a9	0.037604008
225	0x3db11c94	0.08648029
226	0x3e7f19be	0.24912164
227	0x3d5c821c	0.05383502
228	0xbdafe389	-0.08588321
229	0x3dffe1e2	0.124942556
230	0x3d4dc4fa	0.05023668
231	0xbe74507a	-0.23858824
232	0x3d6c3fbb	0.057677966
233	0xbdbffbb7	-0.09374183
234	0x3e247d23	0.16063361
235	0x3ce64f6a	0.02811404
236	0xbe0e6ec6	-0.13909444
237	0x3bae1866	0.005312967
238	0xbd291743	-0.04128195
239	0xbc7a8a9b	-0.015291835
240	0x3ddf5421	0.10904718
241	0x3dc1c363	0.09461095
242	0x3e45f00b	0.1932985
243	0xbe087a63	-0.13327937
244	0x3e0c2d6f	0.13689207
245	0xbe0a6c60	-0.13517904
246	0xbe8f1d84	-0.27952206
247	0x3cd52476	0.026018362
248	0x3e3eaa94	0.18619758
249	0x3d8c3f70	0.06848037
250	0x3d3334c0	0.04375148
251	0xbd8da5a2	-0.069163576
252	0x3db20610	0.086925626
253	0x3bf37daa	0.007430752
254	0xbe2b6f5c	-0.16741699
255	0x3dd62632	0.10456504

linear2.weight f4 [256, 256]
0	0x3e0329e5	0.1280895
1	0xbe7807ba	-0.24221697
2	0xbe946304	-0.28981793
3	0xbf1bbc29	-0.60833985
4	0xbb2a6deb	-0.0026005458
5	0xbe86e920	-0.26349735
6	0x3ebda00d	0.37036172
7	0xbf22cc82	-0.63593304
8	0xbdd66099	-0.10467643
9	0x3dbfd4a7	0.09366732
10	0xbf5fdcfb	-0.87446564
11	0x3dc62b7a	0.09676261
12	0xbee471f5	-0.44618192
13	0x3c2a1870	0.010381803
14	0x3e4a7a68	0.19773257
15	0x3e76b46e	0.24092266
16	0x3e887b39	0.2665651
17	0xbe083b1b	-0.13303797
18	0x3eabf779	0.33587244
19	0xbe73370d	-0.23751469
20	0x3cba48fb	0.022739878
21	0xbe85b6f6	-0.2611615
22	0xbe679912	-0.22616985
23	0x3eaebeb1	0.3412986
24	0x3e983f79	0.29735926
25	0xbe052451	-0.13002135
26	0xbe93986c	-0.28827226
27	0x3d943251	0.072361596
28	0xbec0de31	-0.3766952
29	0xbd069423	-0.032856118
30	0xbe0fd48f	-0.14045928
31	0xbb11541b	-0.0022175375
32	0xbee9bdf5	-0.45652738
33	0xbea19dca	-0.31565696
34	0x3e67fb65	0.22654493
35	0xbf3e6901	-0.74378973
36	0x3e40563f	0.187829
37	0xbd383ad9	-0.044977996
38	0xbd94023c	-0.07226989
39	0x3e8952c1	0.2682095
40	0x3e822fb4	0.2542702
41	0xbe14244b	-0.1446697
42	0x3e855cb5	0.26047292
43	0xbeb31c06	-0.34982318
44	0xbe1889be	-0.14896294
45	0xbeced56e	-0.4039721
46	0x3eb1447e	0.34622568
47	0xbe0835c3	-0.13301758
48	0xbd97fe9b	-0.07421609
49	0x3f1c589a	0.61072695
50	0xbe8d9a37	-0.2765672
51	0x3d6ad597	0.0573326
52	0xbeccd049	-0.4000266
53	0xbdba6a35	-0.09102289
54	0x3e34f0ff	0.17670058
55	0x3ecf1543	0.4044591
56	0xbf1a84d0	-0.60358906
57	0x3ebbcbdb	0.36678967
58	0x3d9e76bb	0.0773749
59	0xbd137a4c	-0.036005303
60	0xbea3603b	-0.31909356
61	0x3e9c07a4	0.3047458
62	0xbed57810	-0.41693163
63	0xbd8fc8f8	-0.070207536
64	0x3e20718a	0.15668312
65	0xbc5b1241	-0.013371051
66	0x3daef7ea	0.085433796
67	0x3e3faef1	0.18719079
68	0x3d76eb59	0.06028304
69	0xbd99d364	-0.07511023
70	0xbd2e9573	-0.042622995
71	0xbdd68557	-0.10474651
72	0x3e52055c	0.20509857
73	0xbe208753	-0.15676622
74	0x3e8e830e	0.27834362
75	0xbf81080e	-1.0080583
76	0x3ecaab0e	0.3958363
77	0x3e93002e	0.28711075
78	0x3d66427b	0.056215744
79	0x3daad540	0.083414555
80	0x3d91024a	0.07080515
81	0x3d4ce27d	0.050020684
82	0x3d623027	0.055221703
83	0x3e489c5d	0.19590898
84	0xbe95e1d2	-0.2927385
85	0x3dd6144c	0.1045309
86	0xbe90d4ee	-0.28287452
87	0x3d447d3f	0.047971006
88	0xbf0ce8a9	-0.5504251
89	0xbeaf60d8	-0.34253573
90	0x3e2e671a	0.17031518
91	0x3f5e6d44	0.86885476
92	0xbf0f683f	-0.5601844
93	0x3dfb33eb	0.12265762
94	0xbd39c128	-0.045350224
95	0xbed77549	-0.4208167
96	0xbe31c9cf	-0.1736214
97	0x3ef9a7fe	0.4876098
98	0xbe15d25a	-0.14631024
99	0xbe638820	-0.22219896
100	0xbf1c8af1	-0.6114951
101	0x3eebac6e	0.4602999
102	0xbda83c27	-0.08214598
103	0xbe2418cd	-0.16025086
104	0xbf40d4a2	-0.7532445
105	0x3f175532	0.5911437
106	0xbccb9e01	-0.024855616
107	0x3e71966f	0.23592542
108	0x3d37c91d	0.04486953
109	0xbdc13b24	-0.09435108
110	0xbb59c899	-0.0033231138
111	0xbec8d2b2	-0.39223248
112	0xbe9237a2	-0.2855807
113	0x3e87f7a2	0.26556116
114	0xbd5650f3	-0.052323293
115	0xbe8e0881	-0.27740863
116	0xbe91c6f5	-0.28472105
117	0xbf28a6a6	-0.65879285
118	0x3e6e17da	0.23251286
119	0x3de4c2a4	0.11169937
120	0xbc9a55e8	-0.018839791
121	0x3f09e206	0.5386051
122	0xbe028e03	-0.12749486
123	0xbe423147	-0.1896411
124	0xbe454359	-0.19263972
125	0xbe9939d6	-0.29926938
126	0xbe10c8c3	-0.14139085
127	0x3dfd53c1	0.123694904
128	0xbd77b44c	-0.06047468
129	0x3e2dd78d	0.16976757
130	0x3e251947	0.16122924
131	0x3e1236f3	0.14278774
132	0x3ea000c0	0.31250572
133	0x3de31190	0.11087334
134	0xbe46721e	-0.1937947
135	0x3f09f15e	0.5388392
136	0x3d5697ee	0.052390985
137	0xbe79691f	-0.24356507
138	0x3eec7716	0.46184605
139	0x3e8a9fc0	0.27075005
140	0x3ebf8cbf	0.37412068
141	0xbe6eecbf	-0.23332499
142	0xbdd42ade	-0.10359739
143	0xbf390359	-0.72270733
144	0xbe9361f0	-0.28785658
145	0x3e40d543	0.18831353
146	0xbf0f986e	-0.56091964
147	0xbef7b444	-0.4837972
148	0x3e6714b8	0.22566497
149	0xbe384ba5	-0.17997606
150	0x3e939175	0.28821912
151	0x3e42f9fd	0.19040675
152	0xbe3e9235	-0.18610461
153	0xbf0b70b5	-0.5446885
154	0x3d93193b	0.07182547
155	0x3de0860a	0.10963066
156	0xbdf12c86	-0.1177607
157	0xbf0f29f9	-0.5592342
158	0x3e81f112	0.25379235
159	0xbe43a974	-0.1910761
160	0xbe0c66c8	-0.13711083
161	0xbe511f47	-0.20422088
162	0x3e6e764e	0.23287317
163	0xbef120c1	-0.47095302
164	0x3e6b898f	0.23001693
165	0xbe7dccb8	-0.24785125
166	0xbf52d025	-0.82348853
167	0x3f19be47	0.60055965
168	0x3e154929	0.1457869
169	0x3de68225	0.11255292
170	0x3e3d1ac1	0.18467237
171	0x3ed52545	0.41629997
172	0xbd47093e	-0.0485928
173	0x3ec00663	0.37504873
174	0x3ec30c25	0.38095203
175	0xbedecc27	-0.4351513
176	0x3b8a74cb	0.0042253486
177	0xbef457e6	-0.4772331
178	0xbd1ef054	-0.038803414
179	0xbe48ed38	-0.19621742
180	0xbe9cd4aa	-0.30631
181	0xbf444736	-0.7667116
182	0x3e8c1490	0.27359438
183	0xbd722585	-0.059117813
184	0x3d4d4929	0.0501186
185	0xbefdde70	-0.4958377
186	0xbe0023e1	-0.12513687
187	0x3ddf2c92	0.10897173
188	0xbc528245	-0.0128484415
189	0xbf1dd120	-0.61647224
190	0x3ea14c6f	0.31503627
191	0x3d6f7b5d	0.058467258
192	0x3f6321eb	0.8872363
193	0xbd08b718	-0.033377737
194	0xbc9ae04d	-0.018905783
195	0xbda65d44	-0.08123258
196	0x3e10f8a0	0.14157343
197	0xbecab6d0	-0.395926
198	0xbd9a9f8c	-0.075499624
199	0xbe84fb77	-0.25973102
200	0x3e6d9a6d	0.2320344
201	0xbd6a1a07	-0.057153728
202	0xbf0c522b	-0.5481288
203	0xbd3e04d4	-0.046391323
204	0xbcdc5122	-0.026894156
205	0x3c817fd2	0.01580802
206	0xbeb6b45f	-0.35684487
207	0x3dff0db0	0.124537826
208	0xbd6f8a19	-0.05848131
209	0x3ec04eeb	0.3756021
210	0xbe4181d3	-0.1889718
211	0x3dfee3ee	0.12445818
212	0xbe82ade5	-0.25523296
213	0xbeacff35	-0.33788458
214	0xbd57a163	-0.052644145
215	0xbd94ad43	-0.072596096
216	0x3df05ffa	0.11737056
217	0xbe071afa	-0.13193884
218	0x3d882747	0.066481166
219	0xbea2ac7c	-0.3177222
220	0xbeea0e05	-0.4571382
221	0xbdab83f8	-0.083747804
222	0x3ebcb181	0.36854175
223	0xbcc7c68a	-0.024386663
224	0xbeb90374	-0.36135447
225	0x3d3df07e	0.04637193
226	0x3e0d1539	0.13777627
227	0xbca282fe	-0.019837853
228	0x3e7daf54	0.24773914
229	0x3e02b2e9	0.12763561
230	0xbee7ba50	-0.45259333
231	0x3e95d974	0.29267466
232	0x3e987902	0.29779822
233	0x3d17c92a	0.03705708
234	0xbeda28a2	-0.42609125
235	0x3d53ad0d	0.051678706
236	0xbb163a97	-0.0022923106
237	0x3d6456d2	0.05574686
238	0x3ec85986	0.391308
239	0xbdff2f69	-0.12460215
240	0x3e98af9d	0.29821482
241	0x3e7b1f03	0.24523549
242	0xbcfb33da	-0.030664373
243	0x3eb2c36e	0.34914726
244	0x3ef409c2	0.47663695
245	0x3dd11e76	0.10210888
246	0x3ec48a90	0.38386965
247	0xbf2784b5	-0.6543687
248	0xbed1226a	-0.40846568
249	0xbf1c2c9a	-0.61005557
250	0x3e938b20	0.2881708
251	0x3e7d9f47	0.2476779
252	0xbdb29c8f	-0.087212674
253	0xbe680ba6	-0.22660694
254	0xbe99490b	-0.2993854
255	0xbc40f4d2	-0.01177712

linear2.bias f4 [256]
0	0xbe3b9468	-0.18318331
1	0x3dc30bbe	0.09523724
2	0x3eeafcc6	0.45895976
3	0x3f05497e	0.52065265
4	0xbdbae784	-0.09126189
5	0xbe10311f	-0.14081238
6	0x3ec7c92f	0.39020678
7	0xbe3c6c4a	-0.18400684
8	0x3f2577b7	0.64635795
9	0xbe91638f	-0.2839627
10	0xbec75313	-0.38930568
11	0xbf0e49c5	-0.55581313
12	0x3da524a8	0.08063632
13	0xbdb45699	-0.0880558
14	0x3e7c3f32	0.24633482
15	0xbe910435	-0.28323522
16	0xbd6e6a23	-0.05820669
17	0xbf865f75	-1.0497881
18	0x3e333cd5	0.17503674
19	0x3e365209	0.17804731
20	0xbd99d28c	-0.07510862
21	0x3eba41a9	0.3637822
22	0x3dd2548d	0.10270033
23	0xbf5f24e2	-0.87165654
24	0xbbc4eb9b	-0.0060095317
25	0x3ebb2196	0.36549062
26	0xbf6b166b	-0.9183108
27	0xbd9a2b5f	-0.07527804
28	0xbec46aea	-0.3836282
29	0x3e4ef175	0.20209296
30	0xbf0fc344	-0.56157327
31	0xbd5dcd67	-0.054150965
32	0x3e700513	0.23439436
33	0xbf2a8899	-0.6661468
34	0x3e8d96ba	0.27654058
35	0xbf574fa2	-0.84105885
36	0x3d9e558f	0.07731163
37	0x3f1f6e6a	0.62277853
38	0x3ed1b937	0.4096162
39	0x3e27072f	0.16311334
40	0x3e507fe7	0.20361291
41	0x3dcf63c2	0.10126449
42	0xbe619369	-0.22028889
43	0xbf009029	-0.5021997
44	0xbc3cdfda	-0.01152798
45	0x3d8a435c	0.06751129
46	0x3edd73c2	0.4325238
47	0x3f032a35	0.5123628
48	0x3d015cdf	0.03158271
49	0xbe93593f	-0.28779027
50	0x3f0253d5	0.5090917
51	0x3eefbaa7	0.46822092
52	0x3f050813	0.51965445
53	0x3e11af43	0.14227013
54	0x3e1b6a3b	0.15177242
55	0xbd93dc2e	-0.0721973
56	0xbdabf0ab	-0.08395513
57	0xbd7f457d	-0.06232213
58	0xbf1f9793	-0.6234066
59	0x3eb26406	0.34841937
60	0x3e6aa6f6	0.22915253
61	0x3ed11c74	0.4084202
62	0x3db11bcc	0.0864788
63	0x3fb0943b	1.3795236
64	0x3f140748	0.5782361
65	0xbe9edb00	-0.3102646
66	0x3e4fee8f	0.20305847
67	0x3ec1dc5f	0.37863442
68	0xbd87d662	-0.06632687
69	0x3efbf628	0.4921124
70	0xbdb1cf44	-0.08682111
71	0x3c2937b6	0.010328224
72	0x3e99d324	0.300439
73	0x3ee7418f	0.45167205
74	0x3e1eea82	0.15519145
75	0xbf746140	-0.9546089
76	0x3e10dc1d	0.14146467
77	0x3ed195bd	0.40934554
78	0x3c7ff496	0.015622279
79	0x3dc91778	0.098189294
80	0x3f3df517	0.742021
81	0x3e08d74c	0.13363379
82	0x3dbf67ee	0.09345995
83	0xbdac1902	-0.08403207
84	0x3f29d182	0.6633531
85	0xbd6f6dc3	-0.058454286
86	0x3ed48640	0.41508675
87	0x3f0d9cea	0.55317557
88	0x3ec23729	0.3793271
89	0x3e55244a	0.20814624
90	0xbd8a39c6	-0.06749301
91	0xbd884ad0	-0.06654894
92	0x3eb04a2d	0.34431592
93	0xbe6c0cec	-0.23051804
94	0xbd16a3f9	-0.03677747
95	0x3ef7bafd	0.48384848
96	0x3eb027e9	0.3440545
97	0xbf429fbe	-0.76025
98	0x3e4fc17b	0.2028865
99	0x3e941272	0.28920323
100	0x3c644e75	0.013934721
101	0x3eb8de87	0.36107275
102	0xbf330eab	-0.69944257
103	0x3ece4b67	0.40291902
104	0x3dd2490e	0.1026784
105	0xbe3e5007	-0.18585216
106	0x3f3fdf00	0.74949646
107	0x3eb2fdbe	0.34959215
108	0xbe38527c	-0.18000215
109	0x3e7e18e2	0.2481418
110	0xbf4edf66	-0.8080963
111	0xbe8f761b	-0.28019795
112	0x3eb6ccf7	0.3570325
113	0x3cf8a39f	0.030351458
114	0x3f13b137	0.57692283
115	0x3e04484e	0.12918207
116	0x3eac899d	0.3369874
117	0xbeb03ede	-0.34422964
118	0x3e8f644d	0.2800621
119	0xbe243f28	-0.16039717
120	0xbd819b2c	-0.06328425
121	0x3e8844cd	0.2661499
122	0x3d1fb31b	0.038989168
123	0x3e09c79e	0.13455054
124	0x3ecaea78	0.3963201
125	0x3e78e52b	0.2430617
126	0x3d20bd17	0.03924283
127	0x3e7ac813	0.24490385
128	0xbd9e106c	-0.07717976
129	0xbe992305	-0.2990953
130	0xbeecc3e3	-0.462432
131	0x3e32a829	0.1744696
132	0x3f0f3f8f	0.5595636
133	0xbf0530b0	-0.52027416
134	0xbf334efe	-0.7004241
135	0x3e83f3c9	0.2577193
136	0x3f168ce2	0.5880872
137	0x3f37bb8e	0.7177056
138	0x3dcfee37	0.10152858
139	0x3f13cd77	0.5773539
140	0x3e8001c5	0.2500135
141	0x3f43675c	0.7632959
142	0xbeecc9c9	-0.462477
143	0xbdf7613a	-0.12079091
144	0x3f091ee6	0.5356277
145	0xbe92f301	-0.28701022
146	0xbd64d9fb	-0.055871945
147	0x3e9c2597	0.3049743
148	0xbf3de521	-0.7417775
149	0xbe95437b	-0.29153046
150	0xbe2f2ef4	-0.17107755
151	0xbf626641	-0.8843728
152	0x3ee8717e	0.45399088
153	0xbde78112	-0.11303915
154	0xbcf78189	-0.030213134
155	0xbccad6ae	-0.02476057
156	0x3f32bf4d	0.6982315
157	0x3e829b64	0.2550918
158	0xbecae16f	-0.39625117
159	0xbec701fe	-0.38868707
160	0x3ea3fb65	0.32027736
161	0x3e9d4b48	0.30721498
162	0x3eea1ae3	0.45723638
163	0xbe6f74c1	-0.23384382
164	0xbec01412	-0.37515312
165	0xbe77c8a7	-0.24197637
166	0x3dd111d3	0.10208478
167	0xbec784f6	-0.3896863
168	0xbdbc2668	-0.09187013
169	0x3cb729b5	0.022358755
170	0xbebca596	-0.36845082
171	0xbed51305	-0.41616073
172	0x3e1399cc	0.14414138
173	0x3e7951a5	0.24347551
174	0x3ed428fe	0.41437525
175	0x3ec278d4	0.3798281
176	0xbd9dd33b	-0.07706305
177	0x3e08028b	0.1328222
178	0x3e423cc6	0.18968496
179	0xbcc84f20	-0.024451792
180	0xbdd48335	-0.10376588
181	0x3d6cd1c9	0.057817254
182	0xbe5140e1	-0.20434906
183	0xbf1682a2	-0.5879308
184	0x3ed3bccf	0.41354987
185	0x3d7eee03	0.062238704
186	0x3e6c498d	0.23074932
187	0x3f08ebb6	0.53484666
188	0x3e1346cf	0.1438248
189	0x3eab1d4a	0.33420783
190	0x3e9ac14c	0.302256
191	0x3e851747	0.25994322
192	0x3f26fb20	0.65226936
193	0x3e56b53e	0.20967576
194	0x3ecf49e1	0.40486053
195	0x3f0baaf7	0.54557747
196	0xbc9e747b	-0.019342652
197	0x3e480f8f	0.19537185
198	0xbe047b23	-0.12937598
199	0x3e822d1c	0.2542504
200	0x3eaed42d	0.34146252
201	0xbd96d2c7	-0.07364421
202	0x3ea5f040	0.3240986
203	0x3ea44c07	0.32089254
204	0xbdc78699	-0.09742469
205	0xbc6a39cc	-0.014296006
206	0xbd1aab09	-0.037760768
207	0xbf0f1852	-0.55896485
208	0xbeb2293d	-0.34797087
209	0x3e96b7c7	0.29437086
210	0xbf259262	-0.6467649
211	0x3e06b665	0.13155515
212	0x3ed3c252	0.41359192
213	0xbe2b9e94	-0.16759712
214	0x3f1045cf	0.5635652
215	0xbf169c15	-0.5883191
216	0x3ee08ad0	0.43855906
217	0xbd1c27bf	-0.038123842
218	0xbd0e555a	-0.034749366
219	0x3f3d188e	0.7386559
220	0x3e94e676	0.29082078
221	0x3e1b64c5	0.1517516
222	0x3e7c6bd1	0.24650504
223	0x3d991623	0.07474925
224	0x3eae2be8	0.34017873
225	0x3e9d88b1	0.3076835
226	0xbf3a0e86	-0.7267841
227	0x3f949ad6	1.1609752
228	0x3e1c121f	0.15241288
229	0x3e5f7284	0.21821028
230	0x3edf1d4e	0.43577045
231	0xbdbb5a1f	-0.091480486
232	0x3f415c19	0.75531155
233	0x3e53502b	0.2063605
234	0x3e83fadf	0.25777337
235	0x3e9e99fc	0.30976856
236	0x3eab80d4	0.33496726
237	0x3ee4e2e9	0.4470437
238	0xbe973f14	-0.29540312
239	0x3e40dccd	0.18834229
240	0x3f029ae6	0.51017606
241	0x3e790b35	0.24320681
242	0xbe5a57be	-0.21322533
243	0xbe4cb83d	-0.19992156
244	0x3ecd23f9	0.40066507
245	0xbeca408f	-0.3950238
246	0xbe7f3609	-0.24922957
247	0xbf22c9f1	-0.6358939
248	0xbe8b09ea	-0.27156
249	0xbe7068ff	-0.23477553
250	0xbd32fdf0	-0.043699205
251	0xbdabf4c1	-0.083962925
252	0x3c81b8f6	0.015835267
253	0xbf5c168d	-0.8597191
254	0xbed62e07	-0.4183199
255	0xbf0955bc	-0.53646445

mean_linear.weight f4 [12, 256]
0	0x3ebfe45c	0.37478912
1	0x3ed25e36	0.41087502
2	0x3ea5b82e	0.3236708
3	0x3ea91ebd	0.33031264
4	0x3e730d04	0.23735434
5	0x3d74b52a	0.059743084
6	0x3e82b136	0.25525826
7	0xbcc158fa	-0.023601998
8	0x3d55f367	0.05223408
9	0xbf15be62	-0.58493626
10	0xbe978269	-0.29591683
11	0x3e61da19	0.22055854
12	0xbe8b7a37	-0.2724168
13	0x3c753cad	0.0149680795
14	0xbe8a1262	-0.2696715
15	0xbf142d26	-0.5788139
16	0x3d973a20	0.07384133
17	0x3d5e5466	0.054279707
18	0xbc61e4ba	-0.013787443
19	0xbe0e9a81	-0.13926126
20	0x3d087818	0.033317655
21	0x3daae846	0.08345084
22	0xbe001c98	-0.12510908
23	0xbe59b712	-0.21261242
24	0x3e78c9c5	0.24295719
25	0x3e1fdb25	0.15610941
26	0xbf20317f	-0.62575525
27	0x3dbe9444	0.09305623
28	0xbec2c7f3	-0.38043174
29	0x3bbc511e	0.0057469746
30	0xbf65616f	-0.89601797
31	0xbb13f224	-0.0022574747
32	0xbf111188	-0.56667376
33	0xbe2d7460	-0.16938925
34	0x3dc21d46	0.0947824
35	0xbe7fc4dd	-0.24977441
36	0x3f3bca05	0.7335513
37	0x3e33a0bf	0.17541789
38	0x3ea1e4b7	0.31619808
39	0x3e36a8d8	0.17837846
40	0x3ed783a3	0.42092618
41	0x3b78d31d	0.003796763
42	0xbdc5d510	-0.09659779
43	0x3f4374df	0.76350206
44	0xbd2418e1	-0.04006279
45	0x3d13d5be	0.036092512
46	0x3e844cdf	0.25839898
47	0xbef9938d	-0.48745385
48	0xbe97abc4	-0.29623234
49	0xbde505e1	-0.11182762
50	0xbf810953	-1.008097
51	0xbe195f92	-0.14977863
52	0x3f2bda92	0.67130387
53	0x3e18c112	0.149174
54	0x3e7af039	0.245057
55	0x3d24810f	0.040162142
56	0x3b8ed56e	0.004358939
57	0x3e0c9d5b	0.13731901
58	0xbf8cef41	-1.1010514
59	0x3f27cff1	0.6555167
60	0x3e76b913	0.24094038
61	0x3e6714f6	0.2256659
62	0x3e580855	0.21096928
63	0xbe3c3cc9	-0.18382563
64	0x3e82af4d	0.2552437
65	0x3d0b94a8	0.034077317
66	0xbd7d9548	-0.061909944
67	0x3c8b1001	0.016975405
68	0x3eaeacc8	0.34116197
69	0x3eb9772a	0.36223727
70	0xbd09ea32	-0.03367061
71	0x3e2e3086	0.17010698
72	0x3edf232a	0.43581516
73	0x3df2b45c	0.11850807
74	0x3e9be572	0.3044849
75	0x3d3aee1e	0.045637242
76	0x3e72dc90	0.2371695
77	0x3f024700	0.5088959
78	0x3d8c9d00	0.06865883
79	0x3eb17a76	0.34663743
80	0xbecd7e9e	-0.40135664
81	0x3e862c59	0.2620571
82	0x3d583ea0	0.0527941
83	0x3df71e28	0.12066299
84	0x3f16c8bd	0.5890005
85	0x3b455c56	0.003011485
86	0xbf0549f4	-0.5206597
87	0xbe7b9111	-0.24567057
88	0x3e0b767d	0.13619418
89	0x3ea888e3	0.32916936
90	0x3c11d2e0	0.008900374
91	0x3ba66538	0.005077984
92	0xbf187313	-0.5955059
93	0xbe49fa0b	-0.1972429
94	0x3ae4ceac	0.0017456613
95	0xbe0ef245	-0.13959606
96	0xbe09a094	-0.13440162
97	0xbe89b458	-0.26895404
98	0xbeaf9fcb	-0.343016
99	0x3f777317	0.9665999
100	0x3e610fcc	0.21978682
101	0x3e490db7	0.19634138
102	0xbde1e58d	-0.110301115
103	0x3f20932d	0.6272457
104	0x3f1c1699	0.6097198
105	0xbdd29053	-0.10281434
106	0x3d1fc58f	0.039006766
107	0xbd05be34	-0.032652095
108	0xbdb00b6c	-0.085959285
109	0x3f1e377a	0.618034
110	0xbf138eae	-0.57639587
111	0xbd9e492a	-0.07728799
112	0x3e605d52	0.21910599
113	0xbcc056fb	-0.023478976
114	0x3d68cf17	0.05683812
115	0xbdc815fe	-0.0976982
116	0xbbec428b	-0.007210081
117	0xbf0175f2	-0.50570595
118	0xbea34f21	-0.31896308
119	0xbdf50622	-0.1196406
120	0x3e132ec6	0.14373311
121	0x3ddf6e4f	0.109097116
122	0x3eada347	0.33913633
123	0xbec28811	-0.37994435
124	0x3f01e1e5	0.5073531
125	0x3ee29bc0	0.44259453
126	0x3e244ce8	0.16044962
127	0x3f1c04de	0.60944927
128	0xba79797a	-0.00095166976
129	0x3df8ce4c	0.12148723
130	0xbeec5411	-0.46157888
131	0x3c93f467	0.018060876
132	0x3e915fa2	0.28393275
133	0xbe8c6a56	-0.27424878
134	0xbe625ce3	-0.22105746
135	0x3eb17b8e	0.34664577
136	0x3f194ded	0.5988453
137	0x3e38acce	0.1803467
138	0x3f099a85	0.53751403
139	0xbe482dc9	-0.19548716
140	0x3e0b7e36	0.13622364
141	0x3e2a0640	0.16603947
142	0xbe5cbee3	-0.21557193
143	0xbb5faf38	-0.0034131538
144	0xbcb3ca0f	-0.021946935
145	0xbf44dfd4	-0.76904035
146	0xbecab5b5	-0.39591756
147	0xbe921255	-0.2852961
148	0x3f2d9a4a	0.6781355
149	0x3c0a6830	0.008447692
150	0x3e59a3e8	0.21253932
151	0xbf0120bc	-0.50440574
152	0x3d30d8c5	0.043175478
153	0xbeaf676e	-0.34258598
154	0x3e84995a	0.25898248
155	0xbd89cdba	-0.06728692
156	0x3e8fea59	0.2810848
157	0x3e318387	0.1733533
158	0xbd69f06b	-0.057114046
159	0xbe6a70d9	-0.2289461
160	0xbea67954	-0.3251444
161	0x3eb8140c	0.35952795
162	0x3f023fa9	0.5087839
163	0xbf5dfbe8	-0.86712503
164	0xbebc8ac1	-0.3682461
165	0xbed1ecd8	-0.4100101
166	0x3d269fb6	0.040679656
167	0xbd340542	-0.043950327
168	0x3d92a24c	0.07159862
169	0x3f08ab0a	0.53385985
170	0xbda74e3f	-0.08169221
171	0x3d81a203	0.063297294
172	0xbf0d8205	-0.5527652
173	0xbec46c79	-0.38364008
174	0xbe175f07	-0.14782344
175	0x3dd5dd83	0.10442641
176	0xbbd9b4b4	-0.006643856
177	0xbc7d93fe	-0.015477179
178	0x3ee7b988	0.45258737
179	0x3eb61dd4	0.35569632
180	0xbd996d90	-0.074916005
181	0xbf139e8a	-0.57663786
182	0xbe90c9fe	-0.28279108
183	0x3e8f0863	0.27936086
184	0x3f056ea9	0.5212198
185	0x3e6e1f15	0.23254044
186	0xbeadeacc	-0.33968198
187	0x3e6342ff	0.22193526
188	0x3eadb2d8	0.3392551
189	0xbdbd4e5f	-0.09243464
190	0x3ca775a1	0.020441832
191	0xbef0f014	-0.47058165
192	0xbe8ad951	-0.27118924
193	0x3f578a57	0.84195465
194	0xbe0ac4a6	-0.13551578
195	0x3e1ca9f7	0.15299211
196	0x3ccd43b8	0.025056705
197	0xbeaf53f4	-0.3424374
198	0xbdab5983	-0.083666824
199	0xbe8f528d	-0.2799267
200	0xbf523d61	-0.82124907
201	0x3b6decbc	0.0036304435
202	0xbeda06bb	-0.4258326
203	0xbe110c73	-0.14164905
204	0x3b8d3def	0.0043103616
205	0x3d1df30e	0.038561873
206	0x3a050344	0.0005074034
207	0xbce474bd	-0.027887696
208	0xbe2f2413	-0.17103605
209	0xbe83799d	-0.2567872
210	0x3df6cb36	0.12050478
211	0xbcb8cf22	-0.022559706
212	0xbde3accc	-0.11116943
213	0xbf68550e	-0.90754783
214	0x3ed1b473	0.40957984
215	0xbeb0a3a5	-0.3449985
216	0x3e4ec786	0.201933
217	0x3c39c343	0.011338058
218	0x3e8a2e63	0.26988515
219	0x3ec8e73c	0.39238918
220	0x3e54f405	0.20796211
221	0xbedebd75	-0.4350392
222	0xbd76eb41	-0.06028295
223	0x3e8ec4b4	0.27884448
224	0x3e023432	0.12715223
225	0x3db9f40d	0.09079752
226	0xbf0c7043	-0.548588
227	0x3e8e24b3	0.27762374
228	0xbe1e39a9	-0.15451683
229	0xbe87d88e	-0.26532406
230	0x3e94bf05	0.29051986
231	0x3ec511ab	0.38490042
232	0xbe828833	-0.25494537
233	0x3de21ba4	0.11040428
234	0xbdda9214	-0.106723934
235	0x3e32ecef	0.17473195
236	0x3e240d86	0.16020784
237	0xbec7c2eb	-0.39015898
238	0xbdefd76e	-0.11711012
239	0xbf302870	-0.688117
240	0x3d3d5612	0.04622466
241	0x3ee1b9b1	0.44086984
242	0x3ee1bdca	0.4409011
243	0x3d6e2bf8	0.0581474
244	0x3ee2e520	0.44315434
245	0x3e0ac15f	0.13550328
246	0xbe9351e7	-0.28773424
247	0x3e0960d4	0.13415843
248	0xbecfeea5	-0.4061176
249	0xbf20fa1c	-0.62881637
250	0x3d51af38	0.051192492
251	0xba796db6	-0.00095149444
252	0xbd18ba04	-0.037286773
253	0xbe8a7701	-0.27043918
254	0x3dbb26b6	0.09138243
255	0x3cbb1a0a	0.022839565

mean_linear.bias f4 [12]
0	0x3f0d3a8d	0.55167466
1	0x3fc50281	1.5391389
2	0xbf6d177e	-0.9261397
3	0xbeb3d478	-0.35123038
4	0xbed99534	-0.42496645
5	0xbe6d5572	-0.23177126
6	0xbe8f8d8e	-0.28037685
7	0xbead3b9e	-0.33834547
8	0xbfa758f2	-1.3074019
9	0xbca36733	-0.01994667
10	0x3e8863c5	0.26638618
11	0x3f288f88	0.6584401

log_std_linear.weight f4 [12, 256]
0	0xbd790863	-0.060799014
1	0xbd8b719b	-0.06808778
2	0x3e5fe9f8	0.21866596
3	0xbd580660	-0.052740455
4	0xbdce7d24	-0.100824624
5	0xbdc63762	-0.09678532
6	0xbb922fef	-0.0044612805
7	0xbc43e9d5	-0.011957605
8	0x3dfa250e	0.12214099
9	0x3eb8f37b	0.3612326
10	0xbd180658	-0.037115425
11	0x3e34ef6e	0.1766946
12	0x3dd057df	0.1017301
13	0xbc35e126	-0.011101043
14	0x3dea284f	0.114334695
15	0xbd9d57c5	-0.07682756
16	0xbd34ee32	-0.044172473
17	0x3db54a0c	0.08852014
18	0x3d9bbac2	0.076039806
19	0x3f46e545	0.7769359
20	0x3cee04c7	0.029055012
21	0xbe5b0317	-0.21387897
22	0x3e48fe2e	0.19628212
23	0xbc798a5e	-0.015230743
24	0xbe01ad42	-0.12663749
25	0x3c380cc2	0.01123351
26	0xbd237e0d	-0.039915133
27	0x3f00e91c	0.50355697
28	0x3f0721a4	0.52785707
29	0x3c0a4787	0.008439905
30	0x3e8a6dfe	0.27037042
31	0xbb939af5	-0.0045045563
32	0xbdb2ad3a	-0.087244466
33	0xbd32b9c9	-0.04363421
34	0xbd969582	-0.07352735
35	0xbdb8efe7	-0.09030133
36	0x3bf54760	0.007485315
37	0x3e6c5672	0.23079851
38	0x3e17d8b8	0.14828765
39	0x3e32b911	0.1745341
40	0x3f12ab77	0.57292885
41	0x3e8c9b6e	0.27462333
42	0x3f57fe72	0.8437263
43	0xbd969885	-0.073533095
44	0x3ab34e5a	0.0013679967
45	0xbc8d6058	-0.017257854
46	0x3e014edf	0.12627743
47	0x3dd26b0b	0.10274323
48	0x3e671fa0	0.22570658
49	0x3b3bbc6b	0.0028646241
50	0xbd1e6a7d	-0.038675774
51	0x3d356690	0.044287264
52	0x3e8d0c1a	0.27548295
53	0x3e866470	0.26248503
54	0x3dda9a68	0.10673982
55	0x3c4be0ce	0.012443734
56	0xbba622c0	-0.0050700605
57	0x3e3a4e0a	0.18193832
58	0x3e35bd8f	0.17748092
59	0x3dc996fe	0.098432526
60	0x3e3a6df4	0.18206006
61	0x3d9ab76d	0.07554517
62	0xbd1b142c	-0.037861034
63	0xbd1b706f	-0.037949022
64	0xbe59a5a3	-0.21254592
65	0x3d9abce4	0.07555559
66	0x3ea54229	0.3227704
67	0x3d6e8a8b	0.058237594
68	0xbd236c60	-0.039898276
69	0x3f4cfce2	0.8007337
70	0x3919a80a	0.00014653816
71	0x3f3740a8	0.7158303
72	0x3cca0e27	0.024664951
73	0x3d4548b6	0.048165046
74	0x3ee8769e	0.45402998
75	0x3b7a7afa	0.0038220272
76	0xbe20cab0	-0.15702319
77	0x3de91318	0.11380595
78	0x3ef7e6a3	0.4841815
79	0x3d838e93	0.06423678
80	0x3e43c280	0.19117165
81	0x3e773b99	0.24143828
82	0x3e0380b8	0.12842071
83	0xbe75376e	-0.23946926
84	0x3e36f203	0.17865758
85	0xbadab28b	-0.001668529
86	0x3f12e62e	0.57382476
87	0x3c286421	0.010277779
88	0x3f425fe3	0.7592756
89	0xbdbeb299	-0.093114085
90	0xbca5157e	-0.02015185
91	0x3cca9731	0.024730297
92	0x3dc38c37	0.09548228
93	0xbe85fea2	-0.26170832
94	0xbc42219e	-0.011848835
95	0x3f2431fa	0.6413876
96	0x3ddc0d58	0.107447326
97	0xbe81a27d	-0.2531928
98	0xbe42cf5e	-0.19024417
99	0x3d8586a6	0.06519823
100	0x3d920674	0.07130137
101	0x3e612173	0.21985416
102	0x3e5c078d	0.21487255
103	0x3e41e733	0.18935852
104	0x3ed54575	0.41654554
105	0x3e206fe7	0.15667687
106	0x3ef950d3	0.48694476
107	0x3dacbfe5	0.084350385
108	0x3e07fc3e	0.13279817
109	0x3e14c305	0.14527519
110	0x3cc05510	0.023478061
111	0x3e1d63bf	0.15370081
112	0x3dedbeae	0.11608635
113	0x3e0705dc	0.13185829
114	0xbe38b7d3	-0.18038873
115	0xbda5e799	-0.08100814
116	0x3d3d5d0a	0.046231307
117	0x3e587606	0.21138772
118	0x3e28d445	0.16487224
119	0x3ea49028	0.32141232
120	0x3c75f2ef	0.015011533
121	0xbce6c7e2	-0.028171483
122	0x3e163899	0.14670028
123	0x3d86d381	0.0658331
124	0xbe04b8a3	-0.12961058
125	0x3e369572	0.17830446
126	0x3cf22d20	0.029562533
127	0x3cfdea46	0.0309955
128	0xbc6840ea	-0.014175633
129	0xbe09f0ec	-0.1347081
130	0xbcd5e709	-0.026111143
131	0x3ec01424	0.37515366
132	0x3e2bdf3a	0.16784373
133	0x3dd67842	0.10472156
134	0xbd60678b	-0.054786246
135	0xbd929cb3	-0.07158794
136	0x3f741765	0.953482
137	0x3e96dba8	0.2946446
138	0x3e12f895	0.14352639
139	0xbd4eef99	-0.050521467
140	0x3ead84fd	0.33890525
141	0xbe02b1a5	-0.12763079
142	0x3dd79337	0.10526126
143	0x3d136f23	0.03599466
144	0x3c4242ea	0.011856774
145	0x3dd0f07e	0.1020212
146	0xbd58e0e2	-0.05294884
147	0xbb9aa550	-0.004719414
148	0x3b98ccec	0.0046631005
149	0x3ddab5e5	0.10679225
150	0x3b9973bf	0.0046829875
151	0x3dff405a	0.12463446
152	0x3dc39b71	0.095511325
153	0x3ecde0c6	0.4021055
154	0x3eb035db	0.34416088
155	0x3e5ffd20	0.21873903
156	0x3e23ac1b	0.15983622
157	0x3dd51884	0.104050666
158	0x3e591219	0.2119831
159	0x3fb15259	1.3853256
160	0x3e8948e3	0.2681342
161	0xbe4de349	-0.20106234
162	0x3e97610a	0.29566222
163	0x3ea5b87f	0.32367322
164	0xbce391bc	-0.027779453
165	0xbbac2644	-0.005253585
166	0xbe181572	-0.1485193
167	0xbdbe7414	-0.09299484
168	0xbe76f8cc	-0.24118346
169	0x3e11fec0	0.14257336
170	0x3dc2a879	0.0950479
171	0x3bbb0d8c	0.005708402
172	0x3ec95ec9	0.39330128
173	0x3de33ad7	0.11095207
174	0x3de542bc	0.11194369
175	0x3d59d9a9	0.053186093
176	0x3b0e501f	0.0021715236
177	0x3d51fefb	0.05126856
178	0x3e30fb35	0.17283328
179	0xbb078f79	-0.0020684882
180	0xbc9de6d7	-0.019275112
181	0x3deaeaf4	0.11470595
182	0x3f465f82	0.77489483
183	0x3e16cd0d	0.14726658
184	0x3f7855a2	0.97005665
185	0xb9b51ecc	-0.00034545956
186	0x3e349ddf	0.17638348
187	0x3e653789	0.22384466
188	0x3f5b13b2	0.8557693
189	0x3e070bd9	0.13188113
190	0x3cb036dc	0.021510534
191	0x3e870ba5	0.26376072
192	0x3c119271	0.008885012
193	0x3dcd6848	0.10029656
194	0x3d54a583	0.051915657
195	0x3f1cd357	0.6125998
196	0x3b97a70a	0.004628067
197	0x3e07e028	0.13269103
198	0x3c389f8d	0.011268509
199	0x3e6422f2	0.22278956
200	0xbda4015f	-0.08008074
201	0xbaa7ff27	-0.001281713
202	0xbd7ff053	-0.06248505
203	0x3d78681e	0.06064617
204	0xbbd871d8	-0.006605368
205	0xbe53ac6b	-0.20671241
206	0xbcef7a8d	-0.029233241
207	0x3ea95824	0.33075058
208	0xbed81ffa	-0.42211896
209	0x3db7c5bd	0.089732625
210	0x3e035729	0.12826218
211	0x3f16b941	0.58876425
212	0x3db2bdb1	0.08727587
213	0x3d92f92e	0.071764335
214	0x3e81e5cb	0.2537063
215	0x3e4ac24c	0.19800681
216	0xbe1ae6f6	-0.15127167
217	0x3b319252	0.002709527
218	0xbdc58a39	-0.096455045
219	0x3d8226dc	0.06355068
220	0x3f5f0ff1	0.871337
221	0xbe015ee4	-0.12633854
222	0xbdc31b76	-0.09526722
223	0x3f1ee965	0.6207488
224	0x3de0dd7b	0.10979744
225	0x3d6f956f	0.05849212
226	0x3e12a899	0.14322127
227	0x3bff3dde	0.0077893576
228	0x3d16cddc	0.036817417
229	0x3f4ed718	0.80796957
230	0x3f31e20a	0.69485533
231	0xbd2c6bd0	-0.042095006
232	0xbcd3a725	-0.025836537
233	0xbce98e55	-0.028510252
234	0xbc95e282	-0.018296484
235	0x3e960f87	0.2930872
236	0xbd05089c	-0.032478914
237	0x3d923d3a	0.07140584
238	0x3ddd4312	0.10803808
239	0x3db6d337	0.08927005
240	0x3dae7559	0.08518476
241	0x3e2dfa86	0.16990098
242	0x3e0ab1b2	0.13544348
243	0x3e0cd35b	0.137525
244	0x3f003263	0.50076884
245	0xbe059739	-0.13045968
246	0x3eb78188	0.35841012
247	0x3e470661	0.19436027
248	0x3ca4fba0	0.020139515
249	0x3dce2678	0.10065931
250	0xbbbae7bb	-0.005703894
251	0x3af6e52c	0.0018836609
252	0x3be895c9	0.007097934
253	0x3e8ceef5	0.2752606
254	0x3f33b534	0.7019837
255	0xbd19cc5f	-0.03754842

log_std_linear.bias f4 [12]
0	0xbf15b84e	-0.5848435
1	0xbfcc8674	-1.5978532
2	0xbf61563e	-0.8802222
3	0xbedb08b0	-0.42780066
4	0xbf5164b4	-0.81794286
5	0xbf749cd8	-0.95551825
6	0xbed45292	-0.41469246
7	0xbeddcd47	-0.43320677
8	0xbf551656	-0.83237207
9	0xbf0b1a8b	-0.54337376
10	0xbf516926	-0.8180107
11	0xbf389c7e	-0.7211379
