policy1.pth (torch, 335680 bytes, 8 tensors)

linear1.weight f4 [256, 43]
-0.17465204 -0.032201525 -0.5600974 -0.14515752 0.029658746 -0.016705876 -0.24636187 0.06701449
-0.41406277 -0.119811974 -0.18581998 -0.02343947 -0.752599 -0.13787626 0.10349808 0.025913397
0.73999614 -0.04055769 -0.29226568 0.046009112 0.1277973 0.28203234 -0.14466418 -0.12199448
-0.09005911 -0.19550815 -0.015196642 0.09460456 -0.051467728 0.26983246 0.14312547 0.026558459
-0.15769121 0.029084802 0.011109069 0.22651085 -0.012852757 0.44872376 -0.3768453 -0.30457053
0.7504272 0.92148495 0.10716619 -0.17922801 0.15620524 -0.3957131 0.06890297 -0.12226877
0.25367498 0.1752177 0.030659879 0.21519454 0.06385772 0.0012150578 -0.046271004 0.05151314
-0.30581352 0.3193559 0.3469414 -0.11820271 -0.028324487 0.0638482 0.012672533 -0.068136305
-0.1573288 0.1281538 -0.03602643 -0.124811225 0.17428169 -0.10573217 0.14230648 0.06458219
0.18776743 0.0044074086 -0.36739597 0.29694733 -0.2769669 0.08017366 -0.05932877 -0.321332
0.48085335 -0.027001115 -0.034717593 0.08168506 0.20550825 -0.468622 0.12413839 0.0108166365
0.12807113 0.10895412 -0.057966504 -0.16983438 0.16267645 0.1976762 -0.30802512 -0.04792551
0.043012347 -0.26960206 0.6980599 0.006034242 -0.0064094686 0.8846495 -0.65207237 -0.017184706
0.0224079 0.2620766 -0.209296 -0.6709053 0.40378696 -0.25800133 -0.22796828 -0.13252091
-0.002054443 -0.02346838 0.20926444 0.048732817 -0.13613366 -0.16908057 0.09567848 -0.008516182
-0.14707692 0.19516326 0.04550863 -0.36185357 0.66280955 0.032618605 -1.4931355 -0.8579968
0.9214339 0.12650627 -0.13804659 0.4138365 -0.008454665 0.010698028 0.17231417 -0.12030755
0.21157104 -0.09444871 0.044230267 -0.051133897 -0.103674285 -0.36687964 -0.058355477 0.10537043
-0.007303409 -0.52345026 -0.040548593 -0.61389637 0.20249957 0.07773946 -0.2841576 -0.18188006
0.08108229 0.07903221 -0.23500372 0.012957899 -0.2109276 -0.12813486 0.026941214 0.18539749
-0.056634706 -0.13350788 0.26655927 -0.11773796 -0.06281513 0.5717039 -0.2102753 -0.059293333
0.20032792 1.037256 -0.18035303 -0.91997373 -0.028899968 0.20858076 -0.06690156 0.0916584
0.13978194 0.10877965 -0.05785829 -0.06973847 -0.13512877 0.15456064 -0.096407436 0.042709194
-0.4120864 -0.09929869 0.02344224 -1.0557598 -0.9802994 0.152089 -0.8524993 -0.19870022
0.07409811 -0.094197474 0.06964924 -0.006150267 0.14033695 -0.14513868 -0.19752868 -0.03114719
-0.013322082 -0.06856225 -0.10705216 0.17145595 -0.28609598 0.2978479 -0.12164897 -0.1805272
-0.12697378 -0.2256413 0.83511364 0.24258685 0.3547982 -0.5982878 -0.20954017 0.047240403
-0.20289369 0.12458251 -0.0503817 0.031338844 -0.12206024 0.0038785771 -0.02516686 -0.048807792
-0.029780528 -0.14220262 -0.31369683 0.13669889 0.3300601 0.094985485 -0.5966183 0.8815465
0.16806373 0.6042313 -0.35618085 0.11740546 -0.3467621 -0.05339692 0.12883632 0.15492621
-0.19004129 0.0601803 -0.06786998 -0.12919612 0.255334 -0.12699902 -0.20010579 0.23266187
-0.1263604 0.03466944 -0.2549392 -0.59959805 -0.51080465 -1.0347018 -0.42396957 -0.5605607
00000000: fcd7 32be bfe5 03bd 8b62 0fbf 2ca4 14be
00000010: e6f6 f23c c3da 88bc 4946 7cbe e53e 893d
00000020: 0900 d4be fb5f f5bd 9847 3ebe 2204 c0bc
00000030: 54aa 40bf 6f2f 0dbe cdf6 d33d 5548 d43c
00000040: 6370 3d3f d21f 26bd d9a3 95be 0d74 3c3d
00000050: 4cdd 023e 8b66 903e d922 14be 3ed8 f9bd
00000060: e970 b8bd 4a33 48be 56fb 78bc 09c0 c13d
00000070: d3cf 52bd 7b27 8a3e 7c8f 123e 2091 d93c
00000080: ce79 21be 4043 ee3c d002 363c 76f2 673e
00000090: 5f94 52bc 1fbf e53e def1 c0be abf0 9bbe
000000a0: ff1b 403f 70e6 6b3f f379 db3d 8c87 37be
000000b0: 44f4 1f3e e89a cabe 001d 8d3d 0d68 fabd
000000c0: b0e1 813e 456c 333e 6d2a fb3c f55b 5c3e
000000d0: d6c7 823d 9342 9f3a aa86 3dbd 71ff 523d
000000e0: 9793 9cbe 9e82 a33e 4ea2 b13e 4314 f2bd
000000f0: c108 e8bc d8c2 823d 75a0 4f3c 0c8b 8bbd
00000100: cd1a 21be c03a 033e 7390 13bd 079d ffbd
00000110: e676 323e 1c8a d8bd cab8 113e ab43 843d
00000120: 1b46 403e 066c 903b 531b bcbe 7b09 983e
00000130: 9bce 8dbe 1632 a43d b902 73bd a185 a4be
00000140: 6932 f63e 7131 ddbc 0934 0ebd 7f4a a73d
00000150: c170 523e 39ef efbe 453c fe3d 4338 313c
00000160: 1425 033e 5623 df3d 496e 6dbd 10e9 2dbe
00000170: a894 263e a16b 4a3e 78b5 9dbe 8a4d 44bd
00000180: b72d 303d 4809 8abe 0eb4 323f e4ba c53b
00000190: 8506 d2bb 6478 623f 37ee 26bf f1c6 8cbc
000001a0: c690 b73c e72e 863e b151 56be 73c0 2bbf
000001b0: 2abd ce3e c018 84be 8470 69be 90b3 07be
000001c0: d5a3 06bb c340 c0bc 6b49 563e 109c 473d
000001d0: 9f66 0bbe 7523 2dbe 14f3 c33d 7587 0bbc
000001e0: 559b 16be e1d8 473e 4267 3a3d df44 b9be
000001f0: e3ad 293f 169b 053d 101f bfbf aea5 5bbf
00000200: 18e3 6b3f dc8a 013e 165c 0dbe 61e2 d33e
00000210: 6f85 0abc c846 2f3c 2073 303e ce63 f6bd
00000220: 14a6 583e 536e c1bd cc2a 353d c771 51bd
00000230: 2f53 d4bd a6d7 bbbe 2706 6fbd 74cc d73d
00000240: 6f51 efbb d600 06bf 4816 26bd 5028 1dbf
00000250: 0c5c 4f3e de35 9f3d 1b7d 91be c43e 3abe
00000260: 790e a63d a4db a13d d1a4 70be 5e4d 543c
00000270: 68fd 57be c935 03be d2b3 dc3c d7d8 3d3e
00000280: cbf9 67bd 4ab6 08be 757a 883e 9920 f1bd
00000290: 38a5 80bd 305b 123f 6952 57be 91dd 72bd
000002a0: c322 4d3e cec4 843f 77ae 38be 6683 6bbf
000002b0: a0bf ecbc 3296 553e af03 89bd 66b7 bb3d
000002c0: ff22 0f3e ddc7 de3d d0fc 6cbd 0bd3 8ebd
000002d0: 325f 0abe 2545 1e3e 4371 c5bd d6ef 2e3d
000002e0: fdfc d2be 1d5d cbbd f109 c03c 2323 87bf
000002f0: e7f4 7abf 38bd 1b3e 653d 5abf 1278 4bbe
00000300: c0c0 973d 9bea c0bd 43a4 8e3d 2e88 c9bb
00000310: 7db4 0f3e 3c9f 14be f544 4abe 6428 ffbc
00000320: dd44 5abc 5d6a 8cbd 2a3e dbbd 2692 2f3e
00000330: 2c7b 92be 857f 983e 1823 f9bd 1fdc 38be
00000340: 6a05 02be 830e 67be 02ca 553f b068 783e
00000350: 1ca8 b53e 6429 19bf b391 56be 277f 413d
00000360: 5dc3 4fbe 1d25 ff3d 0b5d 4ebd 295d 003d
00000370: b8fa f9bd ba2f 7e3b bb2a cebc aeea 47bd
00000380: 4bf6 f3bc 909d 11be df9c a0be cbfa 0b3e
00000390: a3fd a83e c087 c23d fabb 18bf 08ad 613f
000003a0: e618 2c3e e7ae 1a3f 565d b6be 4672 f03d
000003b0: cd8a b1be bbb6 5abd abed 033e faa4 1e3e
000003c0: 2f9a 42be 9e7f 763d 6bff 8abd fd4b 04be
000003d0: 23bb 823e 080c 02be 88e8 4cbe ea3e 6e3e
000003e0: 9f64 01be 8b01 0e3d 6487 82be 427f 19bf
000003f0: 18c4 02bf 1c71 84bf 8a12 d9be e880 0fbf

linear1.bias f4 [256]
-0.04245617 0.13752437 0.06131093 0.048496142 0.14397465 -0.0058176992 0.06830321 0.017334614
-0.206558 -0.20532814 -0.022989359 0.15914029 -0.13607557 -0.07503453 0.05795173 -0.22808254
0.03887818 0.22463001 0.047046896 -0.02636879 0.121658154 0.046364006 0.16417703 -0.012442208
-0.14067505 -0.1083046 -0.03387143 0.06335247 -0.12602778 -0.253588 0.0879152 0.0954917
0.06996647 -0.0038009689 0.008984899 -0.041255936 -0.072609626 -0.047726754 0.07893779 0.06010976
-0.024288572 -0.005787736 -0.12618314 -0.22522548 -0.23718931 -0.018749446 -0.18544196 0.0062015657
-0.21134484 -0.039954588 -0.08312859 -0.13122511 -0.2145573 -0.14759809 -0.0436705 -0.17654493
-0.0018635753 -0.05362047 0.073577255 -0.08972653 0.09050309 -0.13306575 -0.10353152 -0.056969997
-0.13037886 -0.15937656 -0.1464978 0.106198914 -0.123960316 0.07373066 -0.024050534 -0.12407785
0.091668434 -0.1147489 -0.09899185 -0.07733866 -0.1678383 -0.13073377 0.09506982 -0.14990528
-0.089725286 -0.15149923 -0.0017208244 0.047313537 -0.07911493 0.04043562 -0.099299215 0.040091686
-0.08804428 0.12167693 0.1816477 0.16633669 -0.12005602 0.021908982 0.006856234 -0.22307484
-0.18246035 -0.029181808 -0.03999743 0.020475518 0.12989919 -0.092462175 -0.0015086122 0.022374298
-0.11662873 0.10003254 0.021718627 0.03065251 0.0303455 0.019318007 0.08247161 0.09252667
0.061634883 -0.23186782 -0.13085938 -0.23524821 -0.116243444 -0.007448114 0.12234545 -0.103710294
-0.018372381 -0.06959307 -0.083470166 -0.13474454 -0.010940033 -0.19113782 -0.051687744 -0.06798064
0.017369956 0.12690891 0.053865626 -0.07926373 0.039395943 -0.0988213 -0.058922578 0.021952381
-0.09216443 -0.06556384 -0.008756242 0.0004612621 0.15608492 -0.19006236 -0.07502253 -0.01584317
-0.063178755 -0.13887924 -0.012187068 -0.08943865 -0.08875702 -0.03866703 0.17359772 0.045614503
-0.15443797 -0.045697294 -0.263819 -0.108011454 0.07452743 -0.086961284 0.07611922 -0.20198837
-0.120868586 0.0839575 -0.20360379 -0.08474415 -0.019248553 0.06655477 -0.07648348 -0.05383113
-0.048939694 0.056223013 -0.20515952 -0.06210451 0.11909355 -0.048705824 0.18258174 -0.02601215
-0.07572502 0.08541905 -0.06848517 0.10921272 -0.036747556 0.036289267 0.11168104 -0.20722952
0.055881593 -0.09174375 -0.031950664 0.08720394 -0.11672336 -0.10902717 -0.041212745 0.008096002
-0.007605533 -0.0022829107 -0.040823787 0.069737524 -0.05784462 0.018869268 0.0315914 0.1321401
-0.08843485 0.039892636 -0.025749044 -0.030156352 -0.19922465 -0.08121519 -0.04702573 0.033207394
-0.011849975 -0.11162104 -0.18432267 -0.15577978 -0.13025266 0.041980058 -0.16877824 -0.038353685
-0.030897694 0.122369014 -0.021951472 -0.045630425 0.019774318 0.044681974 -0.17928258 -0.12516159
-0.082429335 0.043779064 0.10824811 0.07777419 0.008843532 0.020592013 -0.049074706 -0.20183349
0.100623034 -0.14833792 0.1584792 0.05343679 0.028056934 -0.026872952 -0.11764057 -0.057823755
0.063204914 0.011976993 0.003395309 -0.13840686 0.045639813 -0.04724468 -0.1929654 0.04552542
0.14408144 0.06153989 0.03085313 -0.12411375 0.037472494 -0.07740259 0.009749072 0.07339528
00000000: 85e6 2dbd 30d3 0c3e 2b21 7b3d e4a3 463d
00000010: 176e 133e 66a2 bebb 8ee2 8b3d 5201 8e3c
00000020: f183 53be 8a41 52be 2e54 bcbc acf5 223e
00000030: 6557 0bbe b4ab 99bd cb5e 6d3d 788e 69be
00000040: ba3e 1f3d 6905 663e 3fb4 403d 5c03 d8bc
00000050: e927 f93d 2fe8 3d3d 061e 283e 67da 4bbc
00000060: 1f0d 10be cdce ddbd c5bc 0abd f1be 813d
00000070: 6d0d 01be 49d6 81be e20c b43d 2791 c33d
00000080: 954a 8f3d ad19 79bb 6635 133c fcfb 28bd
00000090: 5bb4 94bd 217d 43bd 23aa a13d a735 763d
000000a0: d4f8 c6bc 0ca7 bdbb 2736 01be 82a1 66be
000000b0: c1e1 72be 7098 99bc 7fe4 3dbe 8136 cb3b
000000c0: c86a 58be 6ca7 23bd 523f aabd e05f 06be
000000d0: e9b4 5bbe f423 17be d7df 32bd 32c8 34be
000000e0: 3643 f4ba 23a1 5bbd acaf 963d 8bc2 b7bd
000000f0: af59 b93d 6342 08be 5508 d4bd 5f59 69bd
00000100: 0982 05be 9c33 23be 8503 16be d17e d93d
00000110: e8de fdbd 1a00 973d a005 c5bc 871c febd
00000120: a9bc bb3d 7901 ebbd 3dbc cabd bb63 9ebd
00000130: cedd 2bbe 13df 05be f7b3 c23d c580 19be
00000140: e4c1 b7bd 9d22 1bbe 498d e1ba d7cb 413d
00000150: 0207 a2bd d29f 253d 635d cbbd 2e37 243d
00000160: 8f50 b4bd c131 f93d db01 3a3e 2a54 2a3e
00000170: eedf f5bd 777a b33c 42aa e03b bb6d 64be
00000180: e3d6 3abe b00e efbc 58d4 23bd 46bc a73c
00000190: 4b04 053e cf5c bdbd a0bc c5ba 4e4a b73c
000001a0: 0bdb eebd dcdd cc3d 43eb b13c f91a fb3c
000001b0: 2097 f83c cc40 9e3c e0e6 a83d 9f7e bd3d
000001c0: dc74 7c3d c26e 6dbe 0000 06be e8e4 70be
000001d0: 0b11 eebd 4f0f f4bb 4090 fa3d 1066 d4bd
000001e0: ad81 96bc d086 8ebd 68f2 aabd 79fa 09be
000001f0: d33d 33bc a2b9 43be 87b6 53bd 6f39 8bbd
00000200: 704b 8e3c 69f4 013e 34a2 5c3d 0655 a2bd
00000210: a45d 213d d262 cabd cd58 71bd 7bd5 b33c
00000220: b4c0 bcbd 5646 86bd 5776 0fbc 8dd5 f139
00000230: bad4 1f3e b59f 42be 6aa5 99bd 89c9 81bc
00000240: dd63 81bd 5c36 0ebe 45ac 47bc 9c2b b7bd
00000250: 3ec6 b5bd 5261 1ebd 9ac3 313e 46d6 3a3d
00000260: fd24 1ebe 162d 3bbd 4913 87be 1c35 ddbd
00000270: d6a1 983d c218 b2bd 65e4 9b3d 0ad6 4ebe
00000280: f389 f7bd e9f1 ab3d 837d 50be 578e adbd
00000290: 24af 9dbc de4d 883d 5fa3 9cbd 087e 5cbd
000002a0: fd74 48bd 1a4a 663d 5615 52be 4c61 7ebd
000002b0: 52e7 f33d c27f 47bd b5f6 3a3e 6f17 d5bc
000002c0: b815 9bbd 2ff0 ae3d f441 8cbd ebaa df3d
000002d0: 9b84 16bd 0ea4 143d 07b9 e43d fa33 54be
000002e0: 19e4 643d 26e4 bbbd b3de 02bd fb97 b23d
000002f0: a80c efbd a349 dfbd b2ce 28bd 18a5 043c
00000300: d637 f9bb e39c 15bb d836 27bd 8cd2 8e3d
00000310: 7bee 6cbd b993 9a3c fc65 013d bc4f 073e
00000320: 551d b5bd 7666 233d a9ef d2bc 740a f7bc
00000330: 8c01 4cbe 2654 a6bd 0d9e 40bd 7a04 083d
00000340: 6626 42bc 9299 e4bd 15bf 3cbe bc84 1fbe
00000350: f460 05be 48f3 2b3d 34d4 2cbe c118 1dbd
00000360: 291d fdbc 9b9c fa3d 93d3 b3bc f8e6 3abd
00000370: c0fd a13c 7204 373d da95 37be 5c2a 00be
00000380: b6d0 a8bd ad51 333d 2fb1 dd3d 1348 9f3d
00000390: 76e4 103c 95b0 a83c 8f02 49bd 70ad 4ebe
000003a0: 7313 ce3d e5e5 17be 5f48 223e 89e0 5a3d
000003b0: a8d7 e53c aa24 dcbc 8aed f0bd 9ad8 6cbd
000003c0: 9471 813d 263b 443c d583 5e3b 87ba 0dbe
000003d0: d0f0 3a3d a383 41bd b998 45be dd78 3a3d
000003e0: 168a 133e 4011 7c3d b4bf fc3c 5a2f febd
000003f0: c27c 193d 4085 9ebd 92ba 1f3c 4450 963d

linear2.weight f4 [256, 256]
-0.028189283 0.09302009 -0.47387078 -0.12198525 -0.15612866 -0.26140988 0.3104639 -0.528641
0.03849609 0.16597837 -0.33321223 -0.09290421 -0.1110474 0.089472875 -0.36818513 -0.025738845
0.016071316 -0.09832867 -0.2257398 -0.060081 0.11644055 0.038748793 -0.3576063 0.09341697
0.18502447 0.0009732347 -0.021534136 0.054884937 -0.07602703 0.1997825 0.11378595 -0.023083393
-0.1654725 0.022901965 0.04222951 -0.38411883 0.006567552 -0.15226458 -0.027013907 -0.07748878
-0.19587442 -0.09158656 0.050394267 0.14303885 0.1298467 -0.14043057 0.23789129 0.09500019
0.16892907 0.02228803 -0.25171894 -0.14670257 -0.14586262 -0.048347816 0.17200662 0.18560801
-0.113716476 0.065943375 0.05431054 0.100914724 -0.1256995 -0.012171934 -0.056535743 0.025208356
-0.020979533 -0.63904744 -0.084790826 0.039836306 -0.11139587 -0.20308793 -0.026624631 0.08075552
-0.029532887 -0.27882928 0.13320112 -0.18368547 0.22925659 0.14450543 -0.17578161 -0.029515991
0.0016525765 0.11941566 -0.24442247 -0.11687037 -0.060842138 -0.07638299 -0.19364952 -0.024021877
-0.20608845 -0.40355468 -0.018836318 0.3166619 -0.42713565 -0.2178137 -0.060508 0.042558808
-0.28467923 -0.068159014 0.033500183 0.024336899 -0.2007038 -0.10456905 0.14528385 -0.20441894
-0.43379417 0.3738503 0.1466788 0.052922852 -0.14697187 -0.13338734 -0.040373817 -0.31100324
-0.31046942 0.0366476 0.11222645 -0.29912093 -0.07864665 -0.06832219 0.15895694 -0.34859532
-0.012955881 0.14236246 -0.19397537 -0.06103439 -0.11461586 -0.14537059 -0.3514423 -0.019888513
-0.0822941 -0.070884615 -0.09037807 0.0034598887 0.12401368 0.09814665 0.006953643 0.14823489
0.09818892 0.014433273 0.043993168 -0.021019705 0.34836644 0.025379842 -0.020518059 -0.031736676
-0.31118327 0.17025511 -0.29798406 -0.21612968 0.23623231 -0.1592486 0.20282722 -0.0040815603
-0.13458839 0.11030864 0.015800672 -0.096378185 -0.011521652 -0.20903188 0.40625834 -0.17438293
-0.027388822 0.041584186 -0.018175302 0.09071298 0.25310934 -0.07263762 -0.022918556 0.4999214
0.14052847 0.11033252 0.13900335 -0.02881687 -0.014893299 0.18133958 0.24313432 0.0049532675
-0.28822544 -0.2871609 0.06013957 0.20351537 -0.17703858 -0.3160929 0.2403859 0.056573812
0.23402822 -0.01843657 0.174308 0.069630735 -0.16449744 -0.3637797 0.16517857 0.2728285
0.08827411 -0.036242504 0.094820134 0.026151612 0.029721908 -0.06933029 0.004241781 -0.20498973
0.16390358 0.058319837 -0.034613907 0.012509861 0.31084403 0.1304531 -0.049833532 -0.5211334
0.18675172 0.06740808 -0.042245135 0.030091368 -0.5387398 -0.39414883 0.0982549 -0.17469023
0.05768976 0.0669429 -0.008261107 0.0041213436 0.0627327 0.037813462 0.11892173 -0.25902772
-0.26927876 -0.05343233 -0.103366226 0.18335062 -0.011995114 0.16867834 -0.13774529 0.12889133
0.228304 -0.21978913 -0.11876101 0.2968346 -0.22990076 0.04610999 0.33206603 -0.07921163
0.1795137 -0.22702791 -0.20292884 0.29426268 0.0013506877 -0.088305235 0.05371671 -0.59160393
-0.20972455 -0.21831565 0.031314764 0.17535932 0.032297894 -0.27318972 -0.09511563 -0.030293237
00000000: 36ed e6bc 5181 be3d 319f f2be 67d3 f9bd
00000010: 31e0 1fbe 84d7 85be 20f5 9e3e 0455 07bf
00000020: 13ae 1d3d 3cf6 293e cb9a aabe 9044 bebd
00000030: d26c e3bd 8e3d b73d c382 bcbe 45da d2bc
00000040: fea7 833c 8b60 c9bd 5628 67be 7f17 76bd
00000050: 6278 ee3d 0eb7 1e3d 2c18 b7be 6551 bf3d
00000060: 0e77 3d3e ad20 7f3a 5b68 b0bc 07cf 603d
00000070: 0fb4 9bbd c993 4c3e 9c08 e93d 6219 bdbc
00000080: 9f71 29be e79c bb3c daf8 2c3d 39ab c4be
00000090: 9f34 d73b 3feb 1bbe 454c ddbc 70b2 9ebd
000000a0: 4e93 48be bc91 bbbd 386a 4e3d c778 123e
000000b0: 89f6 043e 08cd 0fbe c699 733e 768f c23d
000000c0: befb 2c3e 6395 b63c 4ee1 80be 3339 16be
000000d0: 035d 15be 5c08 46bd 8122 303e 0710 3e3e
000000e0: 2fe4 e8bd 520d 873d bb74 5e3d 61ac ce3d
000000f0: 5fb7 00be cb6c 47bc 0692 67bd c181 ce3c
00000100: 45dd abbc 9d98 23bf d0a6 adbd 652b 233d
00000110: 8523 e4bd 48f6 4fbe e61b dabc 2663 a53d
00000120: f4ee f1bc b6c2 8ebe e065 083e 0b18 3cbe
00000130: 3dc2 6a3e 3bf9 133e 1800 34be 85cb f1bc
00000140: 449b d83a 3390 f43d e249 7abe bc59 efbd
00000150: 9b35 79bd af6e 9cbd 0f4c 46be 87c9 c4bc
00000160: da08 53be b89e cebe 9f4e 9abc 8221 a23e
00000170: 86b1 dabe 8e0a 5fbe 3dd7 77bd 2552 2e3d
00000180: 7ac1 91be f496 8bbd 7d37 093d 2d5e c73c
00000190: 4c85 4dbe 4c28 d6bd 4ac5 143e 3353 51be
000001a0: 451a debe 4e69 bf3e f832 163e a2c5 583d
000001b0: cb7f 16be b196 08be 045f 25bd d13b 9fbe
000001c0: d9f5 9ebe cb1b 163d fbd6 e53d 6126 99be
000001d0: 7f11 a1bd 81ec 8bbd 9cc5 223e 167b b2be
000001e0: e744 54bc 77c7 113e 7ba1 46be 32ff 79bd
000001f0: b8bb eabd 07dc 14be 3ff0 b3be 3ced a2bc
00000200: cf89 a8bd f42b 91bd 2318 b9bd 4dbf 623b
00000210: e2fa fd3d 1c01 c93d 63db e33b e3ca 173e
00000220: 4617 c93d 8979 6c3c 2e32 343d 8431 acbc
00000230: 165d b23e 63e9 cf3c 7d15 a8bc 51fe 01bd
00000240: 6a53 9fbe 5b57 2e3e 5e91 98be 1951 5dbe
00000250: e2e6 713e 1112 23be f0b1 4f3e 9cbe 85bb
00000260: 8ad1 09be 7fe9 e13d 6970 813c ed61 c5bd
00000270: 50c5 3cbc 740c 56be 1801 d03e 7091 32be
00000280: 865e e0bc 2e54 2a3d 5fe4 94bc bac7 b93d
00000290: 8c97 813e 08c3 94bd b2bf bbbc b3f5 ff3e
000002a0: b2e6 0f3e 04f6 e13d e556 0e3e 5b11 ecbc
000002b0: 0603 74bc 15b1 393e 34f8 783e 054f a23b
000002c0: 4992 93be c106 93be e954 763d 5566 503e
000002d0: 9a49 35be eed6 a1be b927 763e f1b9 673d
000002e0: 18a5 6f3e 4a08 97bc cc7d 323e 8f9a 8e3d
000002f0: 0472 28be 5541 babe 9224 293e 2db0 8b3e
00000300: 0ec9 b43d 0573 14bd 0f31 c23d e83b d63c
00000310: 5c7b f33c 0afd 8dbd a3fe 8a3b d4e8 51be
00000320: 57d6 273e c8e0 6e3d 50c7 0dbd 29f6 4c3c
00000330: f326 9f3e 7f95 053e 3f1e 4cbd 0069 05bf
00000340: d83b 3f3e 3f0d 8a3d 3c09 2dbd 2c82 f63c
00000350: daea 09bf e0cd c9be dd39 c93d ffe1 32be
00000360: 194c 6c3d 5c19 893d 9859 07bc 560c 873b
00000370: 007a 803d 4ae2 1a3d 3c8d f33d 489f 84be
00000380: e8de 89be dcdb 5abd acb1 d3bd 44c0 3b3e
00000390: 2887 44bc 04ba 2c3e 1a0d 0dbe 17fc 033e
000003a0: 86c8 693e 6710 61be f938 f3bd b4fa 973e
000003b0: 1b6b 6bbe d4dd 3c3d 8f04 aa3e b539 a2bd
000003c0: 70d2 373e 017a 68be 94cc 4fbe 99a9 963e
000003d0: 8f09 b13a 60d9 b4bd 0e06 5c3d 5b73 17bf
000003e0: 08c2 56be 238e 5fbe e943 003d 6591 333e
000003f0: cc4a 043d 86df 8bbe fccb c2bd 8629 f8bc

linear2.bias f4 [256]
-0.19206512 -0.16315548 0.27421284 0.017768446 -0.022103185 -0.052089963 0.1306214 -0.014435945
0.2514935 -0.08421974 -0.26435897 -0.2358556 0.055059373 -0.0880558 0.07433865 -0.05340694
-0.05820669 -0.46475595 0.17378776 0.018504938 -0.042164892 0.1757411 0.05482005 -0.42992544
-0.042051576 0.19514945 -0.286087 0.011025487 -0.04013834 -0.03399018 -0.41936225 -0.054150965
-0.03825702 -0.35191464 -0.037014794 -0.47531515 0.13624978 0.046315704 0.14629716 0.038480736
0.27252114 0.16502851 -0.11219418 -0.36490294 -0.002546248 -0.103108756 0.26065317 0.13539083
-0.13970098 -0.40471706 0.08623895 0.11268706 0.24707904 0.08319525 0.051055413 -0.0721973
-0.07443128 0.10851165 -0.37634003 -0.015604446 0.1377412 0.3070266 -0.09818738 0.55186117
0.22627284 -0.19704199 0.040652767 0.125475 -0.20698316 0.24423021 -0.08682111 0.09431632
0.01840793 0.3162694 0.016913973 -0.62623155 -0.07172507 0.2714056 -0.15331487 -0.14628229
0.1923788 0.06335044 -0.19415572 -0.1533293 0.2512185 -0.058454286 0.096004166 0.16948867
0.12013824 0.18002668 -0.06749301 0.042062625 0.069388956 -0.24927008 -0.03677747 0.19596566
-0.10147411 -0.4044406 0.029797146 -0.036743265 -0.07534824 0.025168031 -0.2713472 0.17245151
0.07047172 -0.0847113 0.3293374 0.08877466 -0.25125468 0.055565715 -0.3355765 -0.19526474
0.0101727005 -0.0037636524 0.073904134 0.13831751 0.07494918 -0.14038894 0.012825176 0.0068485653
0.01364761 0.028838908 0.09772494 -0.13040327 0.1359982 0.0017938592 0.0218142 0.19761315
-0.067660384 -0.4703502 -0.27309248 0.24943405 0.23444913 -0.09905281 -0.30048916 0.15378956
0.24474888 0.19584957 0.058406927 -0.011800861 0.15650073 0.20381877 -0.20925483 -0.12079091
0.25967732 -0.1228704 0.03139688 -0.093244255 -0.096382044 -0.18526876 -0.12211964 -0.46371153
0.042696834 -0.2424898 -0.11964962 -0.06330268 0.06264685 0.24957559 -0.2891261 -0.17048244
0.02371198 -0.045228425 0.29616797 -0.08538455 -0.49695224 -0.09108766 -0.08017728 -0.12929434
0.041018724 0.12593378 -0.2871054 -0.14926575 0.012017913 0.12777118 0.11003598 -0.005823069
-0.06732736 -0.12970573 -0.0741842 -0.1543015 -0.06409589 0.02161457 -0.082478166 -0.26254687
0.103236854 -0.19890852 0.0921096 0.13946415 -0.09538651 0.04472966 -0.04681893 0.03368507
0.14453126 0.013026979 0.13075206 0.34787798 -0.019342652 0.08930169 -0.23366915 0.12689649
-0.0010657811 -0.07364421 0.10961586 -0.091096 -0.09742469 -0.094920404 -0.037760768 -0.37284106
-0.2687492 0.21318622 -0.06047138 -0.0027337382 0.16561298 -0.047105804 0.10538307 -0.1764788
-0.0844567 -0.038123842 -0.05659037 0.21430008 0.2175263 0.14725801 -0.08118491 -0.023975287
0.11528078 -0.11282826 -0.15743703 0.21705537 -0.18407287 0.091033325 0.46886352 -0.105316855
0.19289486 0.09975687 0.004292087 0.071845874 -0.07392502 0.12328863 0.031824198 -0.10027166
0.15036622 0.031732872 0.014501886 -0.15708001 0.3330694 -0.285321 -0.24682678 -0.06170578
0.0114441775 -0.27416545 0.04284948 -0.083962925 0.017512435 -0.18343057 -0.022247486 -0.33352414
00000000: b8ac 44be 3b12 27be a065 8c3e 228f 913c
00000010: bd11 b5bc 495c 55bd 9ec1 053e be84 6cbc
00000020: c2c3 803e 667b acbd 0f5a 87be 2184 71be
00000030: f085 613d 9956 b4bd dd3e 983d 3cc1 5abd
00000040: 236a 6ebd 7ef4 edbe 6bf5 313e ab97 973c
00000050: 18b5 2cbd 7af5 333e fd8a 603d 301f dcbe
00000060: 463e 2cbd 42d5 473e ff79 92be 3fa4 343c
00000070: 1a68 24bd 4939 0bbd a6b6 d6be 67cd 5dbd
00000080: 65b3 1cbd 282e b4be d39c 17bd 825c f3be
00000090: 1085 0b3e 89b5 3d3d ecce 153e fa9d 1d3d
000000a0: e487 8b3e 3cfd 283e 10c6 e5bd 8fd4 babe
000000b0: f4de 26bb af2a d3bd 5574 853e e5a3 0a3e
000000c0: c60d 0fbe 1337 cfbe 0c9e b03d 79c8 e63d
000000d0: 4a02 7d3e 4562 aa3d 7b1f 513d 2edc 93bd
000000e0: 6d6f 98bd 5b3b de3d a4af c0be caa9 7fbc
000000f0: 070c 0d3e 9732 9d3e 7716 c9bd c646 0d3f
00000100: 11b4 673e 60c5 49be 8483 263d 857c 003e
00000110: 65f3 53be 7c17 7a3e 44cf b1bd ea28 c13d
00000120: 3acc 963c 10ee a13e 2c8f 8a3c b650 20bf
00000130: 98e4 92bd adf5 8a3e 93fe 1cbe 06cb 15be
00000140: f3fe 443e e0bd 813d c2d0 46be 5b02 1dbe
00000150: b69f 803e c36d 6fbd d59d c43d 708e 2d3e
00000160: 0a0b f63d ea58 383e c639 8abd dc49 2c3d
00000170: cc1b 8e3d a840 7fbe f9a3 16bd 39ab 483e
00000180: a8d1 cfbd d712 cfbe 2519 f43c 1b80 16bd
00000190: 2e50 9abd 302d ce3c 05ee 8abe 2197 303e
000001a0: 7a53 903d 1e7d adbd e99e a83e 7dcf b53d
000001b0: 74a4 80be e098 633d afd0 abbe 7bf3 47be
000001c0: 66ab 263c 9ca7 76bb 0d5b 973d 1ba3 0d3e
000001d0: f57e 993d 1ec2 0fbe b020 523c ee69 e03b
000001e0: 3a9a 5f3c 933f ec3c 0324 c83d 6f88 05be
000001f0: 1d43 0b3e ed1f eb3a b1b3 b23c 1a5b 4a3e
00000200: 8791 8abd bed1 f0be c7d2 8bbe a46b 7f3e
00000210: 6f13 703e 33dc cabd b7d9 99be 037b 1d3e
00000220: 739f 7a3e ca8c 483e 1a3c 6f3d 6658 41bc
00000230: ba41 203e deb5 503e e646 56be 3a61 f7bd
00000240: 6df4 843e 7aa3 fbbd 049a 003d d8f6 bebd
00000250: f363 c5bd 18b7 3dbe dd19 fabd 996b edbe
00000260: e0e2 2e3d 3f4f 78be dc0a f5bd d6a4 81bd
00000270: fe4c 803d be90 7f3e 5608 94be f392 2ebe
00000280: a03f c23c 7141 39bd 54a3 973e 18de aebd
00000290: 8670 febe 2b8c babd fc33 a4bd bc65 04be
000002a0: 4003 283d c9f4 003e 7bff 92be 1fd9 18be
000002b0: c8e6 443c 73d6 023e 8b5a e13d 71cf bebb
000002c0: ede2 89bd 94d1 04be e3ed 97bd 3601 1ebe
000002d0: b544 83bd 0a11 b13c 50ea a8bd 8b6c 86be
000002e0: d86d d33d adae 4bbe f5a3 bc3d b1cf 0e3e
000002f0: 015a c3bd 7336 373d 35c5 3fbd 5bf9 093d
00000300: 0100 143e 1c6f 553c dee3 053e 101d b23e
00000310: 7b74 9ebc cee3 b63d f746 6fbe 27f1 013e
00000320: aeb1 8bba c7d2 96bd 487e e03d 8a90 babd
00000330: 9986 c7bd a165 c2bd 09ab 1abd 06e5 bebe
00000340: 7f99 89be 7d4d 5a3e d6b0 77bd 8428 33bb
00000350: 7396 293e 04f2 40bd 14d3 d73d dcb6 34be
00000360: a2f7 acbd bf27 1cbd 4ecb 67bd 7b71 5b3e
00000370: 37bf 5e3e ceca 163e 4644 a6bd d267 c4bc
00000380: 5418 ec3d 8112 e7bd 2c37 21be c343 5e3e
00000390: 997d 3cbe ae6f ba3d e10e f03e 5db0 d7bd
000003a0: 3b86 453e 544d cc3d a3a4 8c3b ee23 933d
000003b0: 0066 97bd c07e fc3d 175a 023d 3a5b cdbd
000003c0: 9af9 193e 54fa 013d 5299 6d3c 95d9 20be
000003d0: 1388 aa3e 9815 92be 29c0 7cbe 33bf 7cbd
000003e0: 5c80 3b3c 6a5f 8cbe f082 2f3d c1f4 abbd
000003f0: 3d76 8f3c 39d5 3bbe 5c40 b6bc adc3 aabe

mean_linear.weight f4 [12, 256]
0.16378953 0.015056321 0.29108834 -0.14028762 0.1662856 0.043125052 -0.042491697 -0.15057991
-0.03222326 -0.30300784 -0.13157588 0.23572373 -0.23028305 0.0149680795 -0.26222768 -0.0005590801
0.07384133 0.20215586 0.04404182 -0.27552685 -0.03832238 0.07070668 0.04133154 -0.18618402
0.03598111 0.14289154 -0.30814496 -0.117249526 -0.21296653 -0.01856681 -0.48628163 -0.0022574747
-0.3197666 -0.22808476 0.026411163 -0.020892138 0.28658006 0.16502842 0.072494514 -0.1742576
-0.014855466 0.19299734 -0.2395025 0.24902159 -0.030986782 0.035070214 0.06373046 0.053961705
-0.6388636 0.00801704 -0.354568 -0.14444028 -0.04359463 0.048185624 0.07130799 0.040162142
-0.0022830374 0.061249122 -0.6682894 -0.045398932 0.008590931 0.17228204 -0.34050736 0.008705161
0.18524304 -0.19258592 0.082737215 0.20645028 -0.49574587 -0.17388786 -0.03367061 0.06798745
0.33384064 -0.10370342 0.4076086 -0.09380012 -0.0047709453 0.25064063 -0.121810526 -0.3451746
-0.14187394 0.32210714 -0.13103694 -0.026114687 0.1679953 0.003011485 -0.2613804 0.01357463
-0.06988194 -0.28373384 0.008900374 -0.009323313 0.046398897 -0.19585907 0.0017456613 0.08639485
-0.18153349 -0.667741 -0.31649002 0.30356687 0.29039508 -0.101408936 -0.037831627 0.3476922
0.2085477 0.01649645 0.0428073 -0.15207273 0.027279325 0.18319897 -0.30799294 -0.09252437
-0.1055241 0.41324466 0.12767416 -0.09645576 0.11255032 0.09432504 -0.16948152 -0.038992114
-0.03902289 0.04018934 0.30138034 0.14976765 -0.017521854 0.16633238 0.038049173 0.21043336
-0.0054656896 0.19941024 -0.18465173 0.011670876 0.042636603 0.16444926 -0.02869072 0.09775223
0.067189574 -0.30293614 -0.11728563 -0.1667282 0.24000469 0.04236131 -0.27398616 -0.0034131538
-0.18988235 -0.13628368 -0.024188157 0.11481937 -0.03313607 -0.21115895 0.15440735 -0.025962612
-0.037149366 -0.087091126 0.035932187 -0.086237706 -0.03680038 -0.09423791 -0.031597152 -0.45654103
-0.0856261 0.19382156 -0.08099907 -0.50644 0.0578848 -0.02613707 -0.053818196 0.23796628
-0.07551896 0.17005278 0.1234513 -0.07684506 -0.58347774 -0.09131527 0.06610839 0.22218426
-0.006643856 -0.1052609 0.12286807 0.018617943 -0.3327917 -0.4344775 -0.11085835 0.11156527
0.2738461 0.20193103 -0.27633458 0.28886008 0.26215842 0.09108007 -0.20490621 -0.69712085
0.10448001 0.5725767 -0.13134491 0.036047768 0.025056705 0.0322475 -0.14322862 -0.02329667
-0.07606397 0.0036304435 -0.10365942 -0.20587806 0.0043103616 -0.043851484 0.0005074034 -0.08683824
-0.2550264 0.07684317 0.028045563 -0.0070325597 -0.025011916 -0.012424437 0.3184893 -0.43193135
0.040790543 0.011338058 -0.066371664 0.061949827 0.010128737 -0.07949402 0.057926513 0.13886341
-0.0041842684 -0.028084885 -0.69256127 0.033450898 -0.12956293 -0.14333601 0.009850062 -0.078074776
-0.34252456 0.19279715 -0.12935808 -0.29624495 -0.1654288 0.06548849 0.21768852 -0.10193731
-0.21712314 -0.06405584 -0.031726472 -0.35855848 0.23522341 -0.18131554 -0.18549009 0.37389836
-0.28869885 -0.60889095 0.059198488 -0.00095149444 -0.037486814 -0.07552523 0.31568757 0.1626356
00000000: 71b8 273e caae 763c 8809 953e 8fa7 0fbe
00000010: c646 2a3e e5a3 303d c60b 2ebd 9f31 1abe
00000020: 89fc 03bd d823 9bbe d4bb 06be 9061 713e
00000030: 52cf 6bbe ad3c 753c b542 86be 3b8f 12ba
00000040: 203a 973d f201 4f3e 3265 343d db11 8dbe
00000050: eef7 1cbd aace 903d 434b 293d 06a7 3ebe
00000060: ee60 133d 2952 123e 2dc5 9dbe 8520 f0bd
00000070: e613 5abe 6c19 98bc e8f9 f8be 24f2 13bb
00000080: 73b8 a3be 0d8f 69be 395c d83c fd25 abbc
00000090: 9fba 923e 36fd 283e 0178 943d 9670 32be
000000a0: 5764 73bc 18a1 453e 2540 75be 84ff 7e3e
000000b0: fed7 fdbc c9a5 0f3d 1e85 823d f306 5d3d
000000c0: 918c 23bf e759 033c f089 b5be 27e8 13be
000000d0: 4890 32bd 4a5e 453d ec09 923d 0f81 243d
000000e0: 039f 15bb 5ce0 7a3d 0415 2bbf 3bf4 39bd
000000f0: fac0 0c3c b46a 303e fb56 aebe 17a0 0e3c
00000100: 5ab0 3d3e 3e35 45be 2172 a93d b467 533e
00000110: 67d2 fdbe a90f 32be 32ea 09bd 013d 8b3d
00000120: 29ed aa3e 7562 d4bd 13b2 d03e 471a c0bd
00000130: 9755 9cbb f853 803e cc77 f9bd baba b0be
00000140: 6747 11be 3aeb a43e 8c2e 06be 78ee d5bc
00000150: f606 2c3e 565c 453b a7d3 85be 2068 5e3c
00000160: 431e 8fbd 9045 91be e0d2 113c cfc0 18bc
00000170: c50c 3e3d 488f 48be acce e43a c8ef b03d
00000180: eae3 39be 13f1 2abf fb0a a2be 1e6d 9b3e
00000190: aaae 943e 7daf cfbd 56f5 1abd b604 b23e
000001a0: 878d 553e 9023 873c b556 2f3d f4b8 1bbe
000001b0: e478 df3c 8398 3b3e 40b1 9dbe 6b7d bdbd
000001c0: 051d d8bd ce94 d33e 04bd 023e 998a c5bd
000001d0: c880 e63d 7d2d c13d 908c 2dbe 32b6 1fbd
000001e0: 77d6 1fbd 949d 243d 864e 9a3e b15c 193e
000001f0: fe89 8fbc 0953 2a3e 73d9 1b3d d87b 573e
00000200: 8719 b3bb 3332 4c3e 5815 3dbe 3437 3f3c
00000210: b8a3 2e3d 6365 283e cd08 ebbc 5232 c83d
00000220: b09a 893d 721a 9bbe 7333 f0bd ccba 2abe
00000230: cac3 753e 0e83 2d3d ea47 8cbe 38af 5fbb
00000240: 8570 42be f38d 0bbe 3e26 c6bc 6b26 eb3d
00000250: b0b9 07bd 0d3a 58be f61c 1e3e 8baf d4bc
00000260: ef29 18bd d55c b2bd a12d 133d 659d b0bd
00000270: ffbb 16bd ceff c0bd 046c 01bd bfbf e9be
00000280: bd5c afbd 2979 463e d7e2 a5bd 0da6 01bf
00000290: 9d18 6d3d 691d d6bc 7870 5cbd 6fad 733e
000002a0: afa9 9abd 5122 2e3e 09d4 fc3d f160 9dbd
000002b0: cc5e 15bf 8003 bbbd d663 873d 4584 633e
000002c0: b4b4 d9bb 0793 d7bd 41a2 fb3d a884 983c
000002d0: ac63 aabe d673 debe b409 e3bd 557c e43d
000002e0: 8e35 8c3e 02c7 4e3e ba7b 8dbe 78e5 933e
000002f0: a139 863e 3088 ba3d efd2 51be 8376 32bf
00000300: 9ef9 d53d 6394 123f 487f 06be d3a6 133d
00000310: b843 cd3c f415 043d 86aa 12be a8d8 bebc
00000320: 6dc7 9bbd bcec 6d3b 644b d4bd b3d1 52be
00000330: ef3d 8d3b 9d9d 33bd 4403 053a 3fd8 b1bd
00000340: d292 82be f45f 9d3d cfbf e53c 6371 e6bb
00000350: cae5 ccbc de8f 4bbc 0811 a33e 1b26 ddbe
00000360: fc13 273d 43c3 393c deed 87bd 1abf 7d3d
00000370: 01f3 253c c3cd a2bd 5a44 6d3d 3632 0e3e
00000380: 301c 89bb 4612 e6bc b24b 31bf cf03 093d
00000390: 25ac 04be adc6 12be 2862 213c abe5 9fbd
000003a0: 615f afbe 9e6c 453e 7276 04be 6bad 97be
000003b0: 2b66 29be d41e 863d bde9 5e3e 82c4 d0bd
000003c0: 8755 5ebe b52f 83bd 9ef3 01bd fa94 b7be
000003d0: 68de 703e c8aa 39be 1df1 3dbe 9b6f bf3e
000003e0: 56d0 93be 47e0 1bbf 1d7a 723d b66d 79ba
000003f0: c68b 19bd f9ac 9abd cda1 a13e f289 263e

mean_linear.bias f4 [12]
0.07461469 0.92005694 -0.25067228 0.09587437 -0.21933259 0.30911943 0.04083409 -0.052274078
-0.51186556 0.055705033 -0.08864338 0.18861453
00000000: 96cf 983d da88 6b3f 1e58 80be c859 c43d
00000010: b998 60be e744 9e3e a641 273d 581d 56bd
00000020: 9f09 03bf f62a 643d a98a b5bd 2b24 413e

log_std_linear.weight f4 [12, 256]
-0.122608274 -0.12176804 -0.16644265 -0.14518818 -0.2578548 -0.074962586 0.0045614326 -0.024022339
-0.09404792 0.07524484 -0.09940496 -0.027256763 -0.12194435 -0.011101043 -0.18129112 -0.005655837
-0.044172473 -0.17943667 -0.08377844 -0.115032084 0.029974721 -0.138843 -0.14536846 -0.122019984
-0.0025664116 -0.16517496 -0.077803366 -0.12494613 -0.08171457 -0.24946511 -0.18899882 -0.0045045563
-0.29090926 -0.049998883 -0.09485629 -0.020811176 -0.041716985 -0.112189986 -0.077289246 -0.085178226
-0.11950007 -0.04385345 -0.038744662 -0.19468006 0.0018027711 -0.11669617 -0.16345859 -0.103675924
0.03177239 -0.24303767 0.02585487 0.058913987 -0.18060382 -0.08381222 -0.16177653 0.012443734
-0.00677041 -0.13425675 0.001415296 -0.11861871 0.062031217 -0.13813742 -0.05953739 -0.24610175
-0.0080559915 -0.3117204 -0.07549052 -0.24325575 -0.03289845 -0.0826983 0.00014653816 -0.00032946398
-0.10020235 -0.14560343 -0.10633705 -0.14072736 -0.15475915 -0.1420097 -0.109041885 -0.0061152815
-0.056360237 0.07874342 -0.12030486 -0.020963805 -0.14110325 -0.001668529 -0.0678719 0.011270657
-0.10920795 -0.13501652 -0.02015185 -0.031063696 -0.040433347 -0.069644116 -0.011848835 0.04150652
-0.089862704 -0.028757589 -0.06235479 -0.120188296 -0.09736727 -0.14894684 -0.19072308 -0.14459102
-0.10948478 -0.09021038 -0.097645044 -0.1425734 -0.083769254 -0.053596716 -0.1519838 -0.25417075
-0.081084296 -0.12392936 -0.17970133 -0.08118424 -0.09808303 -0.018358478 -0.19165964 -0.042612854
-0.14207844 -0.018375726 -0.12686066 -0.16740093 -0.10136049 -0.11803923 -0.095405124 -0.15416339
-0.0148695735 -0.1948844 -0.28907308 -0.0015647222 -0.12050676 -0.13099957 -0.12481205 -0.11414452
0.042631805 -0.15717669 -0.086765245 -0.10514612 -0.08072409 -0.18835099 -0.18685012 0.03599466
-0.08953254 -0.093602285 -0.1344859 -0.09974919 -0.25999516 -0.10652525 -0.029798148 -0.02458081
-0.10274077 -0.13521637 -0.09438937 -0.16753398 -0.15364745 -0.09700893 -0.20327759 0.009315913
-0.20573416 -0.15884206 -0.03971919 -0.023903115 -0.03739052 -0.0462579 0.010723395 0.0075507225
-0.08161839 -0.103248194 -0.16902259 -0.05394183 -0.08182725 -0.074226394 -0.15414347 -0.085876
0.0009255962 -0.056214083 -0.1969314 -0.2849555 -0.13460976 -0.0657192 -0.08533017 -0.00019953304
-0.16439995 -0.08246956 -0.05838433 -0.19665766 -0.060186498 -0.079842456 -0.04327565 -0.0018828999
-0.0656983 -0.14618188 -0.015851518 -0.11631622 0.004628067 -0.05739212 -0.07841011 -0.1640654
-0.08258505 -0.001281713 -0.066973954 -0.20446247 -0.006605368 -0.073236994 -0.029233241 -0.11642194
-0.21292678 -0.12122148 -0.17372926 0.028761137 -0.0730114 -0.008897119 0.054962225 -0.11386198
-0.18267226 0.002709527 -0.028074231 -0.11963869 0.0760518 -0.08063535 -0.09468934 0.016375715
0.048063256 -0.0007239514 -0.12436436 -0.092644684 -0.13685647 -0.019246453 -0.1602578 -0.1976989
-0.08092197 -0.18028808 0.013822029 -0.071079776 -0.11170836 -0.07426169 0.012822963 0.02477444
-0.10177485 -0.16083317 -0.064736076 -0.047487985 -0.019059798 -0.009015015 0.0073474734 -0.06167801
-0.080541946 -0.08902272 -0.047896195 0.0018836609 0.007097826 -0.2643275 -0.06619778 -0.052927975
00000000: 0c1a fbbd 8661 f9bd f16f 2abe 36ac 14be
00000010: 8b05 84be fc85 99bd 1278 953b 7fca c4bc
00000020: 329c c0bd f719 9a3d d494 cbbd 9349 dfbc
00000030: f6bd f9bd 26e1 35bc 61a4 39be 9954 b9bb
00000040: 32ee 34bd 3fbe 37be 0894 abbd f195 ebbd
00000050: 8c8d f53c dc2c 0ebe 78db 14be 9de5 f9bd
00000060: 3e31 28bb a023 29be 5f57 9fbd c2e3 ffbd
00000070: f859 a7bd c873 7fbe e888 41be f59a 93bb
00000080: 0ff2 94be a1cb 4cbd 0444 c2bd 337c aabc
00000090: 6edf 2abd ddc3 e5bd d349 9ebd ec71 aebd
000000a0: 74bc f4bd ad9f 33bd b9b2 1ebd 365a 47be
000000b0: f64a ec3a 67fe eebd b061 27be 0b54 d4bd
000000c0: c423 023d dede 78be 98cd d33c cb4f 713d
000000d0: 35f0 38be bea5 abbd bfa8 25be cee0 4b3c
000000e0: 51da ddbb 9a7a 09be 7481 b93a 5eee f2bd
000000f0: 7214 7e3d e573 0dbe 7add 73bd 1902 7cbe
00000100: 47fd 03bc d199 9fbe c69a 9abd 0918 79be
00000110: 86c0 06bd ba5d a9bd 0aa8 1939 e8bb acb9
00000120: e436 cdbd 1119 15be 3dc7 d9bd d51a 10be
00000130: 2f79 1ebe fe6a 11be 5a51 dfbd b362 c8bb
00000140: fed9 66bd 3b44 a13d 6562 f6bd 49bc abbc
00000150: 5f7d 10be 8bb2 daba 6c00 8bbd 90a8 383c
00000160: 6ba8 dfbd c541 0abe 7e15 a5bc 4b79 febc
00000170: 709d 25bd 93a1 8ebd 9e21 42bc be02 2a3d
00000180: f009 b8bd 0995 ebbc bc67 7fbd 4825 f6bd
00000190: 7e68 c7bd 8585 18be e94c 43be ab0f 14be
000001a0: 8e39 e0bd 38c0 b8bd 20fa c7bd c3fe 11be
000001b0: 378f abbd 3b88 5bbd a4a1 1bbe ab22 82be
000001c0: 860f a6bd adce fdbd a003 38be ec43 a6bd
000001d0: c1df c8bd 8564 96bc 6d42 44be d18a 2ebd
000001e0: 037d 11be b188 96bc c3e7 01be 266b 2bbe
000001f0: 1796 cfbd 8dbe f1bd c363 c3bd 02dd 1dbe
00000200: 839f 73bc c78f 47be 6301 94be 5d17 cdba
00000210: 40cc f6bd c024 06be 769d ffbd 9ac4 e9bd
00000220: b09e 2e3d edf2 20be fab1 b1bd d956 d7bd
00000230: ac52 a5bd 15df 40be a355 3fbe 236f 133d
00000240: d65c b7bd 8eb2 bfbd acb6 09be 4e49 ccbd
00000250: 161e 85be e929 dabd 3f1b f4bc b25d c9bc
00000260: c169 d2bd 2976 0abe 374f c1bd 078e 2bbe
00000270: c255 1dbe 9eac c6bd 0028 50be c5a1 183c
00000280: faab 52be 7ea7 22be 97b0 22bd 77d0 c3bc
00000290: cd26 19bd ec78 3dbd 2eb1 2f3c 0d6c f73b
000002a0: 8b27 a7bd ca73 d3bd 4214 2dbe 1cf2 5cbd
000002b0: 0c95 a7bd 0204 98bd c9d7 1dbe c2df afbd
000002c0: b6a3 723a bd40 66bd 63a8 49be b0e5 91be
000002d0: 24d7 09be ca97 86bd 96c1 aebd be39 51b9
000002e0: 7658 28be cde5 a8bd 6824 6fbd a060 49be
000002f0: 1e86 76bd 7184 a3bd cf41 31bd a3cb f6ba
00000300: d58c 86bd b4b0 15be 0bdb 81bc 3337 eebd
00000310: 0aa7 973b 0014 6bbd 7b95 a0bd c300 28be
00000320: 5a22 a9bd 27ff a7ba a429 89bd 9c5e 51be
00000330: d871 d8bb 47fd 95bd 8d7a efbc a06e eebd
00000340: 7a09 5abe f842 f8bd 15e6 31be 7a9c eb3c
00000350: 0087 95bd 39c5 11bc 1220 613d 7830 e9bd
00000360: 700e 3bbe 5292 313b eefb e5bc 2105 f5bd
00000370: 0cc1 9b3d 2524 a5bd 7cec c1bd 5d26 863c
00000380: fadd 443d 8ec7 3dba beb2 febd 7fbc bdbd
00000390: 1a24 0cbe bdaa 9dbc 9f1a 24be 9571 4abe
000003a0: 6bba a5bd 709d 38be cb75 623c 4692 91bd
000003b0: 5ac7 e4bd 8316 98bd 6817 523c c4f3 ca3c
000003c0: 556f d0bd 73b1 24be 5994 84bd c382 42bd
000003d0: 4b23 9cbc b7b3 13bc 13c3 f03b 15a2 7cbd
000003e0: 2df3 a4bd 8b51 b6bd cd2e 44bd 2ce5 f63a
000003f0: e194 e83b ef55 87be b492 87bd 01cb 58bd

log_std_linear.bias f4 [12]
-0.31816372 -0.41875657 -0.39078102 -0.32536647 -0.48320782 -0.5112639 -0.34918177 -0.33500874
-0.42620394 -0.3413903 -0.39480534 -0.54499054
00000000: 5be6 a2be 4367 d6be 7314 c8be 6f96 a6be
00000010: 0467 f7be 31e2 02bf f4c7 b2be 4486 abbe
00000020: 6737 dabe b6ca aebe ed23 cabe 8084 0bbf
