policy4.pth (torch, 335680 bytes, 8 tensors)

linear1.weight f4 [256, 43]
000000 3d bc 74 bf 14 a7 0b be af 2a 88 bf 7e 6a 95 be
       -0.9559973 -0.13637954 -1.0638026 -0.2918281
000010 df 69 3b 3e df ac 9a bd 1d 70 ca be 56 c6 3b 3d
       0.18302105 -0.07552504 -0.3953866 0.045843445
000020 17 85 81 be 8f 20 89 be 86 23 a5 be 3e b6 0e be
       -0.25296852 -0.26782653 -0.32253665 -0.13936707
000030 83 3d 5d bf d5 c5 9d be 32 a9 e4 3d 16 9c 3f bf
       -0.86421984 -0.30814996 0.11165084 -0.74847543
000040 0c 89 bd 3f 5c b7 99 bd 31 d6 42 bf c9 07 68 3d
       1.4807448 -0.07505676 -0.7610808 0.05664805
000050 db 9c ce 3c d7 4b 84 3e 09 5b 7d be d2 b6 42 bd
       0.025221279 0.2583911 -0.24741758 -0.047537632
000060 8d c2 3c be ed 78 b0 be 86 1f 36 bd 6f c7 69 bd
       -0.1843359 -0.3446726 -0.044463657 -0.05707496
000070 cc 3b 51 be da 42 60 3e f3 ca 16 3e ac b1 56 3e
       -0.20432967 0.21900502 0.14725856 0.20966214
000080 7e 03 30 3e 3d 69 a4 bc 64 78 bc bb 79 02 9a 3e
       0.17188832 -0.020069713 -0.0057516564 0.3008001
000090 21 c3 e4 be ca 24 2c 3f 64 c5 36 bf b2 78 aa be
       -0.44680122 0.67243636 -0.71394944 -0.33295208
0000a0 3d 9b bd 3f f3 40 24 40 f0 05 b7 be 54 63 bd be
       1.4813 2.5664642 -0.35746717 -0.36989844
0000b0 c2 1b 3f 3e 09 a8 24 3d cc 54 df 3d 4e 71 1c be
       0.18662933 0.040199313 0.109048456 -0.15277597
0000c0 fe fe a6 3e 63 03 59 3e ab 3b 91 3e a6 f5 a9 3e
       0.3261642 0.21192698 0.28365836 0.33195227
0000d0 9f cd c2 3d 49 9b 26 3d 29 e7 a1 3d 35 6c a1 3d
       0.09511875 0.040675435 0.079054184 0.07881967
0000e0 2a fa a3 be 18 e3 0c 3f a6 f8 19 3f 4d 36 19 bf
       -0.32026798 0.5503402 0.6014503 -0.5984848
0000f0 0e b5 54 be 3d 9d e0 be fe 25 1b 3e f8 15 76 bd
       -0.20772192 -0.43869963 0.15151212 -0.060079545
000100 60 02 2a be 11 54 72 3e 0a 48 c3 bd ba 9b 6e be
       -0.16602468 0.23664881 -0.09535225 -0.23301592
000110 60 f7 56 3e 49 c7 5f bd f3 a4 59 3e 38 c4 c8 3d
       0.20992804 -0.054633413 0.2125433 0.09803051
000120 46 91 a5 3e c2 42 a5 3c aa 04 1a bf b1 4e d3 3e
       0.32337397 0.020173434 -0.60163367 0.41270974
000130 5f 6f d0 be 54 8a 52 3d c5 33 4d bd 4b a4 31 be
       -0.4070997 0.05140145 -0.0500982 -0.17347829
000140 66 12 4d 3f 2b c7 d8 3e c3 69 5c 3d 7c d6 db 3e
       0.801062 0.42339453 0.0538118 0.42937076
000150 bb d1 36 3d a4 f3 32 bf 79 d1 97 3e f6 62 d9 3d
       0.04463361 -0.69903016 0.29652002 0.106145784
000160 9f 15 e1 3e 81 3d 86 3e 4d 30 60 be 0f a6 9e 3c
       0.43961808 0.262188 -0.21893425 0.019366292
000170 d7 30 a4 3e be d6 bf 3e eb ae a7 be d8 6d a8 3d
       0.32068512 0.37468523 -0.3275064 0.08224076
000180 c2 64 42 3e 8e ec a1 be cd f2 56 3f 5c 2e ae bd
       0.18983749 -0.3162579 0.83964235 -0.08504936
000190 d5 36 17 be 9c a1 90 3f c1 c8 a9 be 4d df 0a be
       -0.1476701 1.1299319 -0.33160976 -0.13561745
0001a0 a0 26 54 3d 8f 79 5c 3e 99 f8 96 be 1d b0 52 bf
       0.05179465 0.21530746 -0.2948654 -0.8229998
0001b0 50 49 05 3f 65 5a a6 be 17 c1 81 be 3b 8a 8f bc
       0.5206499 -0.3249084 -0.25342628 -0.017521968
0001c0 5f 5c 30 3c ad be d5 3d 82 27 be 3e 67 d0 3f 3e
       0.0107642105 0.10436759 0.37139517 0.18731843
0001d0 f3 27 dd bd 19 bc 1f be d7 98 45 3d b0 c9 81 3d
       -0.10798635 -0.15599097 0.048241463 0.06337297
0001e0 23 78 02 3d 30 41 e2 3d da f9 60 3d af dd 13 bf
       0.031852853 0.1104759 0.054925777 -0.5776014
0001f0 ae 0c 9f 3f 76 23 44 3e 00 5f 19 c0 15 09 69 bf
       1.2425745 0.19154152 -2.3964233 -0.91029483
000200 82 6a 8c 3f 28 bb de be 28 8d 02 be 4a cd cd 3e
       1.0970004 -0.43502164 -0.1274916 0.40195686
000210 fb 02 68 bd 8a de b3 3d e7 2c 70 3e 6a 14 30 be
       -0.056643467 0.0878268 0.23454629 -0.17195287
000220 44 e1 a4 3e 78 32 3b 3e 52 bb 67 bb 6c 1d f0 bd
       0.32203114 0.18280971 -0.0035359454 -0.11724362
000230 fd 0a 07 be 8f c6 be bb bd d5 bf 3e 14 15 33 bd
       -0.13187785 -0.00582201 0.37467757 -0.043721274
000240 d0 7f 85 be 88 56 26 bf 28 59 98 bc 47 8a 1c bf
       -0.26074076 -0.64975786 -0.0185972 -0.61148494
000250 ae 47 ad 3e 9c b6 10 3e 59 79 3e be d1 4b b9 bd
       0.3384375 0.1413216 -0.18600978 -0.09047664
000260 a3 f9 39 3c ee 76 1e 3e 1a a8 90 be 9b 45 1a 3d
       0.011351022 0.15475056 -0.2825325 0.037664037
000270 10 fc 96 be cd 5a 54 be bb 1f 0a be 18 6e 7d 3e
       -0.29489183 -0.20737763 -0.13488667 0.24749029
000280 cd 9e 5d 3b b2 0b 6f 3e 24 e6 91 3e a6 99 99 be
       0.0033816576 0.23344305 0.28495896 -0.30000037
000290 3e 00 39 be 5c 66 26 3f a1 bc ab 3c 2c ae ca be
       -0.18066499 0.6499994 0.020963969 -0.39586008
0002a0 de e9 2c 3e 62 b9 e2 3f 14 48 fa be 2b f1 0c bf
       0.16886088 1.7712824 -0.48883116 -0.55055493
0002b0 fe b4 c9 be c2 a1 a0 3e 25 a7 1c be 30 bd 55 3e
       -0.393959 0.3137341 -0.15298136 0.2087295
0002c0 f3 d4 3e 3d 4f 6a 7b bc 90 ad 2d 3d 46 68 ad 3d
       0.046589803 -0.01534517 0.04240185 0.08467154
0002d0 80 13 bd bd 5c fd 95 3e 17 97 77 bc 80 1e a2 3d
       -0.09232235 0.2929486 -0.015111706 0.07915974
0002e0 d3 22 67 be e3 11 1e 3e a9 8f c5 be 6a d1 4a c0
       -0.22571878 0.1543651 -0.38586167 -3.1690316
0002f0 19 d8 29 c0 0f 93 6d bb f7 2f be bf 44 17 11 3d
       -2.6538146 -0.0036250984 -1.4858388 0.03542258
000300 00 26 98 3d 40 37 a0 3d 0c 1e e8 bd a4 23 a3 3d
       0.07429123 0.07823038 -0.11333856 0.07965782
000310 0f ac 88 3e fa 6c 76 bd 02 94 6d be 25 6d 91 3d
       0.2669377 -0.060162522 -0.23200992 0.07100896
000320 2a 69 ad 3d cb 5d e8 3d 98 10 b5 bd f3 c9 ba 3e
       0.08467324 0.113460146 -0.08841056 0.364822
000330 bb e1 28 be 7c a6 e8 3e c2 22 4b bd f5 f8 3f be
       -0.1649236 0.45439517 -0.049593695 -0.18747313
000340 57 c8 74 be a7 7d 0c bf c1 a2 06 3e fd fc eb 3e
       -0.23904549 -0.5487923 0.13148023 0.46091452
000350 25 cb d0 3f 49 4e ca bf 08 18 31 bf 84 f3 a9 3e
       1.6311995 -1.5805141 -0.69177294 0.331936
000360 41 64 8b be ba e2 82 3e 8d 69 9a bd 96 d8 06 3a
       -0.27224925 0.25563604 -0.075396635 0.0005143968
000370 8d 77 a5 be 7f 28 e3 3c 9e a1 e8 3d 37 66 4d be
       -0.32317773 0.027729271 0.11358951 -0.20058523
000380 49 42 dc bc 61 4b 16 be 55 5f 01 bf 04 1d 48 3e
       -0.026887076 -0.14677192 -0.5053609 0.19542319
000390 4a f5 35 3f 8c 45 bb 3e d0 12 60 3e 47 a7 e0 3f
       0.71077406 0.36576498 0.21882176 1.7551049
0003a0 34 b1 78 3e d9 7f 89 3f d5 5a 42 bf c2 dd 82 3e
       0.24286348 1.0742141 -0.7591985 0.25559813
0003b0 24 24 a0 be 3a 6f c8 3e e5 c5 60 3e 77 ad 8c 3e
       -0.31277573 0.3914736 0.21950491 0.27476093
0003c0 76 e2 e4 bd 82 07 27 3e 38 df 89 3c 9c 0e d8 bd
       -0.111760065 0.16311458 0.016830072 -0.105496615
0003d0 a4 d2 be 3e 2b 79 19 be 39 1c ae be 30 f5 97 3e
       0.3727008 -0.14987628 -0.34005907 0.2967925
0003e0 75 44 8c be df 3b 3c 3e 34 90 bf bc 61 ce 3e bf
       -0.2739598 0.18382214 -0.023384191 -0.7453366
0003f0 9b 92 64 bf 1d 90 fe bf 61 87 03 bf e1 1d 65 bf
       -0.892862 -1.988773 -0.51378447 -0.89498717

linear1.bias f4 [256]
000000 a6 01 48 be c4 13 2f 3e 15 ce 64 3e 57 df fb bc
       -0.19531879 0.17097384 0.22344239 -0.030746145
000010 f2 c6 77 3e 34 7a 92 3c 72 d0 27 3e 65 42 ba 3d
       0.24196985 0.017880537 0.1638811 0.09094695
000020 c8 c5 60 be 70 d5 a2 be 7f 2d 43 bc 21 35 61 3e
       -0.21950448 -0.31803465 -0.011912703 0.21992923
000030 9a 5f 30 be 64 07 0f be f0 4e 6d 3c 55 9e 87 be
       -0.17223969 -0.13967663 0.014484152 -0.26487985
000040 39 28 39 3c f6 b0 d8 3e 96 80 e3 3d f2 1f 6a bd
       0.011301094 0.4232251 0.1110851 -0.05715937
000050 65 65 8f 3e 25 e1 b9 3d 31 86 de 3d f6 5d 00 3c
       0.28007045 0.09076146 0.10865439 0.007834902
000060 2f d6 db 3c be 41 88 bd ef 4a 92 3c 41 00 44 3c
       0.02683553 -0.06653164 0.017857997 0.011962951
000070 0e d0 30 be 31 a5 36 be 4f f7 99 3d b2 2c 07 3e
       -0.17266867 -0.17836453 0.075178735 0.13200644
000080 a6 f2 fe 3c 49 4d 3b 3d 23 17 90 3d 6d 17 f9 3c
       0.031121563 0.045728 0.07035663 0.030406678
000090 40 06 8e 3d cc 74 b0 3d 01 fe 53 3e 05 3a 1c bd
       0.06934786 0.08616027 0.20702364 -0.03814127
0000a0 da 82 74 bd 76 8c e4 3c 28 90 20 bd 42 1f 96 be
       -0.059695102 0.027899008 -0.039199978 -0.29320723
0000b0 19 b0 9d be e1 34 3b 3d cb 9f 84 be 35 e8 99 3c
       -0.30798414 0.045704726 -0.25903162 0.018787483
0000c0 28 14 44 be 7d d3 d3 bd 43 de c0 bd 04 08 39 be
       -0.19148314 -0.103430726 -0.09417393 -0.18069464
0000d0 5a 37 75 be 61 d1 8f be 5d 6e 5f bd 0c c7 30 be
       -0.23946896 -0.2808943 -0.05454861 -0.1726343
0000e0 a5 b1 c5 bd 7a 25 e4 bd c4 16 6f 3d 91 9b ee 3c
       -0.09653024 -0.111399606 0.05837132 0.029126914
0000f0 f6 28 e6 3c b1 c1 41 be 64 ce 41 be c9 0a 94 bd
       0.028095704 -0.18921544 -0.18926388 -0.072286196
000100 49 c1 e7 bd 86 d0 0a be 22 2c d4 bd 84 0c 36 3e
       -0.11316163 -0.13556108 -0.1035998 0.17778212
000110 2c 0a 11 be a0 e0 13 3e b7 8e af bc bb 67 4a be
       -0.14164037 0.14441156 -0.021430356 -0.19766133
000120 48 c1 53 3e 9f 6c 18 bc 00 13 b4 bd cc 5a 21 be
       0.206792 -0.009303241 -0.087926865 -0.15757293
000130 26 6e 18 be 13 62 c8 bd 63 0b 6b 3e 73 ea e2 bc
       -0.14885768 -0.09784331 0.22953562 -0.027699685
000140 46 a6 92 3d d5 71 5c be bf 57 68 bd 8f 08 01 3e
       0.071606204 -0.21527798 -0.056724306 0.12600921
000150 a6 d8 c1 bd 1c 04 0a be ff 57 21 be 5d 29 03 bd
       -0.094651505 -0.1347813 -0.15756224 -0.03202187
000160 d3 99 2c bd cd 3e 2c 3e 85 de 8c 3e ef 4e 16 3e
       -0.042138886 0.16820832 0.2751352 0.14678548
000170 81 39 33 be c2 51 7a 3c 8b c1 ea 3d 37 fd 9c be
       -0.17502405 0.015278282 0.11462697 -0.30661938
000180 cc f2 84 be 14 32 aa 3c 13 de cf 3c 25 70 e8 3c
       -0.2596649 0.020775832 0.025374448 0.028373787
000190 a6 fd 29 3e 7c be 3b bd 77 95 35 bd 93 61 9c 3c
       0.16600665 -0.045835957 -0.044331994 0.019089496
0001a0 11 92 86 3c 1c ea 38 3e aa 23 15 3d d1 f1 65 bd
       0.016427072 0.18058056 0.036410965 -0.056138817
0001b0 b3 28 e9 3d 73 d5 f8 3d 18 2b 1a 3d ed 23 9e 3e
       0.11384716 0.12150087 0.037638754 0.30886784
0001c0 f0 bc 9d 3d cc 2e ba be 04 18 fb bd 31 f3 a1 be
       0.077020526 -0.36363828 -0.1226044 -0.31630853
0001d0 bb 34 15 be 47 88 64 3d bf 45 2a 3e 43 13 d2 bc
       -0.14570896 0.055794027 0.16628169 -0.02564395
0001e0 a8 09 1b 3e 2e 9a 74 bc d5 89 72 3c 13 c4 33 be
       0.15140402 -0.014929337 0.0148033695 -0.17555265
0001f0 80 b7 3c 3c f1 5a 1e be f4 82 62 bd 95 7d 32 bd
       0.011518359 -0.15464379 -0.055300668 -0.043576796
000200 dd 2b 2e 3e 35 43 1a 3e 74 f7 fe 3d d0 c0 c3 bd
       0.1700892 0.150647 0.12449542 -0.095582604
000210 ab 4b f9 3b 4a e1 01 be 05 a4 38 3d 04 ac 5e bd
       0.0076078973 -0.12683597 0.045078296 -0.054363266
000220 42 91 cc bc c2 5e a7 bd 2f bc 15 3c d2 20 3d 3e
       -0.024971608 -0.081723705 0.009139105 0.18469551
000230 df 76 92 3e 16 e4 27 be f9 5e e1 bd 68 8a 86 bd
       0.28606316 -0.16395602 -0.11004443 -0.06569368
000240 93 b8 d0 bd 51 ee c0 bb 2e 7d 5f be 93 db e9 bd
       -0.10191455 -0.0058877845 -0.21825096 -0.114188336
000250 fc 73 dd bd 05 f8 f2 3d ba 3e 31 3e 5f e0 40 3e
       -0.10813138 0.11863712 0.17309085 0.18835591
000260 ee e5 1b be 0f 08 08 be ab 23 89 be bf 2a 35 be
       -0.1522443 -0.13284324 -0.26785025 -0.17692088
000270 34 e4 90 3d ec fc fd bd 7c 01 3b 3d 50 85 3c be
       0.07074776 -0.12401757 0.045655712 -0.1841023
000280 a9 5b 46 be 3f 08 f1 3d f9 2e 2c be 91 dd 04 be
       -0.19370903 0.11769151 -0.16814794 -0.12975146
000290 95 06 82 3d 56 f6 70 3e 78 60 5d be 51 83 19 be
       0.06348912 0.2353147 -0.21618831 -0.149915
0002a0 2a bd 19 3d fc 8c 22 3e 78 82 f2 bd da 44 90 bd
       0.037533917 0.15874094 -0.11841291 -0.070443824
0002b0 28 3b 15 3e 21 18 8b bd a0 2c 74 3e 10 a0 6d bd
       0.14573348 -0.067917116 0.23845148 -0.058013976
0002c0 76 89 b6 3d 83 03 41 3e 8e 22 41 3c 60 19 15 3e
       0.08912937 0.18848996 0.011788024 0.14560461
0002d0 ac 20 10 3d cf 7a 88 3d 80 d9 09 3e 43 73 88 be
       0.03518741 0.06664049 0.13461876 -0.26650438
0002e0 0d 3d dc bc 93 69 4f be 88 7b 67 3d d9 8e 94 3d
       -0.02688458 -0.20255117 0.056514293 0.072538085
0002f0 82 cc b5 bd d2 ea 9a bd ed a2 9f bd 76 da d0 3b
       -0.088768974 -0.0756432 -0.077947475 0.006373699
000300 36 ba 9e bd 4d 38 86 3d 36 79 5d bd 72 37 51 3d
       -0.07750361 0.06553707 -0.054070674 0.051078267
000310 9b b0 2f 3d 80 1a 2b 3e ed 6b 97 3c cc ac ca 3d
       0.042893033 0.16709328 0.01848408 0.0989624
000320 f0 dc b4 3c dd 98 aa 3b 81 e1 38 3b 09 9c 90 3c
       0.022078007 0.005206211 0.0028210583 0.017652528
000330 da 00 8e be 8c 9c 6d bd 9b 94 3e bd 8d 5a 4e 3e
       -0.27735025 -0.058010623 -0.04652844 0.2015173
000340 14 7e 19 3e c7 b6 a8 bd 8d aa a1 be 69 df 53 be
       0.14989501 -0.08237987 -0.31575432 -0.20690693
000350 13 19 de bd 83 8c 01 3c cb 0d af bd bf 90 49 bd
       -0.10844626 0.007907036 -0.08547553 -0.049210306
000360 e6 b0 17 3e d2 05 fe 3d a5 71 96 bd 3b 71 16 be
       0.14813575 0.12403454 -0.07345895 -0.14691631
000370 4f dd 41 3d c3 f9 5b bd 87 61 a1 bd b6 56 86 bd
       0.047330197 -0.05370499 -0.0787993 -0.065595075
000380 b1 f1 a5 3d 90 0b 8b 3d f6 0b 67 3e b9 26 a6 3d
       0.081027396 0.06789315 0.22563156 0.081128545
000390 13 9d 7e bd a6 fb f5 3d 30 41 f9 bb 87 98 83 be
       -0.062161516 0.12010889 -0.007606648 -0.25702307
0003a0 7c 78 52 3d be b6 cb bd a9 fb bc 3d 1e fd 3d 3d
       0.051384434 -0.09946965 0.09227688 0.04638397
0003b0 05 2f a8 bd 05 d7 4d 3c 8e ac 99 bd 22 13 c4 3b
       -0.08212093 0.012563472 -0.07503615 0.005983726
0003c0 c9 47 b2 3d ce a3 e0 3d 91 dd 1f 3e ad 16 90 bd
       0.08705098 0.10968743 0.15611865 -0.07035575
0003d0 46 2d 11 3e aa e7 96 bd ca ca 80 be e5 f2 e4 3c
       0.14177427 -0.07368405 -0.25154716 0.027947852
0003e0 d5 d9 1f 3e 79 2a 35 3d 2b 24 09 3b aa df bf bc
       0.1561044 0.04422996 0.0020926099 -0.023422081
0003f0 31 c2 d4 3d 77 ba 7d 3d 13 09 d5 bd d8 74 0b 3e
       0.103886016 0.061945405 -0.104021214 0.13618791

linear2.weight f4 [256, 256]
000000 10 f3 28 3e 85 c7 5a be db 6f 9a be be 5b f6 be
       0.16498971 -0.21365173 -0.30163464 -0.4811687
000010 e9 f6 56 3c e4 ec ac be 84 8c e4 3e 16 b7 21 bf
       0.013120391 -0.33774483 0.44638455 -0.6316999
000020 e5 28 cd bd 04 3a 3a 3d ed 78 5b bf a2 5a 75 3d
       -0.10017566 0.045465484 -0.85731393 0.059900887
000030 88 86 b0 be 6d 00 f5 3b b2 10 07 3e c9 b9 18 3d
       -0.3447764 0.0074768574 0.13189963 0.037286554
000040 36 28 8d 3e 78 54 5e be 3a 1b b7 3e 99 57 1a be
       0.2756974 -0.2171191 0.3576296 -0.15072478
000050 ca a5 25 3d a9 be 90 be 0f 66 3e be 8b 4a 98 3e
       0.040441312 -0.28270462 -0.1859362 0.29744372
000060 f4 9c 9e 3e 49 02 28 be b7 31 53 be 71 d8 05 3e
       0.3097912 -0.16407122 -0.20624433 0.13070847
000070 bf c1 c2 be 9d 65 bf bd 0e ed c9 bd 31 74 a9 bd
       -0.38038442 -0.09345553 -0.09859668 -0.08274115
000080 82 b7 e7 be e7 1e b5 be f6 4a 83 3e 24 6b 05 bf
       -0.45257193 -0.3537514 0.25643128 -0.5211661
000090 25 83 8a bd 63 5f e1 bd 9d 03 75 be b1 fc f9 3d
       -0.06763295 -0.11004522 -0.2392716 0.122064
0000a0 43 7c 64 3e 82 17 7c be 36 46 63 3e 49 62 c3 be
       0.22313027 -0.24618343 0.22194752 -0.38160923
0000b0 c3 25 07 be 05 9a 84 be 2d 35 bc 3e e9 61 1b bd
       -0.13197999 -0.25898758 0.3675932 -0.03793517
0000c0 35 c4 92 bd 85 5d e2 3e a4 96 54 be ba 60 9c 3d
       -0.0716633 0.44211975 -0.2076059 0.07635637
0000d0 20 fa d9 be e1 f8 17 be 49 e5 81 3e 65 10 cf 3e
       -0.42573643 -0.14841034 0.25370243 0.40442196
0000e0 5b ca 14 bf 57 8e a4 3e 0a aa a2 3d 62 8b ba bd
       -0.5812127 0.32139847 0.079425886 -0.091086164
0000f0 87 12 a2 be 27 fb 99 3e 3b c8 9c be 9b cd 98 bc
       -0.3165476 0.30074427 -0.30621514 -0.018652728
000100 39 72 69 3d b2 d6 79 be 15 58 9c 3c de 40 7f 3e
       0.056993697 -0.24398306 0.01908497 0.24927089
000110 55 55 bf bc 8f 03 c7 bd 7e 63 84 bd cb a8 83 be
       -0.02335612 -0.097174756 -0.06464289 -0.25714716
000120 66 b3 99 3d 97 40 4f be 35 70 63 3e 77 88 7d bf
       0.07504921 -0.20239483 0.22210772 -0.99036354
000130 03 6d cb 3e a5 56 79 3e b7 ec 50 3d 68 08 b0 3d
       0.39731607 0.24349459 0.051007 0.08595353
000140 af 74 46 3d c1 89 33 bd 98 d7 43 bd 34 12 67 3e
       0.048451122 -0.043832544 -0.047813028 0.22565538
000150 71 c5 8c be 7c 24 67 3e fc b8 17 be 55 ae 13 3e
       -0.27494386 0.22572511 -0.1481666 0.14421971
000160 52 3f d7 be 14 0c 97 be c3 fd 50 3e 28 74 54 3f
       -0.42040497 -0.29501402 0.20409302 0.8298974
000170 da 40 30 bf 37 36 c0 3c 0c 47 03 be 2f 8f 10 bf
       -0.68848956 0.023463352 -0.12820071 -0.5646848
000180 0d 8f 24 be 53 92 ed 3e 81 26 66 bd 9f 7c 5a be
       -0.16070195 0.464007 -0.056189064 -0.21336602
000190 c3 24 06 bf 0a ec c9 3e 92 65 9a bd 32 ac c0 be
       -0.52399844 0.39437896 -0.07538904 -0.37631375
0001a0 7c 14 2f bf d3 0b 1b 3f 4d ce 90 bd 2b d8 82 3e
       -0.6839063 0.6056492 -0.07070599 0.25555548
0001b0 9d 37 6e 3d 05 f1 49 3d 60 c8 7f bd d7 53 cb be
       0.058158506 0.04930212 -0.062446952 -0.39712402
0001c0 9f c3 3e be 54 b3 1f 3e 9a 98 c5 3c 92 29 19 be
       -0.18629311 0.15595752 0.024120618 -0.14957264
0001d0 c1 14 a0 be b0 7d f5 be d0 53 ab 3e 28 51 a0 3d
       -0.31265834 -0.47947454 0.3346238 0.07827979
0001e0 52 e7 84 3c d8 bd eb 3e 52 02 71 be fc f6 90 be
       0.016223583 0.46043277 -0.23536041 -0.28313434
0001f0 92 61 d6 3c 21 44 8a be 3a 74 dd bd 65 9d 83 3d
       0.026169572 -0.27005103 -0.10813184 0.06426505
000200 d1 e1 84 bd 7b d9 72 3e 9b 50 4a 3e 81 d4 23 3d
       -0.064883836 0.23715775 0.19757311 0.03999758
000210 93 02 60 3e 75 1a 01 3e 99 75 2a be 43 9c 9a 3e
       0.21875982 0.12607749 -0.16646422 0.30197343
000220 67 63 0f 3a 2c ec ff bd 01 f7 b1 3e 0d 82 3b 3e
       0.0005469829 -0.12496218 0.34758762 0.18311329
000230 c2 c5 9b 3e 5c 73 f2 bd 7f 24 8a be 2f 5f 3e bf
       0.30424315 -0.11838409 -0.2698097 -0.7436399
000240 18 c8 93 be 03 88 4d 3d 1f d9 2a bf c6 f1 d6 be
       -0.28863597 0.05017854 -0.6673755 -0.41981333
000250 04 74 78 3e b8 47 e4 bd c5 25 c9 3e ff 0b 35 3e
       0.24263006 -0.11146492 0.39286628 0.17680357
000260 15 c0 5a be 0f cb e4 be f4 8f e1 bc eb cf b8 3d
       -0.21362336 -0.4468617 -0.027534463 0.09024032
000270 d8 fe 64 be c8 d7 f4 be 10 1b 86 3e 4a 90 8f be
       -0.2236284 -0.47820878 0.26192522 -0.2803977
000280 d7 c3 9d be 0c 84 01 be 99 08 ad 3e de f1 0d bf
       -0.30813476 -0.12648028 0.33795622 -0.55447185
000290 af ee 5a 3e d9 2b d9 be a0 da 55 bf ea 5e 19 3f
       0.21380113 -0.42416266 -0.8353672 0.5991045
0002a0 74 99 55 3e 54 14 48 3e d9 b5 6d 3e 35 7d a8 3e
       0.20859319 0.19539005 0.232139 0.32908025
0002b0 71 31 49 3d 32 e4 b6 3e 8b 47 9f 3e 6a 01 a7 be
       0.049119417 0.35720974 0.3110927 -0.32618266
0002c0 46 bf 7f bd e3 5a ce be e9 0a a1 bd f0 9d 28 be
       -0.062438272 -0.40303716 -0.07863409 -0.16466498
0002d0 3b 4f d9 be 1f 8d 56 bf e5 42 f5 3d 14 57 59 3d
       -0.4244326 -0.83809084 0.1197565 0.05306156
0002e0 80 5d cc 3d 0d a5 ba be 9e f2 78 bd ef a0 ae bb
       0.09978771 -0.3645405 -0.060778253 -0.0053292434
0002f0 62 bd da bd 0b 03 1c bf c4 6b 77 3e 41 54 21 3d
       -0.10680653 -0.60942143 0.24162203 0.03938699
000300 97 24 3f 3f 2d 45 fb bd c2 e0 6e 3c a7 bd cc bd
       0.74665207 -0.122690536 0.014579954 -0.09997111
000310 b5 a8 14 3e 8f b7 e8 be fc 8a 05 bd 1c d5 92 be
       0.14517482 -0.45452544 -0.03260325 -0.28678215
000320 0e 5a 98 3e f8 9b 73 3d 2a 71 0b bf e3 58 96 bc
       0.29756206 0.059474915 -0.5446955 -0.018352931
000330 ab c3 2e 3e aa 28 be 3d 1a 57 ba be d8 ae 99 3d
       0.17066829 0.092851 -0.36394578 0.07504052
000340 46 46 36 be f8 a0 bb 3e a0 25 63 be 0d 30 f5 3d
       -0.17800245 0.36646247 -0.22182322 0.119720556
000350 62 cc 98 be 0e b5 db be 37 b0 1c bd 7b af e2 bd
       -0.29843432 -0.4291157 -0.03825399 -0.110686265
000360 63 40 9e 3d 88 38 0d be e9 90 c6 3d 05 4e 55 be
       0.077271245 -0.13791096 0.09695608 -0.20830543
000370 09 9b f6 be 89 fe 5c be 8c 3c a2 3e 5f bf f8 bc
       -0.48165157 -0.21581472 0.3168682 -0.03036469
000380 e4 a2 d9 be f9 e3 db 3c d9 b2 d2 3d dc dd 66 be
       -0.42507088 0.026842104 0.10288019 -0.2254557
000390 cc 39 5e 3e 6f c6 5b 3d 20 17 ce be 99 ab 6d 3e
       0.21701735 0.053656038 -0.40252018 0.2320999
0003a0 fd 44 75 3e 32 97 f5 3b ba 90 f0 be b3 c5 21 3e
       0.23952098 0.0074948305 -0.46985418 0.15798073
0003b0 c9 de 67 bd 25 cf d4 3d 9b f7 d0 3e d1 d4 84 be
       -0.05660895 0.10391072 0.40813908 -0.25943616
0003c0 08 11 8c 3e 95 2f 41 3e 86 2c 1e be d9 47 ab 3e
       0.27356744 0.18865807 -0.15446672 0.33453253
0003d0 b8 d1 ed 3e 7c e5 a0 3d 41 23 a5 3e e7 64 08 bf
       0.46449065 0.07856271 0.3225346 -0.53278965
0003e0 08 a1 d8 be c7 6e 0a bf d2 d7 0a 3e 1a 38 8a 3e
       -0.42310357 -0.5407528 0.13558891 0.26995927
0003f0 69 c2 f0 bd 06 00 a6 be 5f 8d 87 be 39 df 57 3d
       -0.11755831 -0.32421893 -0.26475045 0.052703116

linear2.bias f4 [256]
000000 71 85 17 be d5 92 8d 3d e5 2f ee 3e 0f b6 e4 3e
       -0.14796998 0.069127716 0.46520916 0.4467015
000010 b9 c1 7d bd 1f 31 10 be 33 4f a0 3e c5 33 f3 bd
       -0.061952326 -0.14081238 0.31310424 -0.11875109
000020 b7 77 25 3f 31 ed 9a be df c6 c2 be 76 7d d3 be
       0.64635795 -0.30259088 -0.38042352 -0.41306657
000030 9c 16 c3 bc 99 56 b4 bd 62 02 b3 3d 2e 82 0b be
       -0.023814492 -0.0880558 0.08740689 -0.13623878
000040 23 6a 6e bd fc db 86 bf d5 3c 33 3e 22 a0 04 3e
       -0.05820669 -1.0535884 0.17503674 0.12951711
000050 8c d2 99 bd ce eb b7 3e 63 e7 3c 3e 34 04 52 bf
       -0.07510862 0.35922092 0.18447642 -0.82037663
000060 ce 96 16 3d ca ea 93 3e d1 c7 53 bf 45 e1 43 bd
       0.036764912 0.28890067 -0.8272677 -0.047822256
000070 aa a7 a7 be 62 cd 4d 3e 10 5a f7 be 67 cd 5d bd
       -0.32745105 0.20097879 -0.483109 -0.054150965
000080 16 e7 7d 3e fb c7 2e bf b8 c7 26 3e b2 b3 3f bf
       0.24795184 -0.68273896 0.16287124 -0.7488357
000090 55 f5 46 3e 1a 66 26 3f 67 1a ce 3e a9 9c 19 3e
       0.19429524 0.64999545 0.40254518 0.15001167
0000a0 96 48 81 3e 11 e9 5e 3e 6a f6 8b be b4 62 ff be
       0.2525069 0.21768595 -0.27336437 -0.49879992
0000b0 da df 3c bc ec 8d 9d 3d 99 c2 d2 3e 47 c6 f1 3e
       -0.01152798 0.07693085 0.4116409 0.47221586
0000c0 bf 47 a4 bc aa f5 9f be f2 7e 10 3f c2 af cc 3e
       -0.020053742 -0.31242114 0.56443703 0.39977843
0000d0 57 99 01 3f bd 3f 2e 3e c7 c9 3d 3e 2e dc 93 bd
       0.50624603 0.17016502 0.18534003 -0.0721973
0000e0 ab f0 ab bd b7 ba 13 3b 4f ef 25 bf 42 c4 1b 3e
       -0.08395513 0.002254171 -0.6481828 0.15211585
0000f0 f1 76 74 3e 74 1c d1 3e df 61 c6 3d e6 be a1 3f
       0.23873498 0.4084202 0.09686636 1.2636383
000100 bb 98 0a 3f 8c c7 90 be 11 1a 95 3e c0 42 95 3e
       0.541393 -0.28277242 0.2912145 0.2915249
000110 2b b7 bc bc ca 66 ef 3e 44 cf b1 bd b6 37 29 3c
       -0.02303656 0.4675811 -0.08682111 0.010328224
000120 91 ed a2 3e 8f 41 e7 3e 82 e8 33 3e 2b b6 6a bf
       0.31821874 0.45167205 0.17569163 -0.91684216
000130 8b 34 58 3d ca 56 c4 3e c9 64 eb 3c 59 e6 03 3e
       0.052784484 0.38347465 0.028734582 0.1288084
000140 29 01 2f 3f 65 46 82 3e c6 16 0a 3d 80 b5 62 3c
       0.68361145 0.25444332 0.033713125 0.013837218
000150 f4 69 1c 3f c3 6d 6f bd 79 f4 db 3e 7e 49 09 3f
       0.6109917 -0.058454286 0.42959955 0.53627765
000160 4a c6 d7 3e 4f 27 93 3e c6 39 8a bd 0b c6 16 3b
       0.4214347 0.28740928 -0.06749301 0.0023006226
000170 11 44 b5 3e 00 c6 84 be f9 a3 16 bd f5 4f d3 3e
       0.35403493 -0.25932312 -0.03677747 0.4127194
000180 c4 8d bc 3e 7b 3d 38 bf 35 58 68 3e bc 53 6e 3e
       0.3682691 -0.7196881 0.22689898 0.2327413
000190 e2 c6 4c 3b b8 cd a0 3e cf a4 2d bf 5a c6 cd 3e
       0.0031246473 0.3140695 -0.678296 0.40190393
0001a0 8f e0 ab 3d 84 74 46 be cc 26 1d 3f ec e9 87 3e
       0.083924405 -0.19380385 0.61387324 0.26545656
0001b0 d7 4c 1a be 0a 90 cd 3d 23 96 1a bf 4a 2d 8e be
       -0.15068375 0.10037239 -0.6038534 -0.27768928
0001c0 5a d4 97 3e 38 0a 79 3c 9c 63 13 3f 4e 48 04 3e
       0.296542 0.01520019 0.57573867 0.12918207
0001d0 73 fc 98 3e 4a bf b4 be 41 e4 74 3e 99 54 21 be
       0.29880103 -0.35302192 0.23915197 -0.15754928
0001e0 7b 3b dc bb 73 f4 81 3e 98 22 08 3e 62 0b e2 3d
       -0.006720958 0.25381812 0.13294446 0.11037327
0001f0 55 32 97 3e a6 4d 0a 3e 77 bf 73 3d c3 c3 69 3e
       0.29530588 0.13506183 0.059508767 0.22828583
000200 6c 10 9e bd 48 74 f2 be 9f f5 b4 be b1 17 2a 3e
       -0.07717976 -0.4735434 -0.35343644 0.166106
000210 21 a2 11 3f 46 6f f5 be 0d 4b 0e bf b7 b9 91 3e
       0.56888014 -0.47936457 -0.5558327 0.28462002
000220 84 6e 06 3f 16 5a 29 3f 49 fe c5 3d a8 5e ff 3e
       0.52512383 0.66153085 0.09667642 0.49876904
000230 25 84 a5 3e ed d8 20 3f ed e5 ca be 3a 61 f7 bd
       0.3232738 0.62831 -0.39628544 -0.12079091
000240 a1 96 de 3e 75 8d 5f be e9 b3 b1 bb 8d 47 77 3e
       0.43474296 -0.21831305 -0.0054230583 0.24148388
000250 13 71 21 bf 1f 01 89 be d9 3a ca bd 67 8f 57 bf
       -0.6306316 -0.26758668 -0.098745055 -0.8420319
000260 71 c4 17 3f 6c 55 1d be e4 79 bf bc 06 00 ed bd
       0.5928412 -0.15364617 -0.023373552 -0.1157227
000270 b5 41 1a 3f 64 9b 82 3e 3f 38 ad be 07 b4 c1 be
       0.6025651 0.2550918 -0.33831975 -0.37832662
000280 a9 ab ce 3e 86 b0 61 3e f3 b8 05 3f 93 cd 88 be
       0.4036534 0.22039995 0.52235335 -0.2671934
000290 2d 0e dc be c9 6c 88 be 82 a8 22 3d 35 10 a3 be
       -0.42979565 -0.26645496 0.039711483 -0.31848302
0002a0 1d b8 f0 bd ea 43 d0 3c bb b4 9b be c7 15 ad be
       -0.11753867 0.025423009 -0.30411324 -0.33805677
0002b0 3f 25 58 3e 7c e7 73 3e 34 81 d2 3e a8 8d b0 3e
       0.21107958 0.23818773 0.411142 0.34483075
0002c0 24 3f 8a bd 7a d1 06 3e 90 d7 4c 3e 36 db b5 bd
       -0.06750324 0.13165846 0.20004106 -0.08879702
0002d0 d9 2b d7 bd e5 b8 32 3e ae ee 19 be 5e d6 fa be
       -0.1050641 0.17453344 -0.15032455 -0.48991674
0002e0 da 30 ac 3e ee c7 1d 3d dc 1c 66 3e 99 51 ef 3e
       0.3363102 0.038520746 0.22471946 0.46741942
0002f0 91 69 f1 3d 14 ca 6b 3e 07 55 cb 3e 1f 92 56 3e
       0.11787713 0.23026305 0.39713308 0.20954178
000300 30 cd 0b 3f 64 04 50 3e e1 49 cf 3e f7 aa 0b 3f
       0.54609966 0.20314175 0.40486053 0.54557747
000310 7b 74 9e bc 08 49 91 3e 23 7b 04 be b1 ea 93 3e
       -0.019342652 0.2837603 -0.12937598 0.28889993
000320 0d b0 b6 3e c7 d2 96 bd 37 33 9a 3e 61 13 20 3e
       0.3568119 -0.07364421 0.301172 0.15632392
000330 99 86 c7 bd 06 8b a1 bd 09 ab 1a bd bf 8a 01 bf
       -0.09742469 -0.07887845 -0.037760768 -0.50602335
000340 86 2d ed be f7 70 b7 3e 81 2c f6 be 72 38 0c 3e
       -0.46323794 0.35828373 -0.4808083 0.13693407
000350 7a 3c de 3e 21 21 55 be bb c1 15 3f 66 a6 08 bf
       0.43405515 -0.20813419 0.58498734 -0.53378904
000360 6c b3 8d 3e bf 27 1c bd ba f0 9a 3b f7 97 24 3f
       0.2767595 -0.038123842 0.004728404 0.6429438
000370 a6 52 8f 3e 0b 2f 08 3e db f4 ed 3d 91 d6 84 3e
       0.27992743 0.13299195 0.11618968 0.2594495
000380 e8 2b ae 3e 69 a6 b0 3e c1 82 1e bf 1f c4 7c 3f
       0.34017873 0.3450196 -0.61918265 0.9873676
000390 47 d1 a8 3b 63 65 7f 3e 77 51 e4 3e 6d 81 a4 3b
       0.005151901 0.2494102 0.44593403 0.0050203116
0003a0 2b be 1a 3f a2 65 a3 3d c2 cb 71 3e f5 f8 7a 3e
       0.60446423 0.07978369 0.23612884 0.24509032
0003b0 c6 2c 9b 3e 5e 59 e6 3e b7 21 48 be 5a c2 ee 3d
       0.30307597 0.44990057 -0.19544111 0.11658163
0003c0 9e 81 da 3e e6 a0 ad 3e d0 ee 1d be 0d 02 42 be
       0.42677015 0.33911818 -0.15423131 -0.18946095
0003d0 f2 01 d2 3e 55 e3 04 bf b1 22 c1 be dd e6 12 bf
       0.4101711 -0.5190938 -0.3772178 -0.5738352
0003e0 41 89 85 be 78 cd 9a be f0 fd 32 bd c1 f4 ab bd
       -0.2608128 -0.30234885 -0.043699205 -0.083962925
0003f0 f6 b8 81 3c 8e 92 4a bf 0d 73 b3 be b5 a6 f5 be
       0.015835267 -0.79129875 -0.35048714 -0.4797875

mean_linear.weight f4 [12, 256]
000000 cc 33 95 3e ca 50 32 3e 4e de a3 3e a2 06 a8 3e
       0.2914108 0.17413631 0.32005543 0.3281756
000010 67 ff 53 3e 2a b5 74 3d 59 2d e2 3c 96 78 02 bd
       0.20702897 0.059743084 0.027609514 -0.03185328
000020 67 f3 55 3d de 23 16 bf dd 3a 8e be eb 06 cd 3d
       0.05223408 -0.5864848 -0.27779284 0.10011085
000030 11 c1 a1 be ad 3c 75 3c fe 27 88 be 3b 69 f9 be
       -0.3159261 0.0149680795 -0.26593012 -0.48713097
000040 20 3a 97 3d d4 11 ac bc ba e4 61 bc 8f 33 13 be
       0.07384133 -0.021004595 -0.013787443 -0.14375137
000050 18 78 08 3d 86 02 e5 3d 80 8e 30 be c4 2d 8b be
       0.033317655 0.11182122 -0.1724186 -0.27183354
000060 f6 34 53 3e 03 3b 2c 3e 0b 69 f2 be 29 3e 12 3e
       0.20625672 0.16819386 -0.47345766 0.14281525
000070 5a 5b b3 be b7 63 e9 3a 14 df 52 bf 24 f2 13 bb
       -0.35030633 0.0017806207 -0.8237164 -0.0022574747
000080 cc d8 70 be 9e f5 63 bd 58 df 88 be ae 99 67 be
       -0.23520201 -0.05565416 -0.26732898 -0.22617218
000090 ae 2b 2d 3f 75 fe 5a 3e b6 e1 c2 3d 7e 5e 45 bd
       0.67644775 0.2138613 0.09515707 -0.048185818
0000a0 b6 61 98 3e 10 40 db bc e0 60 a3 bd a8 e6 06 3f
       0.29762048 -0.026763946 -0.07977462 0.52695704
0000b0 e1 18 24 bd 50 e5 34 bc 77 0d 83 3e 78 cb ae be
       -0.04006279 -0.0110410005 0.2559621 -0.3413961
0000c0 ff 63 bc be 89 3c 25 be 41 09 64 bf 57 f9 a6 bc
       -0.3679504 -0.16136374 -0.8907662 -0.020382566
0000d0 4a 29 95 3e 81 fc ca 3d 44 52 61 3e 0f 81 24 3d
       0.29133064 0.099114425 0.22004038 0.040162142
0000e0 6e d5 8e 3b da c1 57 3d d7 dd 6e bf 8f e9 21 3f
       0.004358939 0.052675106 -0.9330725 0.6324701
0000f0 61 af 81 3e f6 14 67 3e 8a 00 30 3e e8 28 28 bd
       0.25329116 0.2256659 0.17187706 -0.041054636
000100 c7 c8 49 3d 84 f5 4d 3c 6e 2c b6 bd 2e a1 1f be
       0.04926374 0.0125707425 -0.08895193 -0.15588829
000110 2c 71 40 3e 95 ab b3 3e 32 ea 09 bd 86 30 2e 3e
       0.18793172 0.35091844 -0.03367061 0.17010698
000120 60 d7 da 3e 5c b4 f2 3d 60 7a 10 3f f0 c5 02 3d
       0.42742443 0.11850807 0.5643673 0.03192705
000130 dc b2 88 3e 94 64 8f 3e 56 4e 59 3c ee b8 46 3d
       0.2669896 0.28006423 0.013263306 0.048516206
000140 c4 d9 86 be 62 69 65 3e c5 17 9d 3d b6 f0 d8 3d
       -0.26338017 0.22403482 0.07670549 0.10592787
000150 12 50 26 3f 56 5c 45 3b e3 8c 86 be 55 e1 08 be
       0.6496593 0.003011485 -0.26279363 -0.13367207
000160 e1 78 2c 3e 7a 7b 64 3e e0 d2 11 3c 13 e3 f5 3b
       0.16842987 0.22312728 0.008900374 0.007503876
000170 78 53 c6 be ce 49 68 be ac ce e4 3a 99 b4 2e be
       -0.38735557 -0.22684404 0.0017456613 -0.1706108
000180 ad d4 3c be 76 bf ba be 99 e5 40 bf d4 5b 45 3f
       -0.18440504 -0.36474198 -0.7535034 0.77093244
000190 94 08 63 3b be a3 9f bd ed 9d 86 bd d4 10 ee 3e
       0.0034642564 -0.07794903 -0.06573091 0.46497214
0001a0 59 a3 12 3f c7 13 94 bd 61 0c aa 3d d9 58 2a bd
       0.572805 -0.07230335 0.08303142 -0.041588638
0001b0 16 ba 07 bd e8 27 12 3f 13 51 f2 be 87 81 f2 bd
       -0.03313645 0.5709214 -0.4732748 -0.11841112
0001c0 e2 82 16 3e 0f 5c 83 3d 13 a1 18 bc fe 15 c8 bd
       0.14698365 0.06414043 -0.009315747 -0.0976982
0001d0 b6 b4 9e bc 5f b0 02 bf bf c4 1f be a4 b2 8d bd
       -0.019373279 -0.5105037 -0.15602396 -0.069188386
0001e0 1a 1d 2e 3e f5 cc 32 3e b5 7d 48 3e d1 12 1f be
       0.17003289 0.17460997 0.19579203 -0.15534522
0001f0 ed 7c e4 3e 26 6b 78 3e c3 24 fc 3d 9f 19 dc 3e
       0.4462656 0.24259624 0.12311699 0.42988297
000200 7a 79 79 ba 2e 77 cc 3d 5c 4d f9 be 0e 8c 84 bc
       -0.00095166976 0.09983669 -0.48691833 -0.016180065
000210 00 fc 91 3e cd 68 8d be c3 f2 9c be ff 3f 86 3e
       0.28512573 -0.2761902 -0.30653962 0.262207
000220 a9 89 18 3f 39 91 2e 3e 6a b4 a4 3d 89 f7 87 be
       0.5958505 0.17047586 0.08042224 -0.26556042
000230 98 28 e6 3d 1f 30 92 3e da 3f 14 be 38 af 5f bb
       0.112382114 0.28552338 -0.14477482 -0.0034131538
000240 5d 82 0d 3c 95 9e 06 bf 0a 2c cd be 62 60 34 be
       0.008637038 -0.52585727 -0.40072662 -0.17614892
000250 af 89 df 3e fa b1 ad 3d bf ee 87 3d a6 1f a7 be
       0.43659732 0.08481212 0.06637334 -0.32641333
000260 da c6 dd 3d 49 02 b8 be 22 c2 3f 3e 23 7d 35 bd
       0.108289436 -0.35939243 0.187264 -0.044308793
000270 1f da a2 3e 87 83 31 3e 1d 57 ed bb 12 be a5 be
       0.31807038 0.1733533 -0.0072430507 -0.32371575
000280 d0 c5 9d be 5b 55 ba 3e fc 30 ba 3e f0 35 39 bf
       -0.3081498 0.36393246 0.36365497 -0.7234793
000290 6b 14 59 be 86 89 90 be 80 40 87 bd 17 67 07 be
       -0.21199195 -0.28229922 -0.06604099 -0.1322292
0002a0 c0 db 96 3a 00 5c bf 3e 04 c5 dc bc 7b c6 e6 3c
       0.0011509582 0.37374878 -0.026949413 0.028170815
0002b0 45 f3 ef be f1 ca be be d9 d5 f9 bd 3e d7 72 3e
       -0.46865287 -0.37264207 -0.12198991 0.23714921
0002c0 b4 b4 d9 bb ce bd 1d be 25 35 b6 3e 78 fb 6d 3e
       -0.006643856 -0.15404436 0.3558742 0.23240459
0002d0 bc 2d 7c bc 21 83 63 bf ff 03 35 be 83 c8 72 3e
       -0.015391763 -0.8887196 -0.17677306 0.23709302
0002e0 23 1e f0 3e 0a c7 0e 3e a0 72 b7 be fd 90 a4 3e
       0.46897992 0.13943115 -0.3582964 0.32141867
0002f0 92 cd 7a 3e e2 18 a9 be 5a 14 a7 bb 3b b0 cf be
       0.24492481 -0.33026797 -0.0050988616 -0.4056414
000300 ed 24 22 be cd 19 47 3f a6 c4 0a be f7 a9 1c 3e
       -0.15834399 0.77773744 -0.13551578 0.15299211
000310 b8 43 cd 3c b9 02 c7 bd 83 59 ab bd dc 6e 02 be
       0.025056705 -0.09717316 -0.083666824 -0.12737602
000320 e8 bb f7 be bc ec 6d 3b 7d 08 04 bf b2 d2 d1 bd
       -0.4838555 0.0036304435 -0.5157545 -0.10245265
000330 ef 3d 8d 3b 72 09 ba 3b 44 03 05 3a a1 8a f5 3c
       0.0043103616 0.0056773955 0.0005074034 0.02997333
000340 e3 c8 45 be 88 f1 7c be c9 d5 07 bd 32 34 8d bc
       -0.19314913 -0.24701512 -0.033162866 -0.017236803
000350 73 1a 12 3e bc ea 43 bf 55 eb e0 3e 6a 33 ad be
       0.14267902 -0.7653005 0.43929544 -0.33828288
000360 13 3a 3c 3e 43 c3 39 3c 67 6c de bc 1c 89 56 3e
       0.18381529 0.011338058 -0.0271513 0.2095074
000370 a3 b5 43 3d 19 a0 d0 be 3b 52 12 be dd a0 c9 3e
       0.047780644 -0.40747145 -0.14289181 0.3938054
000380 32 34 02 3e 58 8f 38 3e dc 30 05 bf 97 28 96 3e
       0.12715223 0.18023431 -0.5202768 0.29327843
000390 13 e1 1d be fb a9 cf be 86 18 3b 3e 8a c9 b0 3e
       -0.1541789 -0.40559372 0.18271074 0.34528762
0003a0 50 31 58 be b1 a6 e7 3d 8b 8a e3 bd 47 14 30 3e
       -0.21112561 0.11311091 -0.11110409 0.17195235
0003b0 c6 23 16 bd 5d ca e3 be 28 05 30 3d ff 20 4b bf
       -0.03665521 -0.44490328 0.042973667 -0.79347223
0003c0 42 dd d1 3d f4 08 6e 3e 6a 1a 93 3e 55 2f 3b bc
       0.1024728 0.23245603 0.2873109 -0.011424859
0003d0 20 e5 e2 3e f4 a1 67 3e cc a1 8e be f4 11 97 bd
       0.44315434 0.22620374 -0.27857816 -0.07376471
0003e0 e3 fb fb be 30 fd 3b bf 38 af 51 3d b6 6d 79 ba
       -0.49215612 -0.7343321 0.051192492 -0.00095149444
0003f0 04 ba 18 bd b9 f6 9b be 7b f0 d9 3d 40 a1 1e 3c
       -0.037286773 -0.30461672 0.10641571 0.009682

mean_linear.bias f4 [12]
000000 9e ca 01 3f 49 bc c2 3f f5 f7 87 bf 75 a2 58 be
       0.50699794 1.521371 -1.0622545 -0.21155722
000010 08 40 20 bf 39 7b 44 be 34 bb 90 be 97 ca 07 be
       -0.62597704 -0.1918763 -0.28267825 -0.13260876
000020 4e de 97 bf 55 93 26 3e ea 65 ee 3c a1 14 04 3f
       -1.1864717 0.1626714 0.02910133 0.5159398

log_std_linear.weight f4 [12, 256]
000000 d0 49 72 3c 0b 11 3c be 84 7a 49 3e 16 25 6c bd
       0.014788106 -0.18365876 0.19675642 -0.057652555
000010 f3 40 d4 bd 62 37 c6 bd 85 d7 ba 3c 75 97 82 bd
       -0.103639506 -0.09678532 0.022807846 -0.063765444
000020 0e 25 fa 3d ac fc 29 3e 6c 40 3b bd 08 dd bc 3d
       0.12214099 0.16600293 -0.045715734 0.09221846
000030 a5 df 53 3d 26 e1 35 bc bd 36 20 3d 3c 91 b5 bd
       0.051726956 -0.011101043 0.039114702 -0.08865592
000040 32 ee 34 bd 54 57 e4 3d c2 ba 9b 3d fb 6a bf 3d
       -0.044172473 0.11149469 0.076039806 0.09346577
000050 c7 04 ee 3c 0d f8 20 be 18 a8 1d 3e e0 ff 8a 3c
       0.029055012 -0.15719624 0.15396154 0.016967714
000060 46 24 b6 bd 6c 93 9f 3c f1 eb 2d be a0 16 14 3e
       -0.08893637 0.019479476 -0.16984536 0.14461756
000070 b6 76 eb 3e ec 00 eb 3b 0e 92 f1 3d f5 9a 93 bb
       0.45989007 0.0071717408 0.11795436 -0.0045045563
000080 d6 c1 ea bd a7 0b 93 bd 7f d1 7c bc 0e 9d 51 bd
       -0.114627525 -0.07179957 -0.015430807 -0.05117517
000090 2b 96 fd 3c bd 88 03 3e ec c2 12 3d 3e d1 7a 3e
       0.030955395 0.1284513 0.035830423 0.24493882
0000a0 84 fb cd 3e 8f f9 25 3d 9a 23 f8 3e 7a 5a f4 bc
       0.40230954 0.0405212 0.48464662 -0.029828299
0000b0 5a 4e b3 3a b6 b0 9f 3c 5a 4c f8 3d d5 16 be bd
       0.0013679967 0.019493442 0.12123938 -0.092816986
0000c0 c6 27 25 3e cc 70 20 3c 84 e4 ea bd 9a c4 51 3d
       0.16128454 0.009792518 -0.11469367 0.051212884
0000d0 3a 7a 91 3e f0 a0 3b 3e 8d 83 a8 3d ce e0 4b 3c
       0.28413564 0.18323112 0.08228216 0.012443734
0000e0 c0 22 a6 bb 39 a7 03 3e 03 a7 59 3e 6c 62 73 bc
       -0.0050700605 0.12856759 0.21255116 -0.014855009
0000f0 4d 88 25 3e 6d b7 9a 3d b0 48 70 3c 81 47 79 bd
       0.16165276 0.07554517 0.014665768 -0.060859207
000100 93 1c 6a be 20 ca 1b 3d 9e ab 70 3e ea bd 43 3c
       -0.22862463 0.03803456 0.23502967 0.0119471345
000110 2e e2 31 3d 38 fd 95 3e 0a a8 19 39 a8 40 37 3f
       0.043428592 0.29294753 0.00014653816 0.7158303
000120 3d e1 4a bc b6 48 45 3d 69 17 fa 3e 0b 4e f7 bd
       -0.012382803 0.048165046 0.48845986 -0.120754324
000130 22 94 03 be 7a 3a ab 3d 54 33 50 3e 9f fb 62 bc
       -0.12849477 0.08360763 0.2033208 -0.013853936
000140 9e 1c 43 3e 63 0b 1b 3e 19 33 9d 3d f5 ba 70 be
       0.19053885 0.15141062 0.07675762 -0.23508818
000150 d1 b9 7f 3e 8b b2 da ba c9 95 0d 3f 55 15 c5 3d
       0.24973227 -0.001668529 0.5530668 0.096232094
000160 bb 3e 02 3f ee 1d de bd 7e 15 a5 bc e3 3f 94 3d
       0.5087697 -0.108455524 -0.02015185 0.07238748
000170 59 9a 21 3c ca 6c 37 be 9e 21 42 bc ce ca e1 3d
       0.0098634595 -0.17912593 -0.011848835 0.1102501
000180 b8 fd 59 bd 82 c3 c6 bd 75 4b 89 bd 0b c7 a4 3d
       -0.05322048 -0.09705259 -0.067038454 0.08045777
000190 18 fd d6 3d 83 8b 17 3e 3a c9 4f 3e 49 9c 26 3c
       0.104974926 0.14799313 0.20291606 0.010169097
0001a0 83 86 3c 3e a0 b5 36 3e 5e 59 c1 3e 82 8c 9d 3d
       0.18410687 0.17842722 0.37763494 0.07692815
0001b0 9a 3e 96 3d 7c ed 45 3e 1c fe f2 3c c6 5e 5a 3d
       0.07336159 0.19328874 0.029662184 0.05331304
0001c0 49 12 a9 bd e9 1f cc 3c 6e 3e 44 be 99 e7 a5 bd
       -0.08255441 0.02491756 -0.1916444 -0.08100814
0001d0 11 16 14 3c 46 8c 07 3e 26 39 c7 3d 1f 8a 78 3e
       0.009038464 0.13237104 0.09727697 0.24271439
0001e0 6c a5 96 3d 23 f4 a4 3d 48 de 59 3e 0a 49 a0 bc
       0.073557705 0.08054378 0.212762 -0.019566078
0001f0 14 58 25 be 29 dd 44 3c 59 ce 42 bd 62 7d ee 3c
       -0.1614688 0.012015619 -0.04756007 0.029112522
000200 ea 40 68 bc 73 4c 29 be 41 41 12 bc f1 d9 a5 3d
       -0.014175633 -0.1653307 -0.008926691 0.0809821
000210 3a df 2b 3e c3 a0 ca 3d 52 18 66 bd 36 dd 4c 3c
       0.16784373 0.09893944 -0.056175537 0.012503913
000220 b7 55 f7 3e df 3b 6e 3e bb 12 19 3e 1d 97 c4 bd
       0.48307583 0.23265027 0.14948551 -0.09599135
000230 6a d5 a0 3e 42 15 e2 bd c5 7d d5 3d 23 6f 13 3d
       0.31412822 -0.11039211 0.10424379 0.03599466
000240 db 2a 80 3c fd ec b5 3d a0 7e 85 bd 70 63 23 3c
       0.015645435 0.088830926 -0.065182924 0.009972438
000250 a5 84 c5 bc c0 fc fb 3d e7 01 6e bc 40 26 15 3c
       -0.024111101 0.123040676 -0.014526821 0.009103358
000260 9e 60 80 3d 4c ff a7 3e c1 2e 5e 3e f0 c8 a5 3d
       0.06268428 0.32811964 0.21697523 0.080949664
000270 57 49 28 3e 84 18 d5 3d 47 71 d9 3d 46 ea d4 3e
       0.16434227 0.104050666 0.10617309 0.41584986
000280 ae 59 42 bd b2 cf d7 bd 5c ea 91 3e fb bd 82 3e
       -0.047448806 -0.105376616 0.28499115 0.2553557
000290 5b 28 e6 bc b1 15 1d 3d f7 bb b3 bd ee 84 56 bd
       -0.028095415 0.038350765 -0.08776086 -0.052372865
0002a0 ac 98 1f be 40 a0 ba 3d 79 3a 2d 3d 07 1b c6 3d
       -0.15585583 0.091125965 0.042292092 0.09673124
0002b0 96 21 e8 3d 03 58 1a 3d d2 7e a9 3d f9 ca ce 3d
       0.11334531 0.03768159 0.08276142 0.10097308
0002c0 a2 c7 c2 3a 81 e5 1d 3e 7a a1 03 3e dd 2f a5 3d
       0.0014860521 0.1541958 0.12854567 0.0806577
0002d0 fe 50 07 bd 5c f8 1e 3d ae b1 11 3f e2 f0 1d 3c
       -0.033036225 0.038811073 0.5691174 0.0096399505
0002e0 44 7a 81 3f 4d 5f 01 bd f9 bd 39 bd 76 9c 3d 3e
       1.0115438 -0.031585027 -0.045347188 0.18516716
0002f0 38 82 6e 3e c8 8a 3d 3d c6 d9 6b 3d f7 fc 16 3e
       0.23291862 0.04627493 0.05758073 0.14744936
000300 f4 68 1e be 52 5f 86 3d 83 a5 54 3d 57 d3 1c 3f
       -0.15469724 0.0656115 0.051915657 0.6125998
000310 0a a7 97 3b 7c 29 51 3e 8d 9f 38 3c d7 14 3c 3d
       0.004628067 0.20425981 0.011268509 0.045918312
000320 64 9d 9b bd 27 ff a7 ba 55 cc b0 bd af 71 54 3d
       -0.07598379 -0.001281713 -0.08632723 0.05186623
000330 d8 71 d8 bb 0b e7 67 be 8d 7a ef bc 0b 34 a0 3d
       -0.006605368 -0.2264673 -0.029233241 0.078224264
000340 91 27 9d be 85 74 42 bc fc 1e 79 3d f6 8a ec 3d
       -0.3069425 -0.011868601 0.060820565 0.11549942
000350 0a 5f 58 bc ca 12 1a 3e 95 dd 1b 3e 4b be 24 3e
       -0.013206253 0.1504623 0.15221246 0.16088216
000360 86 aa f8 bd 52 92 31 3b 06 a9 8c bc aa f4 6d bd
       -0.121419 0.002709527 -0.01717044 -0.058094658
000370 bb f3 ba 3e ff 45 36 be ce 85 12 be 80 5e 54 3e
       0.36514077 -0.17800139 -0.14308855 0.20739174
000380 7b dd e0 3d 39 1c 1c 3b 4f 78 4d 3e 3b 4f 8d bc
       0.10979744 0.0023820533 0.20065425 -0.017249694
000390 85 46 15 3d 12 ac 8a 3e 54 53 7c 3e d7 b0 6f 3c
       0.036444206 0.27084404 0.24641162 0.014629564
0003a0 df dd 61 bd 93 4f 31 bd 19 6c 00 bd cb 60 9b 3d
       -0.055143233 -0.04328878 -0.03135309 0.07586821
0003b0 f8 86 c0 bc 64 42 4d 3c 55 8c 20 3d 40 c6 e4 3d
       -0.023501858 0.012528036 0.03919633 0.11170626
0003c0 03 f4 56 3d a9 45 52 3d f3 09 97 3c fa 6b ee 3d
       0.0524788 0.051335964 0.018437361 0.11641689
0003d0 63 32 00 3f 8b 78 b7 bd 5e bc 64 3e d5 d6 f4 3d
       0.50076884 -0.089585386 0.22337481 0.119550385
0003e0 cb 0e 66 3d ec a6 90 3d bb e7 ba bb 2c e5 f6 3a
       0.05616645 0.07063088 -0.005703894 0.0018836609
0003f0 c9 95 e8 3b f6 f2 e2 bc a7 15 ba 3e 7f 54 18 bb
       0.007097934 -0.027703743 0.36344644 -0.0023243723

log_std_linear.bias f4 [12]
000000 8f 83 08 bf 50 34 ca bf 80 5d 5a bf 8d 59 ae be
       -0.5332574 -1.5797215 -0.8529892 -0.34052697
000010 52 ef 30 bf 84 e2 65 bf 88 8d ec be aa a2 c6 be
       -0.69115174 -0.8979876 -0.4620173 -0.38795978
000020 ed cd 4c bf af b1 ec be 1e 6d 36 bf 17 09 30 bf
       -0.8000172 -0.46229312 -0.7126025 -0.6876387
