policy2.pth (torch, 335680 bytes, 8 tensors)

linear1.weight f4 [256, 43]
000000 dd 30 2f bf d6 a2 79 bd 5a 1f 57 bf 3e b4 4d be
       -0.68433934 -0.060946308 -0.84032214 -0.20088288
000010 69 20 b7 3d 32 88 94 bc e6 0b 9b be 95 0d 86 3d
       0.089417286 -0.01813135 -0.30282515 0.06545559
000020 bf d9 95 be 07 a9 32 be db c5 6f be 9a 11 77 bd
       -0.2926769 -0.17447291 -0.2341532 -0.06031952
000030 77 cc 5b bf c9 a8 7a be 3e 7a af 3e d5 d4 c1 be
       -0.85858864 -0.24478449 0.3427295 -0.3785769
000040 48 27 a1 3f db 0e 42 bd b9 33 ed be 41 03 fa 3d
       1.2590113 -0.04737745 -0.46328524 0.12207652
000050 7d ee c9 3d 1d 90 b6 3e 8f d4 ca be 56 95 00 be
       0.09859941 0.35656825 -0.39615294 -0.12556967
000060 0a 7d b5 bd 20 fb 60 be 57 f3 f8 bc a1 46 82 3d
       -0.0886174 -0.21970797 -0.030389471 0.06361128
000070 32 15 e1 bd eb ce 75 3e 77 39 1a 3e a5 d6 65 3d
       -0.10990371 0.24004714 0.15060984 0.056112904
000080 07 67 c7 bc b6 d8 4c 3d e4 f8 e1 3d 3b 74 6b 3e
       -0.02434112 0.05001136 0.110338 0.22993557
000090 05 ca 69 be e7 56 25 3f bf 32 fc be b7 05 a0 be
       -0.2283097 0.6458573 -0.49257466 -0.3125436
0000a0 e8 8b 5d 3f 1d f0 c8 3f 4f 48 03 3c 08 c2 a7 be
       0.86541605 1.5698277 0.008012845 -0.32765222
0000b0 fe 94 10 3e d1 83 ff bd 7c 8e 6f 3d 3f 37 d4 bd
       0.14119336 -0.12476314 0.058485493 -0.103621
0000c0 33 3e 84 3e 1c 69 23 3e 47 93 a5 3d d1 75 2b 3e
       0.25828704 0.15958065 0.080847315 0.16744162
0000d0 bb 90 4b 3d b4 21 61 bc 93 57 ff bb 60 e1 5a 3e
       0.049698573 -0.013740946 -0.007792422 0.21375036
0000e0 d5 e5 84 be 01 3f bd 3e 1e a8 07 3f 44 b8 9d be
       -0.25956598 0.3696213 0.529909 -0.30804646
0000f0 c5 e2 24 bd 5e 81 4f be 4f 0e 30 3d 93 f5 c2 bd
       -0.040255327 -0.20264193 0.042982396 -0.09519496
000100 f9 27 f6 bd f1 d1 83 3e 9f a2 11 bd 82 35 48 be
       -0.12019343 0.2574611 -0.03555548 -0.19551662
000110 06 37 23 3e 07 a5 f7 bd 42 ca 12 3e 11 24 44 3d
       0.15938959 -0.12092023 0.14334968 0.047885958
000120 f8 9e 80 3e 0e 2c 0f bc d1 63 ef be 50 5e 91 3e
       0.25121284 -0.008738531 -0.4675584 0.28392267
000130 92 76 d7 be da da c1 3c bd f8 a2 3c 11 90 8d be
       -0.4208265 0.023663927 0.019893998 -0.27648976
000140 2f 04 36 3f e4 de a1 3d fd b6 0c bd 7f b0 42 3e
       0.71100134 0.07903841 -0.0343542 0.1901264
000150 f9 0f f7 3e c0 ad d7 be fd 5b 26 3e 95 fb ba 3d
       0.48254374 -0.42124748 0.16246028 0.09130017
000160 ae 9f cb 3e 72 83 24 3e e3 e4 e0 bd 61 95 29 bd
       0.39770263 0.16065767 -0.10981157 -0.041402224
000170 c9 c0 64 3e 1b 24 2d 3e 88 fb be be ae b8 39 3b
       0.22339167 0.16908304 -0.37301278 0.0028338837
000180 7f 55 be 3d 91 20 cd be e6 de 0c 3f 1c 7f 2a 3d
       0.09293651 -0.4006391 0.55027616 0.041625127
000190 65 5d a7 bd e2 5e 90 3f 94 64 22 bf eb cf 5d bd
       -0.081721105 1.1278956 -0.6343472 -0.054153364
0001a0 b0 e2 2d 3e 60 74 3e 3e 3f 60 6c be 1a f5 3d bf
       0.16981006 0.18599081 -0.2308359 -0.7420212
0001b0 82 73 f0 3e 32 1f b7 be 37 97 91 be 67 20 f9 bd
       0.46963125 -0.35765988 -0.2843568 -0.121643834
0001c0 59 ab 32 3c 67 cd 87 bc c5 93 87 3e 6e 57 b9 3d
       0.01090511 -0.016577436 0.26479927 0.09049879
0001d0 ea cf 1e be f1 fe b3 bd 74 3b d1 3d 43 1f 10 bd
       -0.15509 -0.087888606 0.10216418 -0.035186063
0001e0 af be f2 bb 2f 23 d9 3c e5 df 1c 3e 4b 75 d0 be
       -0.007407985 0.026506035 0.15319784 -0.40714487
0001f0 e4 5f 5c 3f ab 8a 90 3d 6e bb 04 c0 c8 49 73 bf
       0.8608382 0.07057699 -2.0739398 -0.95034456
000200 23 65 81 3f cd a7 28 be b7 52 a5 bd cc 38 fb 3e
       1.010899 -0.16470261 -0.08072417 0.4906677
000210 fb a2 94 3b e6 9d 83 3c de 45 8c 3e 90 5f f5 bd
       0.0045360303 0.016066503 0.27397054 -0.11981118
000220 fb fb 9c 3e 6d 18 fc 3c 17 84 30 3d 58 c1 58 bd
       0.30660996 0.030773366 0.04309472 -0.052918762
000230 b7 1f 81 bd ee fd 3f be 8c 7e 0b 3e 0d b2 88 bc
       -0.06304877 -0.1874921 0.13622493 -0.016686464
000240 4a 3f 91 be 18 35 1a bf cf 54 31 bc 45 56 18 bf
       -0.28368598 -0.60237265 -0.010823443 -0.59506637
000250 02 91 76 3e 31 10 99 3d 22 7c f6 bd c7 3c df 3c
       0.24078754 0.074737914 -0.12035395 0.02725066
000260 ef 2e b8 3c 45 ba cd 3d 48 87 85 be 8f d9 72 3d
       0.022483317 0.10045294 -0.26079774 0.05928951
000270 36 83 48 be d5 c6 0a be f9 17 98 bc 69 68 50 3e
       -0.19581303 -0.13552411 -0.018566119 0.2035233
000280 82 f6 92 bc 58 5c 4b bd ea 09 97 3e 01 1c ea bd
       -0.01793981 -0.049648613 0.2949975 -0.114311226
000290 bc f5 53 be 95 68 13 3f 09 c2 99 be 53 3e a5 be
       -0.20699209 0.57581455 -0.3003085 -0.32274112
0002a0 67 2d 89 3e 49 c1 bf 3f 7d df 84 be d6 a9 61 bf
       0.26792452 1.4980861 -0.25951758 -0.88149774
0002b0 17 58 0a bd a1 66 92 3e 76 49 52 be 6d 9b 0e 3e
       -0.033775415 0.28593925 -0.20535836 0.13926478
0002c0 ce 9c c9 3d 62 b5 e7 3d 24 e3 ba bc ae 43 1d 3d
       0.09844361 0.11313893 -0.022813387 0.038394623
0002d0 99 52 af bd 92 f8 45 3e 68 bf 75 bd 20 18 b6 3d
       -0.08560676 0.19333103 -0.059996992 0.0889132
0002e0 28 45 c1 be 6f 17 c8 bd b0 98 28 be 0b e1 ea bf
       -0.37748075 -0.097700946 -0.16464496 -1.8349928
0002f0 80 95 cf bf 07 47 95 3d 54 8a a7 bf 71 09 52 bd
       -1.6217499 0.07288938 -1.3089089 -0.051278535
000300 e9 94 ab 3d 41 ac 92 be db 85 92 bd 48 88 47 bc
       0.08378012 -0.28647044 -0.07154437 -0.012178488
000310 52 27 60 3e 91 e6 ed bd 05 b5 74 be 5d a0 3d 3d
       0.2189 -0.11616243 -0.23897178 0.046295512
000320 c2 03 d7 3c 12 a4 96 3d 58 04 a2 bd f9 95 81 3e
       0.026246909 0.07355513 -0.07910985 0.25309733
000330 6d 5e 46 be 22 01 be 3e bc 49 98 bd 0d 34 20 be
       -0.19371958 0.3711024 -0.07435939 -0.15644856
000340 92 d3 59 be 9f b8 f3 be a1 8e 31 3f 4c d9 ad 3e
       -0.21272114 -0.47601792 0.6935826 0.33954847
000350 3c 2c 81 3f 9e 91 a8 bf 28 56 03 bf 01 12 cd 3d
       1.0091624 -1.3169439 -0.5130334 0.100131996
000360 33 db 3b be b4 4e 2c 3e 94 03 39 bd 1f 00 a6 bc
       -0.18345337 0.16826898 -0.045169428 -0.02026373
000370 2e b0 32 be 60 a0 47 3d 7d ec 84 3d 9d 14 65 bc
       -0.1745002 0.04873693 0.06490419 -0.013981965
000380 81 2e 67 3c 1b 73 f3 bd 6e 52 fa be 3f 4b 5f 3e
       0.0141102085 -0.11887189 -0.48891014 0.21806048
000390 8d 45 ae 3e 18 f2 34 3e 6b fe a1 be 68 66 ce 3f
       0.34037438 0.17670476 -0.31639418 1.6125002
0003a0 0b 5b 3d 3e 81 24 1d 3f 5e 2c 13 bf a0 b9 a0 3d
       0.18491761 0.61383826 -0.57489574 0.07847905
0003b0 f5 e6 0b bf a4 8f b5 bc 9b 11 77 3e fb c2 55 3e
       -0.5464929 -0.02216322 0.2412781 0.2087516
0003c0 8b 7b df bd 35 33 db 3d c2 a1 1c 3c 67 85 ad bd
       -0.10912236 0.10703126 0.00956005 -0.0847271
0003d0 d2 7a b5 3e 0d 65 27 be 48 1e 85 be b5 dd 74 3e
       0.35445267 -0.16347142 -0.25999665 0.239127
0003e0 1d c1 23 be a6 02 02 3e 60 cc 41 be ee 96 21 bf
       -0.15991636 0.12696323 -0.18925619 -0.63120925
0003f0 d6 ac 13 bf 06 de dd bf b6 1b fa be f4 c2 47 bf
       -0.576856 -1.7333381 -0.48849267 -0.7803185

linear1.bias f4 [256]
000000 be a0 ce bd d5 74 f7 3d f4 4c ef 3d b4 60 28 3d
       -0.10089253 0.12082831 0.116845995 0.04110785
000010 de f2 3b 3e e3 50 1e 3d f3 48 01 3e 91 2f ab 3d
       0.18354365 0.03865136 0.12625484 0.08358682
000020 91 16 45 be fe 1a 61 be 54 66 90 3b 29 12 67 3e
       -0.1924689 -0.21982953 0.0044067297 0.22565521
000030 de 78 21 be a5 18 c7 bd 7b 67 22 3d 84 f4 91 be
       -0.15768763 -0.097214974 0.039649468 -0.28506863
000040 6f b8 f1 3b a3 22 8e 3e ef 1c d1 3d 97 75 99 3b
       0.0073767225 0.277608 0.10210597 0.0046832073
000050 d7 16 20 3e 37 3b 82 3c 15 0b 34 3e 94 64 ba bd
       0.15633713 0.015897376 0.17582352 -0.09101215
000060 72 18 85 bd dc 23 a1 bd 73 84 25 3d 15 c0 6b 3d
       -0.06498803 -0.07868168 0.040409517 0.05755623
000070 fb 7b 00 be 63 49 61 be fc 21 a5 3d 7a 93 9d 3d
       -0.12547295 -0.22000651 0.08063123 0.076941445
000080 90 4f a0 3d bd f6 c9 3b 56 69 2a 3d 7b 06 9f bc
       0.07827675 0.0061634467 0.041604362 -0.01941227
000090 09 3a 4c bd bd 3b 50 bc bd f9 f4 3d 5d eb 9d bc
       -0.049860034 -0.012709555 0.11961696 -0.019277269
0000a0 38 dd a9 bc 3f c3 a6 3d 6b b7 a7 bd 19 e8 7b be
       -0.020735368 0.08142709 -0.08189281 -0.24600257
0000b0 fd 14 79 be c8 06 02 3c 75 9e 67 be d9 64 b1 3a
       -0.24324413 0.007936187 -0.2261904 0.0013534083
0000c0 64 e5 60 be 30 de 3d bd 06 e9 a3 bd 05 6c 11 be
       -0.21962506 -0.046354473 -0.0800343 -0.14201362
0000d0 f4 89 80 be b6 76 2f be 05 87 0d bc 21 cd 38 be
       -0.2510525 -0.17135128 -0.008638148 -0.18047
0000e0 29 8a c9 bc a7 72 a0 bd 2b 1c 92 3d 4d 32 4d bd
       -0.024602013 -0.07834368 0.07134279 -0.0500968
0000f0 14 16 60 3d 61 eb 2b be ac 53 01 be 4c 16 7c bd
       0.054708555 -0.16789009 -0.12629575 -0.0615447
000100 5f 5f bc bd 2f c7 02 be 3a 45 29 be bf af 19 3e
       -0.09197878 -0.12771295 -0.16530314 0.15008448
000110 41 92 79 be da 76 ab 3d 69 b9 d5 bb 85 39 28 be
       -0.24372198 0.083722785 -0.0065223468 -0.16428192
000120 97 0a 28 3e 18 2b a8 bd 7f 20 d3 bd 59 05 b6 bd
       0.1641029 -0.082113445 -0.103089325 -0.08887739
000130 f5 2d 37 be c2 17 13 be 61 3d 0c 3e 52 83 bf bd
       -0.17888625 -0.14364532 0.13695289 -0.09351219
000140 cd 3c e9 bc a0 20 2a be 1f bc 99 bc 87 5d 2b 3d
       -0.028471375 -0.16614008 -0.018766461 0.04183724
000150 ce ed 8e bd d0 59 9b 3c 3b 1b 15 be 44 da ac 3c
       -0.069789514 0.018963724 -0.14561169 0.02110017
000160 72 42 2f bd 27 a7 a8 3d a3 2a 56 3e 98 9a 2f 3e
       -0.042787977 0.08235007 0.20914702 0.17148817
000170 d6 42 03 be f0 f8 30 3c 7d a7 6b 3d 1f 36 7d be
       -0.12818465 0.010801539 0.057532776 -0.24727677
000180 15 e5 8a be 98 19 80 3c 24 da e4 bc 37 53 3d 3d
       -0.271279 0.015637204 -0.027936049 0.046221938
000190 d7 59 1c 3e fb 10 b8 bd c0 cb 2a bd 1d ec 8e 3d
       0.15268646 -0.08987614 -0.041698217 0.06978629
0001a0 cc 4d 9f bd e7 8c fa 3d 29 70 03 3d 0f 23 23 3c
       -0.077785105 0.12233906 0.032089386 0.009957089
0001b0 2c 29 a0 3d 95 ad 8d 3d dc 01 31 3d b9 60 30 3e
       0.07820353 0.06917874 0.043214664 0.17224397
0001c0 de d3 3d 3d 6c 26 8a be 88 e4 e7 bd c8 c8 8a be
       0.04634463 -0.2698244 -0.11322886 -0.2710631
0001d0 16 51 0d be 31 c0 3d 3d 1a bf 0a 3e 0e a5 f4 bd
       -0.13800463 0.046325866 0.13549462 -0.11945544
0001e0 54 1f 12 bc 06 cd 63 bd d8 07 5b bd f1 8c 22 be
       -0.008918602 -0.055615447 -0.053474277 -0.15874077
0001f0 71 95 04 bc 03 4a 41 be 56 bb 8d bc 30 61 25 bd
       -0.00809227 -0.1887589 -0.017301243 -0.04037589
000200 f2 1c 22 3d 9c 38 2d 3e 59 fd cd 3d 4a f1 56 bd
       0.039578386 0.16916126 0.10058088 -0.052476205
000210 96 e7 a7 3c 83 50 fa bd 11 4e 68 bd a4 5b ac 39
       0.020496171 -0.12222388 -0.056715075 0.00032874674
000220 07 dd af bc ba 01 63 bd 83 23 91 bc 26 fa 3c 3d
       -0.021467699 -0.05542157 -0.017717129 0.046136998
000230 a7 9c 5a 3e 39 29 31 be 83 1a c9 bd 88 13 87 bd
       0.2134882 -0.17300881 -0.0981951 -0.06595522
000240 9d da b0 bd 15 e1 e1 bd d3 df ac bd 56 2a ee bd
       -0.08635447 -0.11029259 -0.084411286 -0.11629169
000250 83 75 d1 bd 9a 26 f4 3a 75 df 1d 3e db 5e d2 3d
       -0.10227492 0.0018627227 0.15417273 0.102719985
000260 1b 04 47 be 97 be 23 bd a8 35 87 be 6b 00 0f be
       -0.1943516 -0.039976683 -0.26408124 -0.13965003
000270 41 a4 d0 3d 35 4f e3 bd e9 cf 6d 3d 42 27 5f be
       0.10187579 -0.11099092 0.058059607 -0.2179232
000280 18 c6 2b be 8f da e4 3d a5 fa 58 be a9 da c6 bd
       -0.16774786 0.11174499 -0.21189363 -0.09709675
000290 68 38 bf bc fb a0 c4 3d ee e4 e9 bd 98 b6 fc bd
       -0.023342326 0.09601017 -0.11420618 -0.123395145
0002a0 84 aa ba bb 51 fb 90 3d b7 4d 25 be 96 bb 8f bd
       -0.0056965966 0.07079185 -0.16142927 -0.07018201
0002b0 bd d6 af 3d 08 a7 66 bd 3b d6 62 3e 59 1e f0 3b
       0.0858588 -0.056311637 0.22152035 0.0073278365
0002c0 6c 25 28 3c 03 a7 f9 3d 5a e9 69 bd c5 31 8f 3d
       0.010262828 0.12190058 -0.057107307 0.06991915
0002d0 4c 59 48 bc b9 66 8b 3d bf 11 16 3e 6a db 7a be
       -0.012228321 0.06806702 0.14655207 -0.24497762
0002e0 59 f1 c9 3c 57 8f f9 bd 68 5a 0d 3c f4 35 bc 3d
       0.024651216 -0.12185543 0.008627512 0.09189978
0002f0 fe 95 de bd ed db a7 bd 17 ec 54 bd 65 03 f1 ba
       -0.108684525 -0.081962444 -0.051982965 -0.0018387852
000300 d0 22 61 3c bf d4 ae 3d d0 41 8c bd 9b d2 95 3d
       0.01374121 0.08536672 -0.0684849 0.073155604
000310 71 47 39 ba 72 01 1c 3d 1a b4 d6 ba ca 3d 14 3e
       -0.00070678355 0.038087316 -0.0016380579 0.14476696
000320 02 e3 cf bd d2 74 20 3d 1a 70 82 3c f9 e7 2d bb
       -0.1015072 0.03917391 0.015922595 -0.0026535972
000330 63 12 68 be 10 e5 c2 bd a9 8f 52 bd 35 20 ec 3d
       -0.22663264 -0.095163465 -0.051406536 0.115295805
000340 cf 8f 9d 3d 7f 6c 9e bd 16 bb 67 be 90 72 34 be
       0.07693445 -0.07735538 -0.22629961 -0.17621827
000350 d8 a2 ee bd 31 ab 29 3d 2c 84 2c be d3 ce 68 bd
       -0.11652154 0.041423026 -0.16847295 -0.056837868
000360 ca aa 8b bd 06 90 23 3e 7e 65 36 bd 36 b4 c6 bd
       -0.06819685 0.1597291 -0.044530384 -0.09702341
000370 b8 fe 4c 3d 4a f4 2a bc d7 be 33 be 4c eb ae bd
       0.050047606 -0.01043422 -0.17553268 -0.08540973
000380 81 96 91 3c 29 7e ad ba 4d 50 15 3e 8c 07 f3 3d
       0.017771961 -0.0013236451 0.14581414 0.11866674
000390 91 6a 20 bd dd 31 84 3d 61 e2 0c bc 12 d0 4b be
       -0.03916413 0.06454823 -0.008598895 -0.19903591
0003a0 d2 dc 40 3d 8e 26 08 be 52 5d 05 3e 0d 3c 80 3d
       0.04708559 -0.13295957 0.1302388 0.06261454
0003b0 a0 99 90 3b 04 f8 67 3c 86 3c e0 bd 4e 7b 32 3b
       0.004412845 0.014158253 -0.10949044 0.002723414
0003c0 17 99 9c 3d 07 45 a2 3d 92 6f 76 3d d5 5a 18 be
       0.07646387 0.07923322 0.060164995 -0.148784
0003d0 c0 53 cf 3d 80 6c 02 bd 70 3e 53 be fd ce 10 bc
       0.10123396 -0.031841755 -0.20629287 -0.008838412
0003e0 3b eb cd 3d c0 2b 6f 3d 6f 18 22 3b 9c 32 b8 bd
       0.10054632 0.058391333 0.0024733802 -0.08994028
0003f0 41 ed a9 3c 43 1e fb 3b 95 87 9c bc 04 a7 b8 3d
       0.020743014 0.0076635196 -0.01910762 0.09016231

linear2.weight f4 [256, 256]
000000 2e ed 85 bc 78 c3 d2 bc 19 d5 08 bf 93 95 a1 be
       -0.016348448 -0.025727972 -0.5345016 -0.3155943
000010 3f 2c 12 be b4 13 6b bd 79 51 a6 3e 3f 38 55 bf
       -0.14274691 -0.057391837 0.32484034 -0.8328895
000020 77 c3 94 3b 40 1f 42 3c 81 b7 5d bf a5 32 d5 3a
       0.004539903 0.011848271 -0.8660813 0.0016265704
000030 d6 92 8b be c5 da 3e 3c 1e ac 31 3d d3 4e f8 bd
       -0.27260464 0.011648838 0.043377034 -0.121244095
000040 f9 db a4 3e 76 21 ad bd d0 c4 25 3c e3 83 f4 bd
       0.32199076 -0.08453648 0.010117725 -0.11939218
000050 dc a9 26 3e cd fa 6d be 8c 7a e8 be 62 f1 f7 3d
       0.16275734 -0.23240204 -0.45405996 0.12106587
000060 5e 9a ad 3e 64 1d ae bd ac 48 01 be 79 bf 1c 3c
       0.33906835 -0.085016996 -0.12625378 0.009567135
000070 30 d8 57 be 25 08 03 bd 0d d8 c3 bd 1e c0 26 be
       -0.21078563 -0.03199019 -0.09562693 -0.16284224
000080 ad 91 e1 be ac 7c 42 be 25 13 00 3d 25 41 75 be
       -0.44056454 -0.18992871 0.031268258 -0.23950632
000090 78 44 c0 3d a2 90 2b 3d 51 69 7c bd e9 57 17 bd
       0.093880594 0.04188598 -0.061623875 -0.036949072
0000a0 06 47 99 bd f7 fd 8e be 7b 2e 7f 3c ef 4e d8 bd
       -0.0748425 -0.27928135 0.015575047 -0.105619304
0000b0 a0 4f 00 3d ef 00 2e be 25 9e 8b 3e 30 94 8d bd
       0.031325936 -0.16992544 0.27269092 -0.0691303
0000c0 d2 aa b4 3d 17 0a 2a 3e 62 e7 15 be c5 36 74 bc
       0.08821644 0.16605411 -0.14639047 -0.014905636
0000d0 0a 35 ab be cf cd 55 be 63 4a a4 3e 49 cd 62 3e
       -0.33438903 -0.20879291 0.32088003 0.22148623
0000e0 2e 83 12 be 9b 72 18 3e 88 bc 62 bd 4e 91 5f bc
       -0.14307854 0.14887469 -0.05535558 -0.013645483
0000f0 7c 65 c5 bd db b0 86 3e 35 95 1a be 97 eb c4 bd
       -0.09638497 0.26306805 -0.1509598 -0.09615248
000100 c5 f8 91 3d e3 89 c6 be ec d4 4b bd 85 cd 19 3e
       0.07127527 -0.38777074 -0.049763605 0.15019806
000110 43 9d 2e be 84 bf d5 be 58 5e a4 bd 8a 56 29 bb
       -0.17052178 -0.41747677 -0.08025807 -0.0025838935
000120 df a6 0d bd 0f d5 48 be 72 e6 7b 3e aa b0 36 bf
       -0.03458297 -0.19612525 0.24599627 -0.7136332
000130 06 21 84 3e 3e bc eb 3d 99 c0 c3 bd bf 31 4a 3d
       0.25806445 0.11510514 -0.095582195 0.049363848
000140 71 7c ab bd 01 e9 b3 bc 25 db 55 bd 04 69 b2 3d
       -0.08373345 -0.02196169 -0.052210946 0.087114364
000150 b8 8c af be e7 89 27 3d 8d 9c a5 bc c3 23 45 bc
       -0.34287047 0.040903 -0.02021625 -0.012032452
000160 e2 a5 ca be a4 ee de be 2a 40 a1 3b 8b 9c ef 3e
       -0.39579684 -0.43541443 0.004920979 0.4679912
000170 db 19 19 bf a3 e4 23 be 80 c2 c4 bd 37 14 15 be
       -0.5980508 -0.16005187 -0.096074104 -0.14558493
000180 dc b8 68 be 80 9c 99 3e 85 d0 65 3d e0 cc 81 bd
       -0.22726768 0.30002213 0.056107063 -0.06337905
000190 ac 62 91 be 43 57 6d 3e 48 e9 55 3d c2 48 83 be
       -0.28395593 0.23177819 0.052224427 -0.25641447
0001a0 b4 68 e8 be 90 4d b9 3e 38 ac 8e 3d d1 6a 44 3e
       -0.45392382 0.36191988 0.06966442 0.19181372
0001b0 ee ab 9c 3d 16 ee c3 3d 94 f4 53 bd f9 21 d3 be
       0.076499805 0.09566896 -0.05174692 -0.41236857
0001c0 42 84 57 be 0e 8c 87 3d 6e 36 3f 3e 35 84 9f be
       -0.21046546 0.0661851 0.18673107 -0.31155553
0001d0 51 06 80 be 2c 0e 35 be 42 f5 98 3e 6d 28 43 be
       -0.2500482 -0.17681187 0.29874617 -0.1905839
0001e0 03 e5 ca 3d 0b 59 b0 3e fa 93 a0 be 77 df 5f be
       0.09906962 0.34442934 -0.31362897 -0.21862589
0001f0 4b ba a7 be bf 96 5d be 85 27 da bd 07 82 9a bb
       -0.32759318 -0.21639536 -0.10652069 -0.0047152075
000200 19 d9 8a bd 90 59 a1 3e 52 b2 05 3e a5 29 fe 3d
       -0.06779689 0.31513643 0.13056305 0.12410287
000210 1a 56 4c 3e d8 e5 cf 3d d2 11 32 be aa 7f 4e 3e
       0.1995472 0.10151261 -0.1738961 0.20165887
000220 84 52 f4 3d 4a c2 08 be 14 6a 42 3e 5b df 8e 3d
       0.11929801 -0.13355365 0.18985778 0.069761954
000230 c3 90 b0 3e eb 60 58 bc f2 7d 99 bd 0b 36 4b be
       0.34485444 -0.013206701 -0.07494725 -0.19844835
000240 b0 31 36 be 7d e5 9a 3c 15 e4 e5 be 79 4a 64 be
       -0.17792392 0.018908257 -0.44900575 -0.22294034
000250 b3 26 ab 3d 6a 72 c4 be 66 91 9a 3e e3 c1 b9 3d
       0.08356991 -0.3836854 0.30189055 0.09070184
000260 64 9a 42 be be 44 6e be 03 9c 71 3c 16 b9 ba bc
       -0.19004208 -0.2326841 0.014746669 -0.022793334
000270 0b 9e f0 3d b6 0d ad be dc 72 7f 3e 5d d7 99 be
       0.11748894 -0.33799523 0.24946159 -0.30047122
000280 6d 6b 7e bd 2a 1c 8c 3d 0f 45 92 3e ad 41 29 be
       -0.062114168 0.06841309 0.28568313 -0.1652896
000290 47 1d a5 3e 72 03 d1 be 34 8c ba be da ec 09 3f
       0.322489 -0.4082294 -0.36435091 0.5387703
0002a0 4e 75 7e 3e 9f 33 8c 3d fe 9b 52 3e a3 f9 ed 3d
       0.24849436 0.068457834 0.20567319 0.1161988
0002b0 0d d7 01 3e 70 c7 b9 3e a2 60 8f 3e 68 61 30 be
       0.12679692 0.3628497 0.28003412 -0.17224658
0002c0 c4 79 d8 bd ec 63 45 be 46 0d 3c 3e 1c 75 9d bc
       -0.105701 -0.19276398 0.18364438 -0.019220881
0002d0 f1 5d cf be 6d b8 ff be e9 4d 8c 3e f8 3d 82 3c
       -0.4050136 -0.49945393 0.2740319 0.01589869
0002e0 13 94 be 3d 6d d4 84 bd f8 e9 49 bd 97 b9 08 bd
       0.09305587 -0.064858295 -0.049295396 -0.033380117
0002f0 cd 51 98 be 65 61 05 bf 52 9d 86 3e 01 5b 96 bd
       -0.2974991 -0.5210174 0.262919 -0.07341576
000300 1d d6 8d 3e c7 b4 c1 bc 2a 46 28 3d 00 82 7f 3c
       0.27702418 -0.023645772 0.04108254 0.015594959
000310 61 59 87 3e 9c f7 67 be 2a a3 41 be c5 23 cd bc
       0.26435378 -0.22653049 -0.18909898 -0.02504147
000320 05 3c f4 3d 97 02 a8 3d b2 4d aa be b5 52 f3 3d
       0.1192551 0.08203619 -0.33262402 0.118810095
000330 b6 13 82 3e 83 20 64 3e 19 81 0d be 1a 8d 57 be
       0.25405663 0.22278027 -0.13818778 -0.2104992
000340 60 67 b7 bd be 28 83 3e 9a bf 80 be c1 49 ae bc
       -0.08955264 0.2561702 -0.2514618 -0.021275403
000350 44 82 dd be cf 3b 99 be 97 32 54 3d 27 7f a8 bc
       -0.43263447 -0.29928443 0.05180606 -0.020568443
000360 cf 99 2c bd 89 c2 9e 3c 1e cd 17 bd 91 d9 c8 bd
       -0.04213887 0.019379871 -0.03706085 -0.098071225
000370 0b 9d a7 be bc 13 3c be 26 06 d3 3e fd e2 c4 bd
       -0.32737002 -0.18366903 0.41215628 -0.09613607
000380 2a 93 b4 be a6 1d 98 bd 9e dd 94 bd 22 35 a3 3b
       -0.35268527 -0.0742753 -0.072688326 0.004980699
000390 5c 3f 93 bd 7a 46 1b 3e c9 22 4e 3c bb 4e 73 3e
       -0.07189819 0.15163603 0.012581536 0.23760502
0003a0 fb 3e 60 3e 72 af b7 bd 0f 60 b2 be e4 a8 6c 3e
       0.21899025 -0.089690104 -0.34838912 0.23111302
0003b0 e8 49 2a be 7b 70 e5 3c 42 96 8a 3e 43 2c 8c bd
       -0.16629755 0.028007736 0.27067763 -0.0684438
0003c0 5e fc a8 3e 63 36 b9 bd 75 e2 b7 be f0 80 53 3e
       0.3300504 -0.090435766 -0.3591496 0.20654655
0003d0 e0 ea 6f 3e 71 6e 88 be 51 a3 36 3d 7c 95 1f bf
       0.23429441 -0.2664676 0.044589344 -0.6233747
0003e0 dd 3a ab be 39 30 89 be fc 7f a6 3c 2e 98 63 3e
       -0.33443347 -0.26794603 0.0203247 0.2222602
0003f0 92 38 ee 3d 17 06 20 bf e2 c8 99 be 56 01 7f 3d
       0.11631884 -0.6250929 -0.30036074 0.062257133

linear2.bias f4 [256]
000000 2f c1 6f be f5 72 ea bd 50 00 98 3e d7 c0 0b 3e
       -0.23413537 -0.114477076 0.29687738 0.13647781
000010 45 b7 62 3d 1f 31 10 be 86 aa 75 3e cb 16 7c bd
       0.05535056 -0.14081238 0.23990831 -0.061545175
000020 05 40 1e 3f e8 cc a7 be 1a a7 c4 be cd 44 96 be
       0.61816436 -0.3277352 -0.38408738 -0.29349366
000030 9a 03 8b bd 99 56 b4 bd e4 f0 af bb 27 af 05 be
       -0.06787796 -0.0880558 -0.0053692926 -0.13055097
000040 23 6a 6e bd 08 48 34 bf e3 fb 55 3e b2 c8 27 3e
       -0.05820669 -0.7042241 0.20896868 0.16385153
000050 8c d2 99 bd 21 f9 8c 3e 25 eb 27 3e 9c 4d 36 bf
       -0.07510862 0.2753382 0.16398294 -0.7121217
000060 25 0e a4 3c 0d 1e 12 3e 71 b3 ed be 3c e1 77 3c
       0.020026276 0.14269276 -0.46425965 0.015129384
000070 e1 99 48 be 55 08 2f 3e c6 09 1f bf 67 cd 5d bd
       -0.1958995 0.17093022 -0.6212429 -0.054150965
000080 c0 43 35 bd c3 c5 0b bf 47 81 fa 3c 9f e4 1e bf
       -0.044254065 -0.54598635 0.030579222 -0.620676
000090 e3 89 95 3e 94 67 da 3e e7 4b 9d 3e c4 eb 14 3e
       0.29206762 0.4265715 0.3072197 0.14543062
0000a0 0e e1 68 3e f6 15 80 3e 19 0a 87 be 96 8e a9 be
       0.22742102 0.25016755 -0.2637489 -0.33116597
0000b0 da df 3c bc b7 86 46 3c 79 94 cd 3e 6a f2 35 3e
       -0.01152798 0.012117079 0.40152338 0.17768255
0000c0 6e ff 26 be dd 8e a2 be 50 0c 66 3e b8 8a 06 3e
       -0.16308376 -0.3174962 0.22465634 0.13138855
0000d0 ec f8 ac 3e 65 dd 84 3d 9d 0e e0 3d 2e dc 93 bd
       0.33783662 0.0648754 0.10940287 -0.0721973
0000e0 ab f0 ab bd 5d 7a 7e 3d 41 aa 02 bf eb 56 02 bc
       -0.08395513 0.062128413 -0.51041037 -0.007955293
0000f0 c2 14 34 3e 74 1c d1 3e 81 02 32 be 05 83 65 3f
       0.17586043 0.4084202 -0.17383768 0.89653045
000100 1c 90 a5 3e d1 7f 84 be 4b 81 1d 3e 3d d2 5d 3e
       0.3233651 -0.25878766 0.15381353 0.21662231
000110 71 cd d8 bd d1 74 e9 3e 44 cf b1 bd b6 37 29 3c
       -0.1058606 0.45596936 -0.08682111 0.010328224
000120 46 6c 30 3e d5 de 04 3f bd 0b 13 3d 37 cf 5a bf
       0.17228803 0.51902515 0.035899866 -0.85472435
000130 f8 8e b9 bd 25 a4 84 3e 41 f2 b4 bc 57 2a 53 be
       -0.09060472 0.25906482 -0.022088172 -0.2062162
000140 e7 ef b2 3e e2 98 e3 3d 89 06 38 be e3 71 96 bd
       0.34948656 0.111131445 -0.17971243 -0.07345941
000150 2f 31 bb 3e c3 6d 6f bd 87 ce 81 3e 5a 8c 91 3e
       0.36560962 -0.058454286 0.2535288 0.28427392
000160 44 d7 a8 3e 81 8e b0 3e c6 39 8a bd 8d 05 eb 3b
       0.32976735 0.34483722 -0.06749301 0.0071722926
000170 79 63 76 3e 48 cf 6f be f9 a3 16 bd 84 ff 9b 3e
       0.24061383 -0.23418915 -0.03677747 0.3046838
000180 ba e2 b5 3d 88 98 17 bf a3 4d 14 3e 85 7d 0d 3d
       0.08881135 -0.5921712 0.14482741 0.034543533
000190 48 fe 02 be f3 90 12 3e 6d e9 04 bf 1e 5b 80 3e
       -0.12792313 0.14313106 -0.5191868 0.25069517
0001a0 aa d6 fb 3d 17 ef 33 be 50 f2 f0 3e a0 4f 59 3e
       0.12296803 -0.17571674 0.4705987 0.21221781
0001b0 f2 52 02 be 31 0d 97 3c 46 db b6 be 53 20 76 be
       -0.12726954 0.018438907 -0.35714167 -0.24035768
0001c0 41 81 2c 3d c1 50 86 bb 50 e9 6b 3e 4e 48 04 3e
       0.042115454 -0.004098982 0.2303822 0.12918207
0001d0 ba dc 07 3e c9 84 8c be 0b 79 4a 3e 26 1f 9a 3d
       0.13267794 -0.27445057 0.19772737 0.07525472
0001e0 47 a5 38 3d ef a5 1c 3e d4 b2 5a 3e df 79 07 be
       0.045079496 0.15297674 0.2135728 -0.13230084
0001f0 dc 03 38 3e 13 62 07 bc 6e 4b 1e bd a0 ae 5f 3e
       0.17970222 -0.008263129 -0.038646154 0.21843958
000200 6c 10 9e bd 0c 88 ed be ed f3 ae be 47 80 7e 3e
       -0.07717976 -0.46392858 -0.34170476 0.24853621
000210 59 18 ed 3e a0 3b e9 be 58 10 b4 be 86 9c 6e 3e
       0.46307638 -0.45553303 -0.3516872 0.23301896
000220 57 2c df 3e 77 95 bd 3e 92 18 0e 3d 3f c9 2e 3e
       0.43588516 0.37028095 0.0346914 0.17068957
000230 9c ea 3e 3e 32 f7 ad 3e 1b b1 98 be 3a 61 f7 bd
       0.18644184 0.33977658 -0.2982262 -0.12079091
000240 72 d2 9f 3e 34 a6 30 be a2 6f 77 3c b9 47 95 bd
       0.31215245 -0.17250901 0.015102299 -0.07289071
000250 3e e4 c3 be 06 40 92 be 90 53 8d bd 80 11 19 bf
       -0.38260072 -0.2856447 -0.06900704 -0.5979233
000260 2c af aa 3e d9 0c 36 be f2 b6 15 bc 13 c2 3d bd
       0.3333677 -0.17778338 -0.009137856 -0.04632766
000270 b8 f6 78 3e 4c 84 c2 3e 82 79 97 be a9 77 79 be
       0.24312866 0.3799156 -0.2958489 -0.24362053
000280 31 c3 9e 3e 5c cb 48 3d 10 a0 d1 3e 94 ba a9 be
       0.31008294 0.049022064 0.4094243 -0.3315016
000290 e2 7f 10 bf 93 84 f9 bd 50 18 ba bd a6 9f 1d be
       -0.56445134 -0.1218349 -0.090866685 -0.15392932
0002a0 b5 b6 65 bd 64 b0 ba 3c 79 c4 93 be 19 56 8b be
       -0.056082446 0.022789188 -0.28860834 -0.27214125
0002b0 43 c7 93 3d 6f 90 ea 3d 03 84 a8 3e 29 86 9d 3d
       0.072157405 0.1145333 0.32913217 0.07691605
0002c0 ed e2 89 bd fc b4 e2 bd ae 40 54 bb 88 80 4a be
       -0.06732736 -0.11069676 -0.0032387185 -0.19775593
0002d0 98 f1 42 be 1e 28 1d bd 3d d7 ef bd 70 d7 b8 be
       -0.19037473 -0.038368337 -0.11710975 -0.36101866
0002e0 bf 86 83 3e ae f7 72 bd 14 7e 13 3e ce f8 8f 3e
       0.2568874 -0.059318237 0.14403564 0.2811951
0002f0 bb 07 c2 3d 0c e1 aa 3d 8f 7c 85 3e 17 df 25 3d
       0.09474131 0.083437055 0.26071593 0.04049596
000300 bd 1c a1 3e 19 d4 de 3d c6 6b bf 3e f9 20 14 3f
       0.31467238 0.10880298 0.37386912 0.5786281
000310 7b 74 9e bc 82 ec 53 3e 20 71 bd bd 7e d2 2a 3e
       -0.019342652 0.2069569 -0.092500925 0.16681859
000320 87 a6 5e 3e c7 d2 96 bd 79 c8 11 3e a9 e0 42 bc
       0.21743213 -0.07364421 0.1423663 -0.0118943835
000330 99 86 c7 bd d2 1e 96 bd 09 ab 1a bd 16 6d d5 be
       -0.09742469 -0.07330097 -0.037760768 -0.41684788
000340 12 bd f7 be c6 76 91 3e af bd 4c be 90 31 35 3d
       -0.48386437 0.2841093 -0.19994234 0.04423672
000350 e0 cd d5 3e 04 f2 40 bd 73 92 ac 3e ee 18 b4 be
       0.41758633 -0.047105804 0.33705482 -0.3517527
000360 cf 5c 78 3c bf 27 1c bd 3a f1 8c bd 6b 50 b5 3e
       0.015158846 -0.038123842 -0.06881948 0.35412917
000370 78 a9 4a 3e 59 20 90 3d f3 aa af 3b 22 0c bf bb
       0.1979121 0.0703742 0.005360955 -0.0058303038
000380 17 9f ab 3e 36 68 21 bd b4 71 0b bf 0b 8c f2 3e
       0.33519813 -0.039406024 -0.5447037 0.4737247
000390 55 f2 07 be 74 a3 d4 3d 6a 8d 05 3f 72 b7 1f be
       -0.13276036 0.10382739 0.52168906 -0.15597323
0003a0 7f 78 9c 3e 40 4d 76 bd 03 65 92 3c e9 43 48 3e
       0.3056068 -0.060132265 0.017870432 0.19557156
0003b0 be 7d a7 bc dc 83 7e 3e 8e 4d 79 3d 67 5c 8c bc
       -0.0204457 0.24854988 0.060864978 -0.017133905
0003c0 2c 25 34 3e 68 d8 3b bd af 96 f8 bd dc da 44 be
       0.17592305 -0.045860678 -0.121381156 -0.19224113
0003d0 22 28 be 3e 33 4d 06 bf de a7 c9 be dd 45 97 be
       0.37139994 -0.52461547 -0.39385885 -0.2954549
0003e0 88 fd 41 be 23 e7 c5 be f0 fd 32 bd c1 f4 ab bd
       -0.18944371 -0.38652906 -0.043699205 -0.083962925
0003f0 f6 b8 81 3c 63 17 04 bf e8 8c 9f bd 86 be b4 be
       0.015835267 -0.51598185 -0.077905476 -0.35301608

mean_linear.weight f4 [12, 256]
000000 17 6c 54 3e d9 61 3a 3e 8c 89 8e 3e e4 95 61 3e
       0.20744358 0.18201388 0.27839315 0.22029835
000010 5f 92 56 3d 2a b5 74 3d fc 48 90 bd e3 49 a0 3c
       0.052385684 0.059743084 -0.07045171 0.019566482
000020 10 8d 06 3d 50 72 cf be 2f fb 9e be 19 9b 4d 3e
       0.03284937 -0.405169 -0.31051013 0.20078696
000030 37 dd e3 be ad 3c 75 3c 4b c3 db be aa 3e a7 be
       -0.4450471 0.0149680795 -0.42922434 -0.32664996
000040 20 3a 97 3d b4 9c 2b 3e fd ed c1 3c 3b 22 2c be
       0.07384133 0.16758996 0.023673052 -0.16809933
000050 18 78 08 3d 42 6e a4 3e c6 fb 4e be 48 66 4a be
       0.033317655 0.3211537 -0.20213231 -0.1976558
000060 3b 85 42 3e ae f4 11 3e d2 0e 46 be 50 90 6f bd
       0.18996136 0.14253494 -0.19341591 -0.058487236
000070 db 9c b3 be 7b 31 29 3e f6 d5 ca be 24 f2 13 bb
       -0.3508061 0.16522782 -0.39616364 -0.0022574747
000080 89 af 0f be 5d 48 65 bd 7c 73 69 3d c2 5e 81 bd
       -0.14031805 -0.055977214 0.0569949 -0.06316902
000090 c8 2d a5 3e 86 25 a2 3e 26 43 91 3e 70 d3 c2 3c
       0.3226149 0.31669253 0.28371543 0.023782462
0000a0 5f d1 3a 3e 83 16 25 3d 71 1a 1c be c4 7f 96 3e
       0.18243931 0.040304672 -0.15244462 0.29394352
0000b0 e1 18 24 bd 3c ec 0f 3e 96 6d cc 3d 70 11 0c 3d
       -0.04006279 0.1405496 0.09981839 0.034196317
0000c0 5d 44 22 bf 2c 04 20 be 09 ce d5 be 73 e8 16 be
       -0.63385564 -0.15626591 -0.41758755 -0.1473711
0000d0 6c d5 9c 3d ba 0a 16 3e d0 97 95 3e 0f 81 24 3d
       0.076578945 0.1465253 0.29217386 0.040162142
0000e0 6e d5 8e 3b de 0e a8 3d 02 55 38 bf 88 2b 20 3e
       0.004358939 0.08205961 -0.7200471 0.15641606
0000f0 8d 09 32 3e f6 14 67 3e d9 8d 84 3e 93 0c de bc
       0.17386456 0.2256659 0.2588947 -0.027105605
000100 0c 1e 40 3e 1b 58 3e be 97 07 75 bd 4e 54 81 3e
       0.18761462 -0.18588297 -0.05982169 0.25259632
000110 04 48 cc be a6 ac 9e 3c 32 ea 09 bd 86 30 2e 3e
       -0.39898694 0.019369435 -0.03367061 0.17010698
000120 ee 8a a1 3e bf f7 b7 3d 94 8d 5a 3f 87 be c3 3c
       0.31551307 0.08982801 0.8537228 0.023894561
000130 d3 34 5a 3e d1 8c 25 3f 44 6c 77 3d e7 30 32 be
       0.21309213 0.64667994 0.060405985 -0.17401467
000140 25 6b 6a be b0 26 8f 3e 4d 83 6b 3d 1b 93 00 3d
       -0.22892435 0.27959204 0.057498265 0.03139029
000150 9d de dc 3e 56 5c 45 3b 42 d2 1b be 9d 98 cb bd
       0.4313859 0.003011485 -0.15216926 -0.09941218
000160 71 f5 4c 3e 2d 7f 5c 3b e0 d2 11 3c df 13 cf 3c
       0.20015503 0.0033645139 0.008900374 0.02527803
000170 64 4c df bc 94 44 48 be ac ce e4 3a 72 bd 64 3d
       -0.027258106 -0.1955741 0.0017456613 0.05584473
000180 aa 84 9e bd 8e d0 22 bf 34 3c 9c be b2 dc df 3e
       -0.077401474 -0.6359948 -0.3051468 0.43723065
000190 4d 85 b4 3e e0 6f a0 3d 3b a0 a7 bd fd 2c 97 3e
       0.3525795 0.078338385 -0.081848584 0.2952651
0001a0 93 6e cb 3e d9 c6 78 be 83 4f 82 3e 92 16 0b bd
       0.397328 -0.24294604 0.25451288 -0.03395707
0001b0 eb 19 0f bc 68 bb e0 3e c1 8c a7 be b8 4e 52 be
       -0.008734207 0.4389298 -0.32724574 -0.20537841
0001c0 b5 43 0f 3d a1 6e 06 3e fb 48 39 3e fe 15 c8 bd
       0.03497668 0.13128139 0.18094246 -0.0976982
0001d0 ba 49 db 3d 2e 10 40 3c d5 1a 07 bd 68 6f 8d 3c
       0.107074216 0.011722608 -0.032984573 0.017265037
0001e0 56 70 c4 3d 63 16 9a 3e 12 ff 59 3e 42 6e fb 3b
       0.09591739 0.30095205 0.21288708 0.007673056
0001f0 a9 0f 41 3c 4b 18 82 bc a4 6f 31 3d 81 af 9b 3e
       0.011783519 -0.015880724 0.04331936 0.30407336
000200 7a 79 79 ba cf 74 31 3e 59 cf e9 bd 6b 04 92 3d
       -0.00095166976 0.17329715 -0.114165016 0.07129749
000210 be 40 ee 3d eb 75 35 3d 9b 96 92 be 39 04 2a 3e
       0.11633442 0.04430191 -0.28630528 0.16603173
000220 23 89 9d 3e 6c df be 3d 1d de 7d 3c 4c 6c 0b bd
       0.3076869 0.09319958 0.01549485 -0.034038827
000230 44 d4 cd 3c e9 21 43 3e 1b f3 6d be 38 af 5f bb
       0.02512563 0.19055904 -0.23237269 -0.0034131538
000240 c5 96 31 bd cc ab a5 be 17 57 09 be bb 3c 21 3e
       -0.043356676 -0.32357633 -0.13412128 0.15745823
000250 ff 1c 11 3e 1c e4 3c 3d 0d ed 30 bb 8c 3a a8 be
       0.14171217 0.04611598 -0.0026996762 -0.32857168
000260 3f d4 b0 3d 4c 5f d4 3c 61 34 6b 3d be 8f ea 3b
       0.08634233 0.025924347 0.057423 0.0071582487
000270 f8 95 05 3e b3 bc 58 bd 62 98 33 bd bd a8 c7 be
       0.1304549 -0.052914333 -0.043846495 -0.38995925
000280 54 1d 3b be c5 b5 98 3e ac 90 3e 3e de 2c 16 bf
       -0.18272907 0.2982618 0.18609875 -0.5866221
000290 11 3f 07 be 5d cc 06 be 76 78 3b 3d e4 d1 b8 ba
       -0.13207652 -0.13163896 0.045769177 -0.0014100638
0002a0 58 e5 8c bc a9 49 b3 3e 74 f7 8b bc 30 78 c0 bd
       -0.017199203 0.35017136 -0.017085768 -0.09397924
0002b0 86 66 a5 be 3b 06 53 be b1 33 ba 3d aa 49 82 3e
       -0.32304782 -0.20607845 0.090918906 0.25446826
0002c0 b4 b4 d9 bb 6d c0 e0 bd fe ab d4 3d 86 1b 8d 3e
       -0.006643856 -0.10974202 0.103843674 0.2756006
0002d0 e4 ad 69 bd f8 92 3c bf 8e 20 c7 bd 96 2c df 3d
       -0.0570506 -0.73661757 -0.09723006 0.10897176
0002e0 1e 43 0d 3f 4c fe 56 3e 87 b6 98 be 9a 3e c3 3e
       0.5518054 0.20995444 -0.29826757 0.381337
0002f0 da 99 b3 3d fb c9 f4 3b e7 7c f3 bc 1b 4e 04 bf
       0.08769579 0.007470367 -0.029722644 -0.5168168
000300 f9 b3 33 3e 0f 12 2c 3f 92 74 29 be e1 f9 7c 3e
       0.17549123 0.67215055 -0.16548374 0.24704696
000310 b8 43 cd 3c dc 1e 09 3e ce bc 7b bd b1 5f 2f bc
       0.025056705 0.13390678 -0.061459355 -0.010703967
000320 68 7a 86 bd bc ec 6d 3b 76 ae 99 be ba 79 6a be
       -0.06566316 0.0036304435 -0.30015916 -0.22897997
000330 ef 3d 8d 3b c1 12 85 bd 44 03 05 3a f9 72 5e 3c
       0.0043103616 -0.06497718 0.0005074034 0.013577216
000340 ab cf 7a be 1b 15 66 be 9e 34 04 bd 1b 56 12 be
       -0.24493282 -0.22468989 -0.032276742 -0.14290659
000350 ae b6 49 3e de 8f 4b bc 17 ad ed 3e 42 3b e4 be
       0.19698593 -0.012424437 0.4642112 -0.4457646
000360 72 26 7a 3e 43 c3 39 3c 70 c3 8d 3d 29 cd b0 3e
       0.24428728 0.011338058 0.06922042 0.34531525
000370 e9 14 84 3d c7 0a aa bd 02 8d 55 3d b7 00 25 3e
       0.06449301 -0.08302837 0.05213643 0.16113554
000380 db f3 99 3d 86 da 98 3d 4d dc 0d bf 2d 32 17 3e
       0.07517215 0.07463555 -0.5541428 0.14765234
000390 c5 77 72 be 1f c3 be be 78 8c 5c 3e 54 ca 3b 3e
       -0.23678501 -0.3725824 0.2153796 0.18338901
0003a0 df 73 30 be dc 00 0f 3e fd ea e1 bd de dd 14 be
       -0.17231701 0.13965172 -0.110311486 -0.1453776
0003b0 13 ab 1e be 15 8b a5 be b3 32 90 3e b7 79 2f be
       -0.15494947 -0.32332674 0.2816368 -0.17136274
0003c0 d5 7f 10 3e 72 36 3d 3d 0a 76 4f 3e 99 73 76 be
       0.14111264 0.0461945 0.20259872 -0.24067535
0003d0 73 5b 94 3e d1 7c 8d be a5 92 ad be 54 29 27 3e
       0.2897602 -0.2763429 -0.33900943 0.16324359
0003e0 9f 5b 4a be 5d bf d6 be 38 af 51 3d b6 6d 79 ba
       -0.19761513 -0.41942874 0.051192492 -0.00095149444
0003f0 04 ba 18 bd 5a 1a 91 be 22 75 2a 3e 80 ab 03 3d
       -0.037286773 -0.28340417 0.16646245 0.032145977

mean_linear.bias f4 [12]
000000 80 15 82 3e 22 15 94 3f d2 23 fe be 36 48 32 3e
       0.25407028 1.1568949 -0.49636704 0.17410359
000010 96 ea da be c5 9b 57 3e b8 d0 26 be c7 22 8e bb
       -0.427571 0.21055515 -0.16290557 -0.004337642
000020 d2 07 88 bf 07 36 f1 3d 03 59 bd be 37 41 a2 3e
       -1.0627387 0.11777883 -0.36981973 0.3169038

log_std_linear.weight f4 [12, 256]
000000 c9 bb d9 bd 8d c7 4d bd af 9d f8 bc 89 1c 2f be
       -0.1063152 -0.050239135 -0.030348627 -0.17100729
000010 83 9f 39 be 62 37 c6 bd 8f 7f ad 3d 0b a3 20 bb
       -0.18127255 -0.09678532 0.084715955 -0.0024511244
000020 ed 62 19 3d 67 0e 32 3e 77 41 27 bd 79 8c a7 3d
       0.03744786 0.17388307 -0.040833917 0.0818109
000030 1f 2d 19 3d 26 e1 35 bc 07 7c 72 3c fe fa c9 bd
       0.037396546 -0.011101043 0.014800078 -0.09862326
000040 32 ee 34 bd 00 af 2f bc 41 4f 20 3d 70 48 46 3d
       -0.044172473 -0.010722876 0.039138082 0.048408926
000050 c7 04 ee 3c 0b 16 89 bd 6f 0a 94 bd ef ab e8 3c
       0.029055012 -0.066936575 -0.072285526 0.028402297
000060 f5 b9 a2 bd 74 b4 b6 bd 94 d3 82 bc 64 bf 30 be
       -0.07945625 -0.089211375 -0.015970029 -0.1726051
000070 6f c8 59 bc 3a d9 0d bd e6 2b d9 3d f5 9a 93 bb
       -0.013292416 -0.03463099 0.10604076 -0.0045045563
000080 4b c7 8c bd 04 8c e5 bc 2f dc 02 be 67 d5 c8 3c
       -0.068739496 -0.028020866 -0.12779306 0.02451582
000090 b4 fb 99 bd ff 11 7b bb 79 1d 8c 3c 7e a2 f9 3c
       -0.07518712 -0.0038310287 0.017103897 0.03047299
0000a0 02 e0 8a bd 9c 85 02 3d 19 3c 99 3e d9 ce ae bd
       -0.06781007 0.0318657 0.29928663 -0.08535547
0000b0 5a 4e b3 3a 8b ad de 3b c3 98 3b 3c 9f fb a0 bd
       0.0013679967 0.0067955903 0.011449995 -0.07860493
0000c0 3c be 98 3d 9d 0f 39 bc 70 fd fa 3c 4d 23 07 3e
       0.07458159 -0.011295226 0.030638427 0.1319706
0000d0 4f e4 9a 3c 05 1a aa bb ff e7 06 3d ce e0 4b 3c
       0.018907694 -0.00519109 0.032936092 0.012443734
0000e0 c0 22 a6 bb 6b 77 ba bc 1e 4d 02 3e 70 87 45 be
       -0.0050700605 -0.022762021 0.1272473 -0.19289947
0000f0 99 f5 19 3d 6d b7 9a 3d ac 49 ac 3b 7a 11 eb bd
       0.037587736 0.07554517 0.005257806 -0.11477943
000100 4f 42 d0 3a 2b 2d 3f be ef 69 df 3d b4 02 c2 39
       0.0015888902 -0.18669574 0.10908877 0.00037004577
000110 10 68 eb 3d 0b 01 b0 bc 0a a8 19 39 a8 40 37 3f
       0.11494458 -0.021484872 0.00014653816 0.7158303
000120 a5 10 ea bd 89 c1 93 bb 8f 43 37 3e ab 87 95 bd
       -0.11428956 -0.004509155 0.17896865 -0.07301267
000130 39 ae e3 bd 27 5a 2b 3e ce 0f 5b bd 8b 9f de bc
       -0.11117215 0.16733609 -0.05348187 -0.027175685
000140 dc 5e 7b 3c b0 8e c1 3d 5e e1 90 3c e5 34 5c be
       0.01534244 0.094510436 0.017685588 -0.21504553
000150 6b 90 13 3e 8b b2 da ba 3b 56 55 bd 51 b4 e1 bc
       0.1441056 -0.001668529 -0.05208419 -0.027551802
000160 0b 74 bb 3d 89 bb 3b bc 7e 15 a5 bc 6f f0 97 3b
       0.09152993 -0.011458286 -0.02015185 0.004636816
000170 30 70 e4 bc b1 19 b6 bd 9e 21 42 bc 9c be 25 3d
       -0.027885526 -0.08891619 -0.011848835 0.040464982
000180 6a b0 b7 3c 5e b0 39 bc 9c 73 77 bd bb ca a7 bd
       0.022422988 -0.011333553 -0.060412988 -0.08192965
000190 ac 1a 19 3c 03 32 a3 bd f6 d3 9c 3d 1e d2 f3 bc
       0.009344738 -0.07968523 0.07657616 -0.029763278
0001a0 0d af 3e bd 05 f0 4e bb 9e 36 d8 3d f1 7d ec bd
       -0.04655366 -0.0031576168 0.105572924 -0.11547459
0001b0 22 a1 66 bc 4d aa 80 3d 3f 95 eb bd 18 f7 b1 bd
       -0.014076503 0.06282482 -0.11503076 -0.086897075
0001c0 67 56 b5 bd 06 26 90 bd 82 08 90 bd 99 e7 a5 bd
       -0.088543706 -0.070385024 -0.07032873 -0.08100814
0001d0 b8 a1 c5 bb 97 a4 38 3d 3d 78 8d bc c6 c9 2b 3d
       -0.0060312413 0.04507884 -0.017269248 0.041940473
0001e0 8a 9e 05 3c 2b ce 69 bd 3d 9e 96 bd df 3f 81 be
       0.008155474 -0.057081383 -0.073544 -0.25244042
0001f0 fd b3 26 be 2f 1a a4 bd 8c 33 19 be 4d cc 07 be
       -0.16279598 -0.080128066 -0.1496107 -0.13261528
000200 ea 40 68 bc 40 8a ae bd af 24 27 bd b8 15 8b 3d
       -0.014175633 -0.08522463 -0.04080647 0.06791252
000210 da 01 9f bc 59 88 02 be 1c 83 ea bd c7 f8 c3 bd
       -0.019410063 -0.12747325 -0.114507884 -0.09568935
000220 dd 7c 8e 3e a1 92 b7 3c 89 3c 39 bd d6 32 0e bd
       0.27829638 0.022408785 -0.045223746 -0.03471645
000230 db e4 b4 3d 1a 77 14 be 5d 30 85 bd 23 6f 13 3d
       0.08832713 -0.14498559 -0.06503365 0.03599466
000240 11 89 78 3d 0b 1c 9c bd 93 6a b5 bd 03 11 9f bd
       0.06067759 -0.07622536 -0.08858218 -0.077669166
000250 c9 d7 b2 bd 10 8c c2 3d 4b 9d 2a be 3a a6 03 bd
       -0.08732564 0.09499371 -0.16661565 -0.032140948
000260 dc 44 79 bc c7 24 05 3e 22 2d 0e 3e 8c 8e 01 bd
       -0.015214171 0.1300231 0.13884404 -0.031630084
000270 ed 53 53 ba b9 e5 68 3c 9d b8 ba bd fc 33 23 3e
       -0.0008061517 0.014214926 -0.091172434 0.15937799
000280 93 c7 96 bd 76 88 ec bd 32 8f 5d 3d b9 89 f0 3b
       -0.073622845 -0.11549465 0.05409164 0.0073406366
000290 41 27 95 bc 45 b8 40 bc 62 40 9b 3d c6 9f 93 bd
       -0.018207194 -0.011762683 0.075806394 -0.07208209
0002a0 63 92 eb bd 4c 57 cb 3b 45 57 28 bd d7 df d2 3c
       -0.115025304 0.006205475 -0.04109885 0.0257415
0002b0 24 e3 ba bc 37 19 60 3c c0 6f 8f bd f3 7e 8d bd
       -0.022813387 0.013677887 -0.070037365 -0.06908979
0002c0 b6 a3 72 3a d2 69 1d 3b 81 8c 60 bd ea 5c 1b be
       0.0009255962 0.0024019373 -0.054821495 -0.15172163
0002d0 8d a8 bb bc 4f 15 79 3d 63 7a 70 bc 01 44 a2 bc
       -0.02290752 0.060811337 -0.014677617 -0.019807817
0002e0 f9 be c9 3c 51 5c 9a bc f6 77 2b 3d 16 1f 36 be
       0.024627196 -0.018842848 0.04186245 -0.17785296
0002f0 8e 7a c9 bb f9 f6 8e bd f9 a2 be 3c e3 16 71 bc
       -0.006148643 -0.069807 0.02327107 -0.014714929
000300 77 06 6e bb 48 44 bb bd fa 8d b2 3c 48 cc fa 3d
       -0.0036319771 -0.09143883 0.021796215 0.12245995
000310 0a a7 97 3b 71 80 0d 3e 8e f4 48 bd 87 54 82 bd
       0.004628067 0.13818528 -0.04906135 -0.063637786
000320 5c f8 8a 3b 27 ff a7 ba 51 2d 31 bb 44 ef 35 bd
       0.0042410325 -0.001281713 -0.0027035067 -0.044417635
000330 d8 71 d8 bb 5e 83 07 be 8d 7a ef bc 03 d6 f4 3c
       -0.006605368 -0.13233706 -0.029233241 0.029887205
000340 c0 5c 9c bd 10 a0 ec bd 79 ee 2c 3e 14 e4 98 3d
       -0.07634878 -0.11553967 0.16887845 0.074653774
000350 d1 3f b3 3a 39 c5 11 bc 0a 5a a3 3d 16 c4 af 3c
       0.0013675635 -0.008897119 0.07976158 0.021455806
000360 ec 10 8f bd 52 92 31 3b 35 64 7a bd 6b 1f 0f bd
       -0.069856495 0.002709527 -0.06113072 -0.034942072
000370 dc 25 42 3e 73 37 ea bc 18 ce 5e bd 7b 57 2a 3e
       0.18959755 -0.028590893 -0.054395765 0.16634934
000380 d3 b5 91 3d d9 0f bd bd 59 cc 4e 3e 0d 1a 8e bd
       0.07114758 -0.09231538 0.2019514 -0.069385625
000390 33 b2 07 3d e3 ed 98 3d 01 77 ee 3d b9 0b c3 3c
       0.03312893 0.07467248 0.11643792 0.0238093
0003a0 4f 8c eb bc 93 3d d6 bd df f8 e6 3a ea 3f 92 3c
       -0.028753428 -0.10460963 0.0017621777 0.017852742
0003b0 0a 4e 3b 3d 50 e7 23 3c ce 82 f1 3d 02 7f 81 3d
       0.04572872 0.01000388 0.11792527 0.06323053
0003c0 57 2b 13 be 2f 77 29 bd 15 38 92 bd a4 9f fd 3d
       -0.14372002 -0.041373428 -0.07139603 0.12383965
0003d0 df 77 d3 3d d5 41 0f 3d 81 27 68 3e 4c 9e db bc
       0.10325598 0.03497489 0.2267132 -0.02680888
0003e0 f9 cc 65 3c e8 08 90 3d bb e7 ba bb 2c e5 f6 3a
       0.01402592 0.07032949 -0.005703894 0.0018836609
0003f0 c9 95 e8 3b 23 cb 1a bd ab 13 a2 3c b9 2a 5d bd
       0.007097934 -0.037791383 0.019784769 -0.05399582

log_std_linear.bias f4 [12]
000000 9d cc 9f be cc d6 87 bf 9a df 03 bf 62 75 77 be
       -0.31210795 -1.0612426 -0.51513064 -0.24165872
000010 7f 0e ee be 42 21 58 bf cf 90 f7 be cb a7 c4 be
       -0.46495435 -0.8442575 -0.48352668 -0.38409266
000020 86 ad 1f bf dd 3e d0 be f2 4b 0b bf 9e ad 0f bf
       -0.6237415 -0.4067296 -0.5441276 -0.56124294
