policy3.pth (torch, 335680 bytes, 8 tensors)

linear1.weight f4 [256, 43]
0	0xbf3660b7	-0.71241325
1	0xbd80e722	-0.06294085
2	0xbf55a719	-0.83458096
3	0xbe5a096c	-0.21292657
4	0x3dd2a6cb	0.102857195
5	0xbb9bd4f5	-0.004755611
6	0xbea14ab0	-0.31502295
7	0x3e0836e8	0.13302195
8	0xbe572a94	-0.21012336
9	0xbe3bc984	-0.18338591
10	0xbe7a1861	-0.24423362
11	0xbd75d1af	-0.060014423
12	0xbf4bb42b	-0.7957179
13	0xbed39c9f	-0.4133043
14	0x3e174327	0.1477171
15	0xbf11ebd2	-0.5700046
16	0x3fb92293	1.4463676
17	0xbb6274b5	-0.0034554426
18	0xbf15ae7e	-0.5846938
19	0x3db988cc	0.09059295
20	0x3d277f86	0.0408931
21	0x3eafcb84	0.34334958
22	0xbe442779	-0.19155683
23	0xbd71c092	-0.05902154
24	0xbde0563e	-0.109539494
25	0xbe996379	-0.29958704
26	0x3c276198	0.010216139
27	0x3d4d7c82	0.050167568
28	0xbdfe90b8	-0.12429947
29	0x3e975de3	0.29563817
30	0x3e516135	0.20447238
31	0x3e3b8fcf	0.18316577
32	0x3e207f70	0.15673614
33	0x3d84a109	0.064760275
34	0x3dd67e27	0.104732804
35	0x3eb0620e	0.3444981
36	0xbe766583	-0.24062161
37	0x3f21244e	0.6294602
38	0xbf1bca7e	-0.60855854
39	0xbe9b062c	-0.30278146
40	0x3f918bbe	1.1370771
41	0x4004aea0	2.0731583
42	0xbe12abe2	-0.1432338
43	0xbecf1f0d	-0.40453377
44	0x3e25c6d0	0.16189122
45	0x3bdf6389	0.0068172854
46	0x3da1e6e4	0.07905367
47	0xbdf91477	-0.121621065
48	0x3e97317a	0.29529935
49	0x3e398c1a	0.18119851
50	0x3e5627aa	0.20913568
51	0x3e77bcfb	0.24193184
52	0x3d8d9068	0.06912309
53	0x3c0bf9a4	0.008543406
54	0x3d11db37	0.03560945
55	0xbd859fae	-0.06524597
56	0xbea84d13	-0.32871303
57	0x3ed2d1be	0.41175646
58	0x3f1efd3c	0.62105155
59	0xbea7ecdf	-0.32797906
60	0xbd9750f2	-0.07388486
61	0xbe6e8608	-0.23293316
62	0x3e0520f4	0.13000852
63	0xbdaaf66d	-0.08347783
64	0xbe2966f6	-0.16543183
65	0x3e6206fd	0.22072978
66	0xbdc3d439	-0.09561963
67	0xbe45b923	-0.19308905
68	0x3e3c1573	0.18367557
69	0xbd13e804	-0.03610994
70	0x3e54e749	0.20791353
71	0x3d889bd1	0.066703446
72	0x3e978739	0.29595354
73	0xbb02b947	-0.001994686
74	0xbf063f25	-0.524401
75	0x3ec8cacc	0.39217222
76	0xbee64dd2	-0.44981247
77	0x3d212a14	0.03934677
78	0x3d2c497f	0.04206228
79	0xbe6f8cca	-0.2339355
80	0x3f4fbf64	0.81151414
81	0x3eaf3728	0.34221768
82	0x3b8f65fc	0.004376171
83	0x3ea223e0	0.31667995
84	0x3ecadb9e	0.3962068
85	0xbf148105	-0.5800937
86	0x3e4022f7	0.18763338
87	0x3da69e02	0.08135606
88	0x3edc669e	0.4304704
89	0x3e4ddf0e	0.2010462
90	0xbe2066f0	-0.15664268
91	0xbd294996	-0.041329943
92	0x3e8589fc	0.26081836
93	0x3e85d64e	0.26140064
94	0xbec59ca2	-0.38596064
95	0x3cfb7125	0.0306936
96	0x3e09d63e	0.13460633
97	0xbec41f7d	-0.38305274
98	0x3f312ee8	0.692122
99	0xbc8f8fdc	-0.017524652
100	0xbdd24fe2	-0.10269143
101	0x3f9d3dea	1.228452
102	0xbf0fd294	-0.5618069
103	0xbdb2dd60	-0.0873363
104	0x3caa6866	0.020801734
105	0x3e411ef4	0.18859464
106	0xbe999a5e	-0.30000585
107	0xbf585adc	-0.8451364
108	0x3ef00182	0.4687615
109	0xbec8baa2	-0.3920489
110	0xbe9c2b1c	-0.3050164
111	0xbdc3e219	-0.09564609
112	0xbbc614dd	-0.0060449676
113	0x3cf06aa5	0.029347727
114	0x3e9dc630	0.30815268
115	0x3dbf4a75	0.093403734
116	0xbe238721	-0.15969516
117	0xbe0a0890	-0.13479829
118	0x3d01f418	0.031726927
119	0x3c56c4b0	0.013108417
120	0x3d655ca6	0.05599656
121	0x3af30585	0.0018541074
122	0x3d7e7d06	0.06213095
123	0xbf06c6d5	-0.52647144
124	0x3f823ec4	1.0175405
125	0x3def3611	0.11680234
126	0xc010ed5b	-2.264487
127	0xbf804d75	-1.0023638
128	0x3f893113	1.0718101
129	0xbeba2d7b	-0.36362824
130	0xbe1401de	-0.14453837
131	0x3ee8acf3	0.4544445
132	0xbd7df5f2	-0.06200213
133	0x3dbd27b1	0.09236086
134	0x3e6b0966	0.22952804
135	0xbe3ab521	-0.18233158
136	0x3eaba2bf	0.33522603
137	0x3dd6f8be	0.104966626
138	0xbcb4f408	-0.02208902
139	0xbdfff011	-0.12496961
140	0xbe0027a1	-0.12515117
141	0x3c63add7	0.013896427
142	0x3e95c4cd	0.2925171
143	0x3c417245	0.011807029
144	0xbee8ade3	-0.45445165
145	0xbf26dae1	-0.6517773
146	0xbdac4ba3	-0.08412864
147	0xbf18c371	-0.5967322
148	0x3e6c43d0	0.23072743
149	0x3e0b02d3	0.13575296
150	0xbe9640e7	-0.29346392
151	0xbd840813	-0.064468525
152	0x3d3ee1f9	0.046602223
153	0x3dd76b9d	0.105185725
154	0xbe9b1ec5	-0.30296913
155	0x3cc416a9	0.023936586
156	0xbe897789	-0.2684901
157	0xbe56fc15	-0.20994599
158	0xbd8c01ab	-0.06836256
159	0x3e4d8d41	0.20073415
160	0xbcc64f9d	-0.024207884
161	0x3de00876	0.10939114
162	0x3e7e0089	0.24804892
163	0xbe852709	-0.26006344
164	0xbe2e7932	-0.1703842
165	0x3f1521f3	0.5825493
166	0xbdcccf61	-0.10000492
167	0xbeab1f05	-0.33422104
168	0x3e46a94b	0.19400518
169	0x3fc933e9	1.5718967
170	0xbed9b004	-0.42517102
171	0xbf3e92ff	-0.7444305
172	0xbe2178d3	-0.15768747
173	0x3e915366	0.2838394
174	0xbdf81326	-0.12113027
175	0x3e32cdd3	0.17461328
176	0x3d91dff1	0.071227916
177	0xbbd79c41	-0.006579906
178	0x3c1b582c	0.009481471
179	0x3deda174	0.1160306
180	0xbe041e2c	-0.12902135
181	0x3e70a513	0.23500471
182	0xbd1fc9bd	-0.039010752
183	0x3dcbe14a	0.0995508
184	0xbe152abe	-0.14567086
185	0x3e10c531	0.14137723
186	0xbe87202f	-0.26391742
187	0xc029852e	-2.6487536
188	0xc01b0a6b	-2.4225109
189	0x3c0bd3c5	0.0085343765
190	0xbfabfa36	-1.3435733
191	0xbd8b9212	-0.0681497
192	0x3d9cbc55	0.07653109
193	0xbdace0e9	-0.08441336
194	0xbe022650	-0.12709928
195	0x3b87df1a	0.004146469
196	0x3e5a7347	0.21333037
197	0xbdddd156	-0.10830943
198	0xbe818ec1	-0.25304225
199	0xbc708f05	-0.014682536
200	0x3d61522f	0.055010017
201	0x3da1f616	0.07908265
202	0xbdacd219	-0.084385104
203	0x3e92988c	0.2863201
204	0xbe7ae51f	-0.24501465
205	0x3ecac4a1	0.3960314
206	0xbd35b162	-0.04435862
207	0xbe208aeb	-0.15677993
208	0xbe78b671	-0.24288346
209	0xbf2183f1	-0.6309195
210	0x3eca76d7	0.39543793
211	0x3ed4dcf5	0.41574827
212	0x3fa3c77b	1.2795252
213	0xbfcbd28b	-1.5923628
214	0xbef50426	-0.47854728
215	0x3e4c9043	0.19976906
216	0xbe459022	-0.19293264
217	0x3e0b9b28	0.13633406
218	0xbcf3448d	-0.029695773
219	0xbd2f2c24	-0.042766705
220	0xbe697286	-0.22797593
221	0x3d90f4ff	0.07077979
222	0x3e018a13	0.12650327
223	0xbe32ab71	-0.17448212
224	0x3cab9622	0.020945612
225	0xbdce971a	-0.10087414
226	0xbeed5f8c	-0.4636196
227	0xbd68590a	-0.05672554
228	0x3ee95c2b	0.4557813
229	0x3e725fb1	0.23669316
230	0x3d988741	0.07447673
231	0x3fd841ea	1.6895115
232	0x3e72ff43	0.23730187
233	0x3f628ef6	0.8849939
234	0xbf387163	-0.72048014
235	0x3e7353cb	0.23762433
236	0xbed23a8c	-0.41060293
237	0x3ea5e60b	0.3240207
238	0x3e973655	0.2953364
239	0x3e81c8b2	0.2534843
240	0xbdae5659	-0.08512563
241	0x3e09f509	0.1347238
242	0x3d2530d7	0.04032978
243	0xbd81545b	-0.06314918
244	0x3ed47296	0.41493672
245	0xbdf66fc8	-0.12033039
246	0xbe90ad36	-0.2825715
247	0x3e997217	0.29969856
248	0xbe5a4b09	-0.21317686
249	0x3e0d624b	0.13807027
250	0xbd95e95b	-0.073199
251	0xbf2f7f78	-0.68553877
252	0xbf4b3ae0	-0.7938671
253	0xc0003db8	-2.003767
254	0xbef6a443	-0.48172197
255	0xbf43c8b8	-0.7647815

linear1.bias f4 [256]
0	0xbdec1c70	-0.115288615
1	0x3e0eff9b	0.13964693
2	0x3e240a28	0.160195
3	0xbd087251	-0.033312146
4	0x3e59664d	0.21230431
5	0x3d76b27d	0.060228813
6	0x3e2eb86f	0.17062543
7	0x3da97e0c	0.08275995
8	0xbe5cec1b	-0.21574442
9	0xbe834c76	-0.25644273
10	0xbd140552	-0.036137886
11	0x3e5edf13	0.21764784
12	0xbe2ee622	-0.17079976
13	0xbde9bf48	-0.11413437
14	0x3d14d881	0.036339287
15	0xbe9c3a89	-0.3051341
16	0x3cd19c01	0.025587084
17	0x3ea559aa	0.3229497
18	0x3dd5297b	0.104083024
19	0xbc48c11a	-0.01225307
20	0x3e53b4c4	0.20674425
21	0x3d0df525	0.034657616
22	0x3dc7ccf3	0.09755888
23	0xbd449548	-0.04799393
24	0xbd16330f	-0.036669787
25	0xbd9dce39	-0.077053495
26	0x3d367571	0.044545595
27	0x3cd1502e	0.025550928
28	0xbdfdaad1	-0.12386096
29	0xbe622569	-0.22084583
30	0x3d993e3b	0.07482573
31	0x3e00fa12	0.12595394
32	0x3d465803	0.04842378
33	0x3c126afd	0.008936641
34	0x3d466f6c	0.048446104
35	0x3cc0d47b	0.023538819
36	0xbcbaf7bf	-0.022823213
37	0x3c95d2a1	0.018288912
38	0x3e1ad316	0.15119585
39	0xbd184848	-0.037178308
40	0xbd63028a	-0.055422343
41	0x3cf31130	0.029671282
42	0xbd7cef50	-0.061751664
43	0xbea0b781	-0.31390002
44	0xbe91da75	-0.28486982
45	0x3cf11b90	0.029432088
46	0xbe716e57	-0.23577248
47	0x3a00704c	0.0004899546
48	0xbe878972	-0.2647205
49	0xbda923d7	-0.08258789
50	0xbdc3cc1f	-0.095604174
51	0xbe18d1f2	-0.14923838
52	0xbe9797d4	-0.29608023
53	0xbe551d10	-0.20811868
54	0xbcfe6bf7	-0.031057341
55	0xbe442dd1	-0.19158103
56	0xbd1db02e	-0.038498096
57	0xbdb6c27c	-0.08923814
58	0x3d397204	0.04527475
59	0xbd6e6518	-0.05820188
60	0x3d09e419	0.033664797
61	0xbe16565c	-0.14681381
62	0xbe067c68	-0.13133395
63	0xbd69e524	-0.05710329
64	0xbdee4981	-0.116351135
65	0xbde00a69	-0.109394856
66	0xbe2295f3	-0.15877514
67	0x3e37dc4f	0.17955135
68	0xbe500909	-0.20315947
69	0x3df4183b	0.11918684
70	0xbd044cbe	-0.03229975
71	0xbe3b1dc7	-0.18273078
72	0x3e4e620d	0.20154591
73	0xbd9fd68c	-0.078045934
74	0xbdbbb9a4	-0.091662675
75	0xbe1152ac	-0.14191693
76	0xbe2887c2	-0.16458037
77	0xbe2af44c	-0.16694754
78	0x3e169d50	0.14708447
79	0xbd5d1498	-0.053974718
80	0x3b98a56b	0.0046583912
81	0xbe6c49bf	-0.23075007
82	0xbd089adc	-0.03335081
83	0x3d99b31c	0.075048655
84	0xbda88cef	-0.08230006
85	0xbcf24097	-0.029571814
86	0xbe35ac2c	-0.1774146
87	0xbd1fa0fe	-0.038971893
88	0xbd1c9fed	-0.038238455
89	0x3e153bfd	0.14573665
90	0x3e8968cb	0.26837763
91	0x3e18bca7	0.14915715
92	0xbe12edea	-0.1434857
93	0x3cffa33e	0.03120577
94	0x3d84d208	0.06485373
95	0xbe7e66bc	-0.24843878
96	0xbe929259	-0.2862728
97	0x3cdd4bea	0.027013738
98	0xbc274d6a	-0.010211328
99	0x3d777319	0.0604125
100	0x3e0c0df6	0.136772
101	0xbdc09381	-0.09403134
102	0xbd0acee8	-0.033888727
103	0x3d0d2f53	0.03446896
104	0x3a6a1552	0.00089295686
105	0x3e0bb94d	0.13644905
106	0x3c88774a	0.016658444
107	0xbd78b2c5	-0.060717363
108	0x3e0bbc46	0.1364604
109	0x3d98bc31	0.0745777
110	0x3d3731e5	0.044725318
111	0x3e4648e1	0.19363739
112	0x3d0f57c8	0.034995824
113	0xbe9ef972	-0.31049687
114	0xbe1303f2	-0.14356974
115	0xbe9594bd	-0.2921504
116	0xbe1ecb70	-0.15507293
117	0x3ca9168c	0.020640634
118	0x3e281657	0.16414772
119	0xbda356b3	-0.07975521
120	0x3d98723d	0.07443664
121	0xbc96b19d	-0.01839524
122	0xbd0abe3d	-0.03387283
123	0xbe20cac1	-0.15702344
124	0x3be5ac8f	0.007009096
125	0xbe22dcab	-0.1590449
126	0xbc906f69	-0.01763125
127	0xbd0bcc36	-0.034130298
128	0x3da5de96	0.080990955
129	0x3e2039c1	0.15647031
130	0x3dfe4072	0.12414636
131	0xbdab37d5	-0.083602585
132	0xbd062c21	-0.03275693
133	0xbdd6bf2c	-0.10485682
134	0xbd25cbdb	-0.040477615
135	0xbd201d28	-0.039090306
136	0xbc85fc04	-0.016355522
137	0xbd88735d	-0.06662629
138	0x3c406650	0.011743143
139	0x3e02a826	0.12759456
140	0x3e869382	0.26284415
141	0xbe23b0d1	-0.15985419
142	0xbdea3592	-0.11435999
143	0xbd66050b	-0.056157153
144	0xbdd2d9f1	-0.10295475
145	0xbd63702b	-0.055526894
146	0xbdfb9958	-0.122851074
147	0xbdf52ff2	-0.119720355
148	0xbe13244f	-0.1436932
149	0x3d252076	0.04031416
150	0x3e1cea4a	0.15323749
151	0x3e04af2c	0.12957448
152	0xbe4fb376	-0.20283303
153	0xbd93bc8f	-0.07213699
154	0xbe655e8b	-0.22399347
155	0xbe1989c8	-0.14993966
156	0x3dd74ca5	0.10512666
157	0xbddc6240	-0.10760927
158	0x3db37551	0.08762611
159	0xbe4933e6	-0.19648704
160	0xbe463317	-0.19355427
161	0x3e0c8d00	0.13725662
162	0xbe5aef87	-0.21380435
163	0xbe0b1cbc	-0.1358518
164	0xb7cec087	-2.4646766e-05
165	0x3e45648a	0.19276634
166	0xbe20a263	-0.15686946
167	0xbe088a2a	-0.13333955
168	0x3cbb8d31	0.022894474
169	0x3dd75d53	0.10515847
170	0xbdd44a58	-0.103657424
171	0xbd8316ef	-0.064008586
172	0x3e091c91	0.13389803
173	0xbd75eb5c	-0.06003891
174	0x3e65c726	0.2243925
175	0xbc8c51cc	-0.017128848
176	0x3d358ff8	0.044326752
177	0x3e2c59ad	0.16831084
178	0xbd0faa37	-0.03507444
179	0x3de0d82f	0.10978734
180	0xbb9cb012	-0.0047817314
181	0x3ddb14a1	0.10697294
182	0x3e178381	0.14796259
183	0xbe8a0d15	-0.26963106
184	0xbc48981e	-0.012243299
185	0xbe0b727a	-0.13617888
186	0x3cffc93e	0.03122389
187	0x3d99a776	0.07502644
188	0xbda5779b	-0.080794536
189	0xbd82372b	-0.06358179
190	0xbd5d1c80	-0.053982258
191	0x3ba37cad	0.0049892277
192	0xbcdbadb5	-0.026816228
193	0x3d99730d	0.07492647
194	0xbdaa8228	-0.083256066
195	0x3dbef351	0.09323753
196	0x3cd68f20	0.026191294
197	0x3ddd0cb9	0.10793442
198	0x3ce55b33	0.027997589
199	0x3e0ce23d	0.13758178
200	0xbd50cb49	-0.050975118
201	0x3c035257	0.008015237
202	0x3b99fde9	0.004699458
203	0x3cbe17d9	0.02320473
204	0xbe647183	-0.22308926
205	0xbcf74f69	-0.030189233
206	0xbd16c267	-0.03680649
207	0x3e2c4aa1	0.16825344
208	0x3e030ee9	0.12798657
209	0xbda661b5	-0.08124105
210	0xbe88945a	-0.26675683
211	0xbe4bc4f3	-0.19899349
212	0xbdf84e9d	-0.12124369
213	0x3d37f539	0.044911597
214	0xbe138ad2	-0.14408424
215	0xbc0b93a9	-0.008519092
216	0xba935907	-0.0011241742
217	0x3df2cffc	0.11856076
218	0xbd988fc5	-0.07449297
219	0xbdc42d38	-0.09578937
220	0x3d46df52	0.04855282
221	0xbd5bae2b	-0.053632896
222	0xbe08c0f4	-0.13354856
223	0xbda64473	-0.081185244
224	0x3d83bff9	0.064331
225	0x3cb038f5	0.021511534
226	0x3e254d4b	0.16142766
227	0x3db0a2a8	0.08624774
228	0xbd99e0de	-0.07513593
229	0x3de2d19d	0.11075137
230	0xbcc27305	-0.023736486
231	0xbe559ff6	-0.20861802
232	0x3d88e27f	0.06683826
233	0xbdfc8697	-0.123303585
234	0x3dddab8a	0.10823734
235	0x3d27ec5a	0.040996887
236	0xbd0c9eb2	-0.03433103
237	0x3d2a2871	0.041542474
238	0xbde4ac04	-0.11165622
239	0xbc72a4b5	-0.014809777
240	0x3e07ec26	0.13273677
241	0x3dde776a	0.1086262
242	0x3e017285	0.12641342
243	0xbdf10d82	-0.117701545
244	0x3e01256c	0.12611932
245	0xbd6a4b7c	-0.057200894
246	0xbe73697f	-0.23770712
247	0xbcbbf77a	-0.022945154
248	0x3df7f212	0.12106718
249	0x3d8638d9	0.065538116
250	0xbb0d0a66	-0.002152109
251	0xbd6691bc	-0.056291327
252	0x3d152215	0.036409456
253	0x3c1acd17	0.009448311
254	0xbd5ac601	-0.053411487
255	0x3de342e6	0.11096744

linear2.weight f4 [256, 256]
0	0x3d575cc9	0.05257872
1	0xbcf0cbae	-0.029393997
2	0xbecafe42	-0.39647108
3	0xbee23022	-0.44177347
4	0xbdf1647c	-0.11786744
5	0xbe4c6e9f	-0.19964074
6	0x3ec0df75	0.37670484
7	0xbf47c35e	-0.7803248
8	0xbd4daec0	-0.050215483
9	0xbca2530f	-0.019814996
10	0xbf7a29be	-0.97719944
11	0x3ca40cda	0.02002566
12	0xbeb6b9d9	-0.35688666
13	0x3d544137	0.051820006
14	0x3e1b2807	0.15151988
15	0xbd0eaabf	-0.034830805
16	0x3ea2b430	0.31778097
17	0xbe469297	-0.19391857
18	0x3e57aa5d	0.21061082
19	0xbda381dd	-0.07983754
20	0x3e5eabca	0.2174522
21	0xbecb505b	-0.39709744
22	0xbe9fdb25	-0.31221882
23	0x3de978c9	0.11399991
24	0x3e96f5fc	0.29484546
25	0xbe56e554	-0.20985919
26	0xbe2876e9	-0.1645161
27	0x3d25bea0	0.040464997
28	0xbe85e749	-0.2615302
29	0xbdf2266f	-0.11823737
30	0xbe5a4bc0	-0.21317959
31	0xbe59653f	-0.21230029
32	0xbec56eb5	-0.38561025
33	0xbe513614	-0.20430785
34	0x3def1163	0.11673238
35	0xbec1191e	-0.37714475
36	0xbca958b7	-0.020672185
37	0xbd405f8a	-0.046966113
38	0xbe183284	-0.1486302
39	0xbd3c46fe	-0.04596614
40	0x3dc74478	0.09729856
41	0xbe764421	-0.24049427
42	0xbc01320f	-0.00788547
43	0xbe8baa47	-0.2727835
44	0x3d2dcfb7	0.04243442
45	0xbe1f55c8	-0.15560067
46	0x3eba48da	0.36383706
47	0xbe1eac5a	-0.15495434
48	0x3d5e84af	0.054325756
49	0x3eaf43bf	0.34231374
50	0xbe5035aa	-0.20332971
51	0x3ca8a515	0.02058653
52	0xbedfd5dc	-0.4371785
53	0xbe589373	-0.21149997
54	0x3ecdd24f	0.40199515
55	0x3e9cf906	0.3065874
56	0xbed2127c	-0.41029727
57	0x3e8f1221	0.2794352
58	0xbc39625f	-0.011314957
59	0x3d632f39	0.055464957
60	0xbe06c63e	-0.13161561
61	0x3ecd0e69	0.40050057
62	0xbe13e8cd	-0.14444275
63	0xbbf3afce	-0.007436729
64	0x3d0498b0	0.032372177
65	0xbe895cde	-0.26828665
66	0x3c83ef06	0.016105186
67	0x3e28d93f	0.16489123
68	0xbe484aaf	-0.1955974
69	0xbe62e06f	-0.22155927
70	0xbdd367c1	-0.10322524
71	0xbdcc1a43	-0.099659465
72	0x3d8d8597	0.06910246
73	0xbe943ec9	-0.2895415
74	0x3d998997	0.07496946
75	0xbf534437	-0.8252596
76	0x3eb950e5	0.3619453
77	0x3e03f76e	0.12887356
78	0x3d115268	0.03547898
79	0x3dc3cece	0.09560929
80	0x3d229bdf	0.03969943
81	0xbe1084d5	-0.14113171
82	0xbe280494	-0.16407996
83	0x3e129e4a	0.14318195
84	0xbe97f3e4	-0.2967826
85	0x3e5c2124	0.21497017
86	0xbd8f56b4	-0.06998959
87	0x3d825d96	0.06365506
88	0xbed281ef	-0.41114756
89	0xbed8a5d6	-0.42314023
90	0x3e2b3c48	0.16722214
91	0x3f376937	0.7164492
92	0xbf01a56e	-0.5064305
93	0xbdd9bc89	-0.10631663
94	0xbdba7a31	-0.091053374
95	0xbe933874	-0.28754008
96	0xbe72df77	-0.23718058
97	0x3eeb525a	0.45961267
98	0xbddb5f3a	-0.107115224
99	0xbe828d4c	-0.25498426
100	0xbeb007e1	-0.3438101
101	0x3e760110	0.24023843
102	0xbdaab716	-0.08335702
103	0xbe9fb5c3	-0.3119336
104	0xbf19e7bf	-0.6011924
105	0x3efb5119	0.4908531
106	0xbc73c387	-0.01487816
107	0x3ea6c822	0.32574564
108	0x3e1d6d33	0.15373687
109	0x3de30012	0.11083998
110	0xbc939ac8	-0.018018141
111	0xbefb2629	-0.4905255
112	0xbe944d95	-0.2896544
113	0x3d2cf6e7	0.042227652
114	0x3dfa5a4b	0.12224253
115	0xbe4afb75	-0.19822486
116	0xbe85d34e	-0.26137775
117	0xbed7376d	-0.42034474
118	0x3eae2a28	0.34016538
119	0xbd3ebd54	-0.046567276
120	0x3d762987	0.060098197
121	0x3f00a149	0.502461
122	0xbea66a6f	-0.32503077
123	0xbe569a9d	-0.20957418
124	0xbe11ab67	-0.14225541
125	0xbe5d8939	-0.21634378
126	0xbd2b14da	-0.041767932
127	0x3dd54719	0.104139514
128	0xbd8a7a93	-0.067616604
129	0x3e9eb7ed	0.309997
130	0x3e033e93	0.12816839
131	0x3de27461	0.11057354
132	0x3e0c641c	0.13710064
133	0x3dc64642	0.09681369
134	0xbe79a4bf	-0.24379252
135	0x3e717456	0.23579535
136	0x3dab9a46	0.08379035
137	0xbde8cd26	-0.11367254
138	0x3e61f80c	0.22067279
139	0x3e2ffd23	0.17186408
140	0x3eb36cdc	0.3504399
141	0x3d52af43	0.051436674
142	0xbe4f328c	-0.20234126
143	0xbefb1bcf	-0.49044654
144	0xbe8856dd	-0.2662877
145	0x3d4018f8	0.046898812
146	0xbf22b4b1	-0.63556963
147	0xbeb4e200	-0.35328674
148	0x3bf84131	0.007576131
149	0xbe638da6	-0.22222003
150	0x3ec7c76c	0.39019334
151	0x3dd759db	0.105151854
152	0xbe349b17	-0.17637287
153	0xbe95b6aa	-0.29240924
154	0xbe1a1885	-0.15048416
155	0xbd533568	-0.051564604
156	0xbdd55472	-0.10416497
157	0xbeed661e	-0.46366972
158	0x3ec25331	0.37954095
159	0xbeb64ffd	-0.356079
160	0xbe38f45e	-0.18061969
161	0xbd20c503	-0.039250385
162	0x3ec4401c	0.38330162
163	0xbec86ef5	-0.39147153
164	0x3e957dfc	0.2919768
165	0xbeeac70d	-0.4585499
166	0xbf0d04a6	-0.5508522
167	0x3f296e4c	0.66183925
168	0x3e59da24	0.2127462
169	0x3e706db3	0.23479347
170	0x3e80ab2d	0.25130597
171	0x3e667fdd	0.22509713
172	0xbc0deaf6	-0.008661976
173	0x3ed69e1e	0.4191751
174	0x3eb303ca	0.34963828
175	0xbe63b565	-0.22237165
176	0x3ae6d66b	0.0017611509
177	0xbeb0ba97	-0.34517357
178	0xbcb3104c	-0.021858357
179	0xbe346a10	-0.17618585
180	0xbeef8d52	-0.46787506
181	0xbf29913c	-0.66237235
182	0x3e549904	0.20761496
183	0xbd15e490	-0.036594927
184	0x3d812251	0.063053735
185	0xbea47457	-0.3212001
186	0xbd2cba4b	-0.04216985
187	0xbd494385	-0.049136657
188	0xbe8503cc	-0.2597946
189	0xbefad3b9	-0.48989657
190	0x3e7ef71e	0.24898955
191	0x3a66a160	0.00087978505
192	0x3ef465f1	0.47734025
193	0xbd271ece	-0.040800862
194	0x3d563b07	0.052302387
195	0xbd2808e8	-0.04102412
196	0x3e811d33	0.2521759
197	0xbed021d2	-0.40650803
198	0xbe3ced1b	-0.18449824
199	0xbe585753	-0.21127062
200	0x3dff4cdf	0.12465834
201	0xbd641c31	-0.055690948
202	0xbef20c09	-0.47274807
203	0x3d13456f	0.03595489
204	0x3e6d0bd5	0.23149045
205	0x3e0ecee0	0.13946104
206	0xbe87e211	-0.26539662
207	0xbd0d9bdb	-0.034572463
208	0xbde57f8a	-0.11205967
209	0x3e8f4e2b	0.27989325
210	0xbe95a8a9	-0.2923024
211	0x3e02ea8c	0.12784785
212	0xbe5cbebb	-0.21557133
213	0xbead2266	-0.33815306
214	0x3db53104	0.088472396
215	0xbd67e0a6	-0.056610726
216	0xbd0f7040	-0.03501916
217	0xbbbb2b5c	-0.005711956
218	0x3c659da0	0.0140146315
219	0xbe96ac24	-0.29428208
220	0xbf0eebed	-0.55828744
221	0xbe941076	-0.2891881
222	0x3ee22aca	0.4417327
223	0xbe54e5d6	-0.207908
224	0xbef87f5b	-0.48534665
225	0xbdd83833	-0.10557594
226	0x3d5f2ff0	0.054489076
227	0xbdd8633c	-0.105658025
228	0xbc4a4565	-0.0123456465
229	0x3e986849	0.29767063
230	0xbed6ee7f	-0.41978833
231	0x3e94c10f	0.29053542
232	0x3e9de387	0.30837652
233	0x3d695fb5	0.05697604
234	0xbeab00d5	-0.33399072
235	0x3e769cd5	0.24083264
236	0xbe64c7dc	-0.22341865
237	0x3d5d2c8b	0.053997558
238	0x3ec6aa04	0.38801587
239	0xbe5a1f48	-0.21300995
240	0x3ecd9714	0.40154326
241	0x3db9ea78	0.090779245
242	0xbe790507	-0.24318324
243	0x3e38d515	0.18050034
244	0x3ea51290	0.32240725
245	0xbd6ea324	-0.05826105
246	0x3e3b1d2b	0.18272845
247	0xbf12f265	-0.57401115
248	0xbee4c8b5	-0.44684377
249	0xbeda0fcc	-0.42590177
250	0x3d2b2566	0.041783713
251	0x3e32d9a6	0.17465839
252	0x3cb891bc	0.022530429
253	0xbef4ca89	-0.47810772
254	0xbedd6611	-0.43241933
255	0x3d3bcbc4	0.045848623

linear2.bias f4 [256]
0	0xbe4632af	-0.19355272
1	0xbd11600a	-0.03549198
2	0x3f0e9c49	0.5570722
3	0x3e7a6f56	0.24456534
4	0xbcff0323	-0.031129425
5	0xbe10311f	-0.14081238
6	0x3e9f2e7b	0.3109015
7	0xbd8944d8	-0.06702584
8	0x3f2559eb	0.6459033
9	0xbecf7600	-0.40519714
10	0xbed5e934	-0.41779482
11	0xbed9b0b7	-0.42517635
12	0x3c84b79b	0.016200831
13	0xbdb45699	-0.0880558
14	0x3d927bd4	0.071525246
15	0xbe1496ba	-0.14510623
16	0xbd6e6a23	-0.05820669
17	0xbf6f4600	-0.93466187
18	0x3e3faffa	0.18719473
19	0x3e1026c7	0.14077292
20	0xbd99d28c	-0.07510862
21	0x3e9abe54	0.30223334
22	0x3e518ece	0.20464632
23	0xbf4a7641	-0.7908669
24	0xbcf4f169	-0.02990027
25	0x3e7af52f	0.24507593
26	0xbf2ca09c	-0.6743257
27	0xbd5799a2	-0.05263675
28	0xbe956be4	-0.29183877
29	0x3e997582	0.29972464
30	0xbf0bc48b	-0.54596776
31	0xbd5dcd67	-0.054150965
32	0x3dd17d8b	0.102290235
33	0xbf2ac046	-0.66699636
34	0x3d0e7ef7	0.03478905
35	0xbf328241	-0.6973
36	0x3e314d13	0.17314558
37	0x3f0760fd	0.5288237
38	0x3ec3fd51	0.38279203
39	0x3d4bb35c	0.049731597
40	0x3e8ef23a	0.2791918
41	0x3e94fb43	0.29097947
42	0xbe92d1f1	-0.28675798
43	0xbee06ffc	-0.43835437
44	0xbc3cdfda	-0.01152798
45	0x3cbad638	0.022807226
46	0x3ef06452	0.46951538
47	0x3eb6c2fd	0.3569564
48	0xbd947f53	-0.07250848
49	0xbeb85478	-0.36001945
50	0x3ece191d	0.40253535
51	0x3e4ca2a9	0.19983925
52	0x3ed0b07d	0.4075965
53	0x3dcd92f9	0.100377984
54	0x3dcd512a	0.100252464
55	0xbd93dc2e	-0.0721973
56	0xbdabf0ab	-0.08395513
57	0xbc6956a5	-0.014241849
58	0xbf19ccf0	-0.60078335
59	0x3cd2ac1d	0.025716836
60	0x3e214ec1	0.15752698
61	0x3ed11c74	0.4084202
62	0xbd209130	-0.03920096
63	0x3f975b37	1.1824712
64	0x3ee5ce41	0.44883922
65	0xbe5fd8f5	-0.21860106
66	0x3e4c67a4	0.19961411
67	0x3e5ae842	0.21377662
68	0xbd42895d	-0.04749428
69	0x3ecb33b7	0.39687893
70	0xbdb1cf44	-0.08682111
71	0x3c2937b6	0.010328224
72	0x3e97d8b3	0.29657516
73	0x3ee7418f	0.45167205
74	0x3e2bb860	0.16769552
75	0xbf6ed84c	-0.9329879
76	0xbcb7083a	-0.02234279
77	0x3e92d705	0.28679672
78	0xbd00f9f8	-0.03148839
79	0xbc2679e6	-0.010160899
80	0x3ef75f74	0.48315012
81	0x3e51e031	0.20495678
82	0xbdf54339	-0.11975712
83	0xbd589e46	-0.052885316
84	0x3ef3ef99	0.47643736
85	0xbd6f6dc3	-0.058454286
86	0x3e880cb8	0.26572204
87	0x3ed6eb21	0.41976264
88	0x3f01b1d0	0.50661945
89	0x3e9ce053	0.30639896
90	0xbd8a39c6	-0.06749301
91	0xbc142a37	-0.009043268
92	0x3ec2140f	0.37905928
93	0xbeade7d4	-0.33965933
94	0xbd16a3f9	-0.03677747
95	0x3edf1c2b	0.43576178
96	0x3e531d79	0.20616712
97	0xbf36c060	-0.7138729
98	0x3e732233	0.23743515
99	0x3e3bfaf4	0.1835745
100	0x3b8694ba	0.004107085
101	0x3e14f662	0.14547113
102	0xbf1ebba0	-0.62005043
103	0x3ecaf74d	0.396418
104	0x3e2065cf	0.15663837
105	0xbe670427	-0.22560178
106	0x3f261ffd	0.6489256
107	0x3e4fb2d7	0.20283066
108	0xbd391daa	-0.045194305
109	0x3d88a34e	0.06671773
110	0xbef16eae	-0.47154754
111	0xbe97c8b4	-0.29645312
112	0x3e2986aa	0.16555277
113	0x3e038f79	0.12847699
114	0x3eaa4ae2	0.33260256
115	0x3e04484e	0.12918207
116	0x3e94513e	0.28968233
117	0xbe99bf42	-0.3002873
118	0x3e80e321	0.25173286
119	0xbd508c70	-0.05091518
120	0x3d6945bc	0.05695127
121	0x3e6061ee	0.21912357
122	0x3ded700a	0.115936354
123	0x3daf6ae4	0.0856531
124	0x3e69331d	0.22773404
125	0x3dd146fd	0.10218618
126	0x3d0d8b5e	0.03455674
127	0x3e39bffa	0.1813964
128	0xbd9e106c	-0.07717976
129	0xbf06ed54	-0.52705884
130	0xbeac1581	-0.33610156
131	0x3e631578	0.22176158
132	0x3f262a62	0.6490842
133	0xbec32c2d	-0.3811964
134	0xbee2baa9	-0.44283035
135	0x3eb818d0	0.3595643
136	0x3f00ec15	0.5036023
137	0x3ef8a5f4	0.48564112
138	0xbb9dc84a	-0.004815136
139	0x3ebbaaac	0.3665365
140	0x3e95354c	0.29142225
141	0x3ed3e045	0.41382042
142	0xbed1de2b	-0.40989813
143	0xbdf7613a	-0.12079091
144	0x3ebb2ce2	0.3655768
145	0xbe06029c	-0.13086933
146	0x3d9b4b1b	0.075826846
147	0x3d3be0e5	0.045868773
148	0xbef36d31	-0.47544244
149	0xbe5bba26	-0.21457729
150	0xbdb63875	-0.08897487
151	0xbf2af1ae	-0.66775024
152	0x3ee36963	0.4441634
153	0xbe67d4c5	-0.22639759
154	0xbaea89a7	-0.0017893807
155	0x3d47bdb4	0.0487649
156	0x3ec42435	0.38308874
157	0x3e836324	0.25661576
158	0xbec2ca1f	-0.3804483
159	0xbec575b4	-0.38566363
160	0x3eb3a707	0.3508837
161	0x3e10a9d6	0.14127287
162	0x3ef12d06	0.47104663
163	0xbeac8ac7	-0.3369963
164	0xbf0741f2	-0.52835
165	0xbe81d63d	-0.25358763
166	0x3d26001d	0.04052745
167	0xbe60a01d	-0.21936078
168	0xbe0ef22a	-0.13959566
169	0x3c3a1a99	0.01135888
170	0xbe8a4cd9	-0.27011755
171	0xbe9e82d0	-0.30959177
172	0x3e308ff5	0.17242415
173	0x3da46365	0.080267705
174	0x3ebfc45c	0.37454498
175	0x3e556074	0.20837575
176	0xbd89e2ed	-0.06732736
177	0x3d66edc8	0.05637911
178	0x3e0601ce	0.13086626
179	0xbe421683	-0.189539
180	0xbdd36756	-0.10322444
181	0x3d89ae95	0.06722752
182	0xbd7e69f4	-0.062112764
183	0xbee456dd	-0.4459752
184	0x3eb1086b	0.34576735
185	0xbc331237	-0.010929636
186	0x3e0b9c68	0.13633883
187	0x3eccc052	0.3999048
188	0x3e258cc3	0.16166978
189	0x3e5f92b9	0.21833314
190	0x3eb076eb	0.34465727
191	0x3db1c5c2	0.086802974
192	0x3f026e35	0.5094941
193	0x3e1d8441	0.15382482
194	0x3edbc7a9	0.42925766
195	0x3f107339	0.56425816
196	0xbc9e747b	-0.019342652
197	0x3e9fd825	0.31219593
198	0xbd860484	-0.0654383
199	0x3e9a6a21	0.30159095
200	0x3e881f53	0.26586398
201	0xbd96d2c7	-0.07364421
202	0x3e4cf5ac	0.20015591
203	0x3db0b118	0.08627528
204	0xbdc78699	-0.09742469
205	0xbd60c6cf	-0.0548771
206	0xbd1aab09	-0.037760768
207	0xbef8b9b7	-0.4857919
208	0xbf0242f3	-0.50883406
209	0x3ec1188f	0.3771405
210	0xbeb1cee8	-0.3472817
211	0x3e0a8081	0.13525583
212	0x3ed7baf7	0.4213483
213	0xbe1bf073	-0.15228443
214	0x3ed7ce2d	0.42149487
215	0xbf006fed	-0.50170785
216	0x3e11e822	0.14248708
217	0xbd1c27bf	-0.038123842
218	0xbd309c8f	-0.043118056
219	0x3f00eca2	0.50361073
220	0x3e4a4a9d	0.19755025
221	0x3dd62c9f	0.104577295
222	0x3da29f05	0.07940487
223	0x3e0e55a7	0.13899861
224	0x3ebfb8a8	0.3744557
225	0x3e69e5e7	0.22841607
226	0xbf1400c3	-0.5781366
227	0x3f3beb52	0.73405945
228	0xbe12949d	-0.14314504
229	0x3e11d699	0.14242019
230	0x3f018d04	0.506058
231	0xbd63671e	-0.055518262
232	0x3ee67c7e	0.45016855
233	0xbc816664	-0.015795894
234	0x3ded10b0	0.115754485
235	0x3e474ff6	0.19464096
236	0x3dc4d715	0.09611336
237	0x3e957046	0.2918722
238	0xbdb5b535	-0.08872453
239	0x3dc84c23	0.09780147
240	0x3e9702bb	0.2949427
241	0x3e04c54e	0.12965891
242	0xbdd4a9de	-0.10383962
243	0xbe55ac5b	-0.2086653
244	0x3ee03e27	0.43797418
245	0xbf0e5994	-0.55605435
246	0xbef6b676	-0.48186082
247	0xbeee00cb	-0.4648498
248	0xbe8de155	-0.27710977
249	0xbec23c98	-0.37936854
250	0xbd32fdf0	-0.043699205
251	0xbdabf4c1	-0.083962925
252	0x3c81b8f6	0.015835267
253	0xbf449498	-0.76789236
254	0xbe7a5e1d	-0.24449964
255	0xbee26724	-0.44219315

mean_linear.weight f4 [12, 256]
0	0x3e964489	0.29349163
1	0x3e2d9be7	0.16954003
2	0x3e962092	0.29321724
3	0x3e38c19e	0.18042609
4	0x3e292e97	0.16521679
5	0x3d74b52a	0.059743084
6	0xbda56565	-0.0807598
7	0x3d306f98	0.043075174
8	0x3ca99fc0	0.020706058
9	0xbf070b0e	-0.52751243
10	0xbe2d8652	-0.1694577
11	0x3e621822	0.22079518
12	0xbe99c735	-0.30034795
13	0x3c753cad	0.0149680795
14	0xbec57840	-0.38568306
15	0xbee8430c	-0.45363653
16	0x3d973a20	0.07384133
17	0x3dbabf7f	0.09118556
18	0xbc61e4ba	-0.013787443
19	0xbe9f6450	-0.3113122
20	0x3d087818	0.033317655
21	0x3e77a6f2	0.24184778
22	0xbe99632f	-0.29958484
23	0xbe847b8b	-0.25875506
24	0x3e7db8a3	0.24777465
25	0x3e06435f	0.13111638
26	0xbeb9784b	-0.3622459
27	0x3da33416	0.07968919
28	0xbed97f98	-0.4248016
29	0xbd242a1f	-0.040079232
30	0xbf311b96	-0.6918272
31	0xbb13f224	-0.0022574747
32	0xbdf858bd	-0.121263005
33	0xbcc8f5bd	-0.02453124
34	0xbdbb2ec6	-0.09139781
35	0xbe26ddb7	-0.16295515
36	0x3f0b33d8	0.5437598
37	0x3e1c605a	0.1527113
38	0x3e1c97cc	0.15292281
39	0x3daf5314	0.08560768
40	0x3e3e78bd	0.18600745
41	0x3a859255	0.0010190705
42	0xbe43f5a5	-0.19136675
43	0x3eab5354	0.33462012
44	0xbd2418e1	-0.04006279
45	0x3e1a328a	0.15058342
46	0x3e4a5a16	0.19760928
47	0xbe754d41	-0.23955251
48	0xbecd76e4	-0.4012977
49	0xbe1d6b45	-0.15372951
50	0xbf2361c7	-0.6382107
51	0xbe292ac7	-0.16520225
52	0x3e4de4e0	0.2010684
53	0xbc140040	-0.009033263
54	0x3df80726	0.121107385
55	0x3d24810f	0.040162142
56	0x3b8ed56e	0.004358939
57	0x3d5f4987	0.05451348
58	0xbf56f589	-0.83968407
59	0x3e780488	0.24220479
60	0x3e85ae3c	0.26109493
61	0x3e6714f6	0.2256659
62	0x3e80f11a	0.25183946
63	0x3b2af4a1	0.0026085752
64	0x3e30fbff	0.17283629
65	0xbdf12fa3	-0.11776664
66	0x3c5e3f4c	0.013564896
67	0x3d3181ce	0.043336682
68	0xbd1855b7	-0.03719112
69	0x3e384f90	0.179991
70	0xbd09ea32	-0.03367061
71	0x3e2e3086	0.17010698
72	0x3ef09504	0.4698869
73	0x3df2b45c	0.11850807
74	0x3f59fb14	0.8514874
75	0x3d1e9dc1	0.038724665
76	0x3e5763ce	0.21034166
77	0x3f232cef	0.6374044
78	0x3d331f83	0.043731224
79	0x3c532f7e	0.012889741
80	0xbde0354e	-0.10947667
81	0x3e81ded6	0.25365323
82	0x3cf07d10	0.02935651
83	0x3d574722	0.052558072
84	0x3f24a45f	0.6431331
85	0x3b455c56	0.003011485
86	0xbd1feeb7	-0.039046016
87	0x3d2b053c	0.04175304
88	0x3e5cf0c7	0.21576224
89	0x3e10ef27	0.1415373
90	0x3c11d2e0	0.008900374
91	0x3d2ece7b	0.042677384
92	0xbe90a244	-0.282488
93	0xbe20040a	-0.15626541
94	0x3ae4ceac	0.0017456613
95	0xbe791c04	-0.24327093
96	0xbe448447	-0.19191085
97	0xbea43251	-0.32069638
98	0xbf2034a2	-0.6258031
99	0x3f248317	0.6426253
100	0x3e93ac2c	0.28842294
101	0xbe66af03	-0.22527699
102	0x3d161a9e	0.036646478
103	0x3ea27765	0.31731716
104	0x3ee6d218	0.45082164
105	0xbe0a93b9	-0.13532914
106	0x3e34fd05	0.17674644
107	0xbe081ad9	-0.13291492
108	0x3d8e8dad	0.06960616
109	0x3efb41eb	0.4907373
110	0xbeb4a716	-0.35283726
111	0x3d878209	0.06616599
112	0x3d95aa73	0.07307901
113	0x3cc747fe	0.02432632
114	0x3d6a1c8b	0.057156127
115	0xbdc815fe	-0.0976982
116	0x3dacdb8a	0.08440311
117	0xbe97fa2d	-0.29683056
118	0xbe1dbe88	-0.15404713
119	0xbdb876ba	-0.0900702
120	0x3c715d6f	0.014731749
121	0x3e101ab1	0.14072682
122	0x3e88db62	0.26729876
123	0xbdd1dcd5	-0.102471985
124	0x3e871018	0.26379466
125	0x3d50da5c	0.050989494
126	0x3e1e79be	0.15476128
127	0x3df95f31	0.121763594
128	0xba79797a	-0.00095166976
129	0x3e15c5dd	0.1462626
130	0xbeb3b547	-0.3509924
131	0x3e32ca84	0.17460066
132	0x3e6d72e1	0.23188354
133	0xbe546126	-0.20740184
134	0xbe51c2ec	-0.20484513
135	0x3dd2e676	0.10297863
136	0x3f0bb9ed	0.54580575
137	0x3c2cf730	0.010556981
138	0xbb30064d	-0.0026859224
139	0xbe09ebba	-0.13468829
140	0x3e30faaf	0.17283128
141	0x3df4f426	0.1196063
142	0xbdfc92ed	-0.12332711
143	0xbb5faf38	-0.0034131538
144	0xbd1f323a	-0.03886626
145	0xbee4c1a0	-0.44678974
146	0xbea44091	-0.3208051
147	0x3da60194	0.0810577
148	0x3ea1925a	0.3155697
149	0x3d794bcd	0.060863305
150	0x3dec4686	0.11536889
151	0xbeafd5d8	-0.34342837
152	0x3d5909e1	0.052987937
153	0xbe671522	-0.22566655
154	0x3e592586	0.2120572
155	0xbd626ecc	-0.055281445
156	0x3eab23d1	0.33425763
157	0x3e338163	0.17529826
158	0xbd9d5801	-0.07682801
159	0xbebcdbe2	-0.36886507
160	0xbe82b36b	-0.2552751
161	0x3ef370bd	0.4754695
162	0x3e8b9626	0.27262992
163	0xbf2c119c	-0.6721437
164	0xbd970705	-0.07374386
165	0xbe1b9291	-0.1519263
166	0x3db1a04d	0.08673153
167	0xbe274da2	-0.16338208
168	0x390558fe	0.0001271702
169	0x3ec2f34d	0.3807625
170	0xbd9420db	-0.07232829
171	0x3c8115c9	0.015757458
172	0xbed28a91	-0.41121343
173	0xbea4baa2	-0.3217364
174	0x3d497738	0.04918596
175	0x3ec7e87b	0.39044556
176	0xbbd9b4b4	-0.006643856
177	0x3be64339	0.0070270565
178	0x3e7071dc	0.23480934
179	0x3dd8b6a8	0.10581714
180	0x3d26f402	0.040760048
181	0xbf512d8f	-0.8171014
182	0xbdc224cf	-0.09479677
183	0x3ea2907f	0.31750867
184	0x3eb9e1f6	0.36305207
185	0x3e4ba0c3	0.19885544
186	0xbea45c09	-0.32101467
187	0x3ed5360a	0.4164279
188	0x3e2f94fa	0.17146674
189	0xbde28cf7	-0.11062043
190	0xbcaa359c	-0.020777516
191	0xbece10ed	-0.40247288
192	0xbd9e6963	-0.07734945
193	0x3f4bfa25	0.79678565
194	0xbe24bacf	-0.16086887
195	0x3e3ee254	0.18641025
196	0x3ccd43b8	0.025056705
197	0x3e48d942	0.19614127
198	0xbda4abb6	-0.08040564
199	0xbd703b67	-0.0586504
200	0xbe814ff6	-0.25256318
201	0x3b6decbc	0.0036304435
202	0xbee0d11e	-0.43909544
203	0xbe02db20	-0.12778902
204	0x3b8d3def	0.0043103616
205	0x3d1ceacc	0.038309857
206	0x3a050344	0.0005074034
207	0x3d0ae6a7	0.033911373
208	0xbe72c018	-0.2370609
209	0xbdfa7b09	-0.12230498
210	0xbd55d045	-0.052200574
211	0xbd5b2485	-0.053501625
212	0x3e15c0c5	0.14624317
213	0xbeb8237c	-0.35964572
214	0x3f035133	0.51295775
215	0xbee22064	-0.44165337
216	0x3e6e79e2	0.23288682
217	0x3c39c343	0.011338058
218	0x3d819d0d	0.06328783
219	0x3e740d10	0.23833108
220	0xbd2f1139	-0.042741034
221	0xbe864658	-0.26225543
222	0xbce26dbc	-0.027640216
223	0x3ea1981e	0.3156137
224	0x3e0e0f7b	0.13873093
225	0x3e428511	0.18996073
226	0xbf092bd2	-0.5358249
227	0x3e736129	0.23767532
228	0xbe2335f2	-0.15938547
229	0xbebbe4d0	-0.36698008
230	0x3cff6a0f	0.031178502
231	0x3eac986b	0.33710036
232	0xbe4bc61d	-0.19899793
233	0x3daab1e2	0.0833471
234	0xbdf5d2ec	-0.12003121
235	0xbd22d41f	-0.039753076
236	0xbe01bba3	-0.12669234
237	0xbea7053c	-0.3262118
238	0x3de80e8d	0.113309
239	0xbe997a8f	-0.29976317
240	0x3e5ec89c	0.21756214
241	0x3e8fd0af	0.280889
242	0x3e4ad817	0.19808994
243	0xbc5a70fb	-0.013332601
244	0x3ea3d085	0.31995025
245	0xbc86329a	-0.01638155
246	0xbe228a90	-0.1587317
247	0x3d96c782	0.07362272
248	0xbedfbf7c	-0.43700778
249	0xbf144d84	-0.5793078
250	0x3d51af38	0.051192492
251	0xba796db6	-0.00095149444
252	0xbd18ba04	-0.037286773
253	0xbece6500	-0.40311432
254	0xbce7b8e8	-0.028286412
255	0x3dcd5c88	0.100274146

mean_linear.bias f4 [12]
0	0x3ece4df8	0.4029386
1	0x3fbf3e04	1.4940801
2	0xbf464365	-0.77446586
3	0x3cd9455f	0.026522337
4	0xbf4051dc	-0.7512491
5	0x3d434808	0.047676116
6	0xbe7a90db	-0.2446932
7	0xbd9b7df9	-0.07592387
8	0xbf9a0d62	-1.2035334
9	0x3e17a403	0.1480866
10	0xbe3228bc	-0.17398351
11	0x3e88d24c	0.26722944

log_std_linear.weight f4 [12, 256]
0	0xbdd5db89	-0.10442264
1	0xbe20449e	-0.15651175
2	0x3e1be41e	0.15223739
3	0xbd5310b9	-0.05152962
4	0xbe0f60cd	-0.1400177
5	0xbdc63762	-0.09678532
6	0xb8e1a87b	-0.00010760218
7	0xbd579755	-0.052634556
8	0x3d73fdfb	0.059568387
9	0x3e00f979	0.12595166
10	0x3cac4524	0.021029063
11	0x3da116a0	0.078656435
12	0x3d2add52	0.041714974
13	0xbc35e126	-0.011101043
14	0x3ce3a949	0.027790682
15	0xbd94642b	-0.07245668
16	0xbd34ee32	-0.044172473
17	0x3cb9a884	0.022663362
18	0x3d9ba7a7	0.076003365
19	0x3da0702f	0.07833897
20	0x3cee04c7	0.029055012
21	0xbe167811	-0.14694239
22	0x3e06a14a	0.13147464
23	0xbc627752	-0.0138223935
24	0xbdad907d	-0.084748246
25	0xbd10a7dc	-0.035316333
26	0xbe1ec7d8	-0.15505922
27	0x3ba3c33f	0.0049976404
28	0x3e822fb1	0.2542701
29	0xbb83a8bc	-0.0040179174
30	0x3c8471db	0.016167572
31	0xbb939af5	-0.0045045563
32	0xbc527c6d	-0.012847048
33	0x3b0d9773	0.0021605163
34	0xbdab419d	-0.08362124
35	0x3d7669e1	0.060159568
36	0x3cf10485	0.0294211
37	0x3dbb80df	0.091554396
38	0x3dc2584b	0.09489497
39	0x3e590321	0.211926
40	0x3ee1e073	0.44116554
41	0x3dc1b11f	0.09457611
42	0x3e94624d	0.28981248
43	0xbbea1c67	-0.007144499
44	0x3ab34e5a	0.0013679967
45	0xbced2433	-0.028947925
46	0x3e234671	0.1594484
47	0xbd5f7526	-0.05455508
48	0x3deb0d26	0.11477117
49	0x3c5cd5cb	0.013478707
50	0xbd31ec3f	-0.043438192
51	0x3d682e72	0.05668492
52	0x3ce527db	0.027973106
53	0x3df0dd3b	0.11760946
54	0x3ce62763	0.028094953
55	0x3c4be0ce	0.012443734
56	0xbba622c0	-0.0050700605
57	0x3d16b24a	0.036791123
58	0x3df490f8	0.11941713
59	0xbd55e907	-0.052224185
60	0x3e3f2bc4	0.18669039
61	0x3d9ab76d	0.07554517
62	0xbccdbf6e	-0.025115695
63	0xbdc731f6	-0.09726326
64	0xbd52304c	-0.05131559
65	0xbc394cb0	-0.011309788
66	0x3e4b6daf	0.1986606
67	0x3d3a86a7	0.04553857
68	0x3d0ed6d4	0.034872845
69	0x3e727ae0	0.23679686
70	0x3919a80a	0.00014653816
71	0x3f3740a8	0.7158303
72	0xbda03bb2	-0.07823886
73	0x3d4548b6	0.048165046
74	0x3ec3a616	0.3821265
75	0xbdc87855	-0.097885765
76	0xbdd71dff	-0.10503768
77	0x3e53f9e4	0.20700794
78	0x3e9d70d6	0.3075015
79	0xbd2afe2a	-0.041746296
80	0x3e2343d3	0.15943842
81	0x3e1287f2	0.14309672
82	0x3d1e1fd8	0.038604587
83	0xbe4bbfff	-0.1989746
84	0x3e80762a	0.25090152
85	0xbadab28b	-0.001668529
86	0x3d0a1f5e	0.03372132
87	0x3ca881b5	0.020569662
88	0x3e880eae	0.265737
89	0xbbc45cd1	-0.00599251
90	0xbca5157e	-0.02015185
91	0x3d60d2f9	0.0548887
92	0x3c7ea7f9	0.0155429775
93	0xbdde4db2	-0.10854663
94	0xbc42219e	-0.011848835
95	0x3d8a4664	0.06751707
96	0xbd098252	-0.03357155
97	0xbda586a1	-0.08082319
98	0xbd050b17	-0.03248128
99	0x3d92b3fa	0.07163234
100	0x3d92ae75	0.07162181
101	0x3d9638c0	0.07335043
102	0x3e449b31	0.19199826
103	0xbbfe4072	-0.0077591473
104	0xbc619c36	-0.013770154
105	0x3e7ef50f	0.2489817
106	0x3e563fbc	0.2092275
107	0xbc8badb2	-0.017050598
108	0xbc622a71	-0.013804064
109	0x3e2f2891	0.17105319
110	0x3d7e8c48	0.0621455
111	0x3ca19553	0.019724524
112	0xbe08d666	-0.13363037
113	0xbe149315	-0.14509232
114	0xbdcabdfc	-0.09899518
115	0xbda5e799	-0.08100814
116	0x3d2e3241	0.042528395
117	0x3e06cf4d	0.13165016
118	0x3d38d765	0.04512729
119	0x3d93b0bf	0.07211446
120	0x3df025cd	0.1172596
121	0xbca8040f	-0.020509748
122	0x3c805c39	0.015668975
123	0xbd0e1bee	-0.034694605
124	0xbe658e7f	-0.22417639
125	0xbbeca125	-0.0072213584
126	0xbdec2ec3	-0.115323566
127	0x3d6a8acb	0.05726127
128	0xbc6840ea	-0.014175633
129	0xbe210903	-0.15726094
130	0xbc9f9145	-0.01947845
131	0xbcf7d672	-0.030253623
132	0x3df053eb	0.11734756
133	0x3d0b3a6e	0.03399127
134	0xbdba07d8	-0.09083527
135	0x3d1fd1eb	0.039018553
136	0x3eb78f25	0.35851398
137	0x3e253106	0.16131982
138	0x3dc0f25d	0.09421227
139	0xbcff0924	-0.031132288
140	0x3e4b2009	0.19836439
141	0xbd6e9943	-0.05825163
142	0x3cda2b5a	0.026632
143	0x3d136f23	0.03599466
144	0x3c5502ba	0.013001138
145	0x3d1da86d	0.0384907
146	0xbd5e4e22	-0.054273732
147	0xbd271e55	-0.04080041
148	0xbce5f333	-0.028070068
149	0x3e35b154	0.17743427
150	0xbdd4b87c	-0.1038675
151	0xbc0a6f8a	-0.008449445
152	0x3c8133f3	0.015771842
153	0x3e16d273	0.14728718
154	0x3e6a8046	0.22900495
155	0x3d51731a	0.05113516
156	0x3dd09164	0.10183981
157	0x3d8d2ae4	0.06892946
158	0x3e1286fc	0.14309305
159	0x3e365247	0.17804824
160	0xbd907ec4	-0.070554286
161	0xbe056e4f	-0.1303036
162	0x3e80d238	0.25160384
163	0x3e81fce0	0.2538824
164	0xbd792ee2	-0.060835727
165	0x3d9c5412	0.07633223
166	0x3cacb549	0.021082537
167	0xbdb9c149	-0.09070069
168	0xbe0a5792	-0.13509968
169	0x3c1ee9b8	0.009699278
170	0xbcada0b7	-0.021194799
171	0xbc636058	-0.013877951
172	0x3d37fdfe	0.04491996
173	0x3dfa621d	0.12225745
174	0x3dbd0d8a	0.09231098
175	0x3d26683c	0.04062675
176	0x3a72a3b6	0.0009255962
177	0x3e486d8f	0.19573043
178	0xbda2ae19	-0.07943363
179	0x3e036981	0.12833215
180	0xbd97274a	-0.07380541
181	0x3c58c388	0.013230212
182	0x3df1aa15	0.11800019
183	0xbdbf0563	-0.09327199
184	0x3e002bb9	0.12516679
185	0xbd577907	-0.052605655
186	0x3d9432e3	0.07236268
187	0x3e57e3e2	0.21083024
188	0x3c27f498	0.010251187
189	0xbd0822b7	-0.03323623
190	0x3d7ff90a	0.06249336
191	0x3df2f358	0.118628204
192	0xbd68bff6	-0.056823693
193	0x3cb940e0	0.022613943
194	0x3cb1453d	0.02163946
195	0x3eb10dfa	0.34580976
196	0x3b97a70a	0.004628067
197	0x3e4d2008	0.2003175
198	0x38b6db9e	8.719343e-05
199	0x3de73998	0.11290282
200	0xbc719cf5	-0.014746894
201	0xbaa7ff27	-0.001281713
202	0xbc74df78	-0.014945857
203	0x3dcb96be	0.09940861
204	0xbbd871d8	-0.006605368
205	0xbe4daf47	-0.20086394
206	0xbcef7a8d	-0.029233241
207	0x3dd33f6d	0.10314832
208	0xbe61044c	-0.21974295
209	0xbd163681	-0.036673073
210	0x3d64b0a7	0.05583253
211	0x3e12cec5	0.14336689
212	0x3c82e2df	0.015977321
213	0x3dc32540	0.09528589
214	0x3e80490b	0.25055727
215	0x3d9935c8	0.07480961
216	0xbdc53b79	-0.09630484
217	0x3b319252	0.002709527
218	0xbdb7e862	-0.089798704
219	0x3d975e3e	0.07391022
220	0x3ec4f42b	0.38467535
221	0xbda7b2a4	-0.0818837
222	0xbe0a8134	-0.1352585
223	0x3dcf0166	0.101076886
224	0x3de0d940	0.10978937
225	0xbd57be18	-0.052671522
226	0x3dc8be33	0.098019026
227	0xbd7da4a3	-0.061924588
228	0xbb9dca30	-0.0048153624
229	0x3e9b48b1	0.30328897
230	0x3e0843b7	0.13307081
231	0x3d028d44	0.031873003
232	0xbdaaece0	-0.083459616
233	0xbcdab19c	-0.026696019
234	0xbd846cb4	-0.06466046
235	0xbc71eb6f	-0.014765604
236	0x3ddda68b	0.10822781
237	0x3caa7539	0.02080785
238	0xbd71dad0	-0.059046566
239	0x3de6d7ae	0.112716064
240	0xbc24d7c3	-0.010061207
241	0xbc4286f5	-0.011872997
242	0xbce9a3fd	-0.028520579
243	0x3d40659c	0.046971902
244	0x3e8bb5bb	0.27287087
245	0xbd9f7797	-0.07786482
246	0x3dc68ea2	0.09695174
247	0x3d56ebd6	0.052471004
248	0x3d2e1131	0.042496864
249	0x3ce1e352	0.027574215
250	0xbbbae7bb	-0.005703894
251	0x3af6e52c	0.0018836609
252	0x3be895c9	0.007097934
253	0x3d20f11b	0.039292436
254	0x3ddc201c	0.10748312
255	0x3d1ce829	0.038307343

log_std_linear.bias f4 [12]
0	0xbed7238c	-0.42019308
1	0xbfbc65ba	-1.4718544
2	0xbf402f39	-0.75072056
3	0xbe91e909	-0.28498104
4	0xbf1fd3a6	-0.62432325
5	0xbf6d99c0	-0.9281273
6	0xbee6bdd9	-0.45066717
7	0xbecd3105	-0.4007646
8	0xbf43649f	-0.7632541
9	0xbf010bdb	-0.50408715
10	0xbf1cdf48	-0.612782
11	0xbf289ee7	-0.65867466
